artifacts/best.ckpt (torch, 500181 bytes, 62 tensors)

stage1.0.depthwise.weight f4 [3, 1, 3, 3]
00000000: 59dd 87bd a8fc cf3e 0800 82be a168 383f
00000010: 513e 8c3e 3aa3 02be 9b55 34be 3514 743c
00000020: 09e2 a03c 2422 3bbe c1cf d63d 87e5 edbd
00000030: 7b99 e53e bc5c f03e 9b61 d4bd 331e 45be
00000040: 80a2 ac3e 7a3e 5fbe 11ec da3d 6fa3 3c3e
00000050: 4ec3 0ebe dc93 c8be c43f a7bd c873 843e
00000060: bab5 ffbe 614e 08be f33c ea3d
-0.066340156 0.4062245 -0.2539065 0.7203465 0.27391294 -0.12757578 -0.17610781 0.014897396
0.019639032 -0.18274742 0.10488845 -0.116160445 0.4484366 0.4694575 -0.10370179 -0.19249801
0.33717728 -0.21801177 0.10689557 0.1842172 -0.1394169 -0.39175308 -0.08166459 0.25869584
-0.49943334 -0.13311149 0.114374064

stage1.0.bn1.weight f4 [3]
00000000: e31f fe3e 7c57 113f ac28 eb3e
0.49633703 0.56774116 0.45929468

stage1.0.bn1.bias f4 [3]
00000000: a369 913f aa5b a23f c2b4 b83f
1.1360363 1.2684224 1.4430163

stage1.0.bn1.running_mean f4 [3]
00000000: dc06 403c e02d 4b3b 43b6 bb3b
0.011720385 0.0031002685 0.0057285144

stage1.0.bn1.running_var f4 [3]
00000000: eb6d 1f3f b207 bc3e 1bcb ab3e
0.62277097 0.3672462 0.33553395

stage1.0.pointwise.weight f4 [48, 3, 1, 1]
00000000: 212a c3be f06e 773c 5a14 1fbf 2cda 2a3f
00000010: 13b9 d4be 3ceb a23e ea5e ea3d a627 8dbd
00000020: 9ad3 493f fb70 3e3e 76f2 ad3e 4e8d 903e
00000030: d014 a7be 8834 3e3e 491b 05be 4985 483e
00000040: 873d 263f 9c37 9e3e 5469 77be c35c d43e
00000050: efd8 453e 4ee0 183e 2d3b efbe 0387 1dbf
00000060: a57a 6ebd b5fc 05bf 9ce0 093f 9c1b f33e
00000070: 5e08 8a3e 9581 a03d 2773 d73d b8cc 283f
00000080: 06c2 8abe 9964 233d 701e 3bbe e904 223f
00000090: 5db7 b4be 4b8e 3a3e 792c 6dbd 307c 083f
000000a0: a092 f2be 69aa 81bd afbb dcbe 2606 0a3f
000000b0: 505f 3f3e 55e4 7a3e c995 1bbf 6179 42bf
000000c0: 73b1 d0be 0c22 aebe 645d d33e fc3f c23d
000000d0: c05d e63e 0ba2 e7be bf43 efbe 6a8f b73e
000000e0: 9682 d5bd 7c5f d13e ec21 2cbe 8b26 b63e
000000f0: 913c abbe 4149 7cbe 129e be3e 38f7 ba3d
00000100: f83d 753d 7ca2 0c3f e38a b33e 4e22 0fbf
00000110: 4305 73be 05f7 093f 3745 a4be f48f 2ebe
00000120: 6bc3 1fbf 3c8f c2be 1000 d7bd 3714 dcbe
00000130: c9f7 51be 57a5 263d cc00 2dbf a0fb f6be
00000140: 08cf 63be 151e 33bf dfa5 13bf a2f3 953e
00000150: 8fa1 443e b748 443d 2f52 2cbf e01e 883d
00000160: 43e0 b3be 3582 8abe e83d 8abe f5f6 d4be
00000170: d287 e9be 87de 003e 2899 86be 7416 23be
00000180: c71a 23be 7110 a9be 0ffd 0cbf ab76 97be
00000190: 2248 18bf 34fd cc3e 753f 9abe a2f1 fc3e
000001a0: 958e 343e 2f2b 06bf 067b cf3e 3a5f 6bbe
000001b0: 80ea e3be d05c d3be ceb9 10bf 0ba1 4e3e
000001c0: c800 7dbe 9170 823e d78d 95be d4f1 3e3f
000001d0: 3bbe 6dbe 92c5 54bc 3178 803e 6050 c33e
000001e0: fa36 463f 54f8 883d def3 f1be 6090 2d3e
000001f0: 59bc bcbe d039 10be 0c1e bbbe 5c66 213f
00000200: 74f5 e7be 7373 cb3e 6c83 ae3e 8ac6 1c3e
00000210: ae43 b1be ba4d 113f 0bdc 2c3e f041 c3bd
00000220: 09a2 e6be ed19 cc3e cdb5 e5bd aec8 70bd
00000230: b4b7 3f3f 2e8f 743d 8fef b9be 18be c9be
-0.3811808 0.015102133 -0.6214043 0.66739154 -0.4154745 0.31820095 0.11443885 -0.06892328
0.78838503 0.18597786 0.33974046 0.28232807 -0.32633066 0.18574727 -0.1299869 0.19582094
0.64937633 0.30901802 -0.24161273 0.41477022 0.19321035 0.14929315 -0.46724835 -0.61534137
-0.05822243 -0.52338725 0.5385835 0.47482002 0.2695951 0.07837216 0.105200104 0.65937376
-0.27101153 0.03989086 -0.1827333 0.6328874 -0.35296145 0.18218343 -0.05790374 0.53314495
-0.4737749 -0.06331331 -0.4311194 0.5391563 0.18688703 0.24501164 -0.6077543 -0.7596646
-0.40760383 -0.3401035 0.4128219 0.0948486 0.449934 -0.45240816 -0.46731374 0.35851604
-0.10425298 0.4089316 -0.16809815 0.3557628 -0.33444646 -0.24637319 0.37229973 0.091291845
0.05987355 0.5493543 0.350669 -0.5591172 -0.23732476 0.53892547 -0.32084057 -0.17047101
-0.6240756 -0.37999904 -0.10498059 -0.42984173 -0.20504679 0.040685024 -0.6757934 -0.4823885
-0.22246945 -0.69967777 -0.57674974 0.2928744 0.19202255 0.04792091 -0.673129 0.06646514
-0.35132036 -0.27052465 -0.27000356 -0.41594663 -0.45611435 0.12584887 -0.26288724 -0.15926534
-0.15928183 -0.33020356 -0.55073637 -0.29582724 -0.59485066 0.4003693 -0.3012654 0.494031
0.17632516 -0.5240964 0.40523547 -0.22985545 -0.44514847 -0.41281748 -0.56533515 0.2017862
-0.2470733 0.25476506 -0.29209778 0.7458775 -0.23217098 -0.012986558 0.250917 0.3814726
0.7742764 0.0668799 -0.47256368 0.16949606 -0.36862448 -0.14084554 -0.3654636 0.63046813
-0.45304453 0.39736518 0.34084642 0.15310112 -0.34621948 0.56759226 0.16880815 -0.09534061
-0.45045498 0.3986353 -0.11216316 -0.058785133 0.74889684 0.05970686 -0.3631558 -0.39402843

stage1.0.bn2.weight f4 [48]
00000000: f363 c23e cf10 fa3e 23c0 a03f ec48 803f
00000010: 8212 1d3f 35af 8d3f 8306 e13e ba07 fd3e
00000020: acbc ce3f 1e45 653f 1b4a 5d3f bc27 0f3f
00000030: 56ec 733f 0b60 273f 2092 bc3e 809f 5b3f
00000040: 4194 8c3f 361b 833f cf03 8d3f 822e a33f
00000050: f7b5 443f 83aa 6c3f 1006 e33e 8b21 be3e
00000060: 000e 323f 026e 873f c874 723f c937 9b3f
00000070: 9f6a 553f 1500 9b3e 5c86 513f 557b f33e
00000080: 335a 893f 801d b93f ec1e 0f3f e22f 303f
00000090: fcd8 913e 52a1 503f fbd7 b53f d3fb ee3e
000000a0: 8532 0f3f c6c5 8f3f 5962 873f 2344 af3f
000000b0: fc35 933f b1d0 3c3f e3ba 233f 409f 973f
0.3796688 0.4884095 1.2558635 1.0022254 0.61356366 1.1069094 0.4395028 0.49419957
1.6151328 0.8955859 0.864412 0.55920005 0.95282495 0.65380925 0.36830235 0.8579025
1.0982744 1.0242679 1.1016787 1.2748568 0.76840156 0.9244768 0.44340563 0.37134966
0.6955261 1.0580447 0.94709444 1.2126399 0.83365816 0.302735 0.8184564 0.47555032
1.0730652 1.4462128 0.5590656 0.68823063 0.28485858 0.81496155 1.4206537 0.46676502
0.5593646 1.1232231 1.0576888 1.3692669 1.150085 0.7375594 0.6395704 1.1845474

stage1.0.bn2.bias f4 [48]
00000000: a5f1 1a3f beb8 1b3f c992 373d 9091 193e
00000010: 31ca d53e e2cf 88bd 5a23 083f 077c 0a3f
00000020: 0e1f c53c 816c e03d 8251 203e eb4a fcbe
00000030: 8ab3 5c3e 3a83 073f 6697 253f 5145 a03e
00000040: 9772 a9bd 37e8 10be 42ce 293e 7dfa 593d
00000050: e546 a13e c865 15be 8ea9 103f 3e81 193f
00000060: cc9b a7be 8e6e acbd 1564 1b3e 12ba bb3d
00000070: 86ee 74be aa71 1f3f f5f1 d03e df56 0f3f
00000080: e627 e83d a005 8abb abc1 f53e 13e0 ba3e
00000090: 6702 2a3f 3f01 d83e 90e8 3c3d d749 063f
000000a0: 942c f43e 3604 013e 4642 c03d e9bc b8bd
000000b0: d165 2fbd 4c9d a03e f796 c33e 461c 5bbd
0.6052497 0.6082877 0.04481772 0.14996934 0.41755822 -0.066802755 0.5317894 0.540955
0.02406266 0.109581955 0.15656093 -0.49275908 0.21552864 0.5293461 0.6468414 0.31302884
-0.082738094 -0.14151083 0.16582587 0.0532174 0.314994 -0.14589608 0.5650872 0.5996283
-0.3273605 -0.08419524 0.15174897 0.091663495 -0.23919114 0.6228281 0.408096 0.5599193
0.11335735 -0.0042120963 0.4799932 0.3649908 0.66409916 0.4218845 0.046120226 0.5245642
0.4769026 0.12599263 0.09387641 -0.09020407 -0.04282171 0.31370008 0.38201115 -0.05349376

stage1.0.bn2.running_mean f4 [48]
00000000: 6a49 a8bf f8ce 313f 8536 973f 5d58 863f
00000010: ad69 a7be bef0 be3f 8b32 083f 96de a7bf
00000020: 4e65 293d d4a9 7e3f 3e77 0f3f bc45 393f
00000030: b5c0 82be 55dc aabd 7ad9 ee3e 2039 cbbf
00000040: b553 95be cada 4a3c 2ea4 68be 7ae9 433f
00000050: ad8d 25be 2a8f 783f 2197 27bf 1b53 10bd
00000060: 45ec abbf 3e4b 31bf b7dc d9bf bf7e 8dbf
00000070: 2b5e 32bf a81f 42bf f020 bfbf a844 d7be
00000080: 149a b2bf 033c 03bf fd36 093f 1664 d3be
00000090: c43d ecbf 3c26 903e db4e 893e 61b2 5a3f
000000a0: c47f 933e 57e8 f4be 0e4f 8dbe b08d 8d3f
000000b0: 5e28 113f db17 d0bd cc65 5f3f b617 76bf
-1.3147404 0.69456434 1.1813513 1.0495716 -0.32697812 1.4917219 0.5320212 -1.3114803
0.041356377 0.9947789 0.56041324 0.7237203 -0.2553765 -0.08342806 0.46650296 -1.5876808
-0.29165426 0.012381265 -0.2271888 0.7652813 -0.16167326 0.9709345 -0.6546498 -0.035235506
-1.3431479 -0.69255435 -1.7020482 -1.1054305 -0.6967494 -0.75829554 -1.4931927 -0.42044568
-1.3953271 -0.51263446 0.5359953 -0.41287297 -1.8456349 0.2815417 0.26817974 0.85428435
0.28808415 -0.4783351 -0.27599376 1.1058865 0.5670222 -0.101608 0.87264705 -0.9612993

stage1.0.bn2.running_var f4 [48]
00000000: 49f8 533d 0460 3a3d b635 033e 7ecd 263d
00000010: 756a 183c befe 033e a995 253c bf5f 043d
00000020: 6d72 923e 9710 fd3d 8b48 8a3e f25d 053e
00000030: 5171 1a3c 4b39 923c 3ce4 833c 477d 4e3d
00000040: 3ad9 903e dfb9 633e a87e 8f3c 97b6 dc3c
00000050: 6bd2 3f3e 35a4 2f3d 1737 913c db39 fb3c
00000060: f20f 673e e127 e13d 0289 8a3e 4793 103f
00000070: 71ce 213e 2fd4 443c d4a3 7e3d 1de1 8e3b
00000080: 0341 0b3d cc73 c33e 5a60 7b3c 7455 043d
00000090: 715b c63d 2641 fd3c 2327 1f3e 2b6d 4d3c
000000a0: 5c89 ab3e 65ed 2e3c a053 223e a4f3 de3d
000000b0: d431 b23c ca29 503e 9239 2a3e 2236 763c
0.051750455 0.045501724 0.12813458 0.040723316 0.009302725 0.12890145 0.010106483 0.032317873
0.28602925 0.1235668 0.2700847 0.13024119 0.009426431 0.017849585 0.016100042 0.050412443
0.2829073 0.22238873 0.01751645 0.026942534 0.18732612 0.04288121 0.017726464 0.030667236
0.22564676 0.109939344 0.27057654 0.5647473 0.15801407 0.012013479 0.062167957 0.0043603317
0.033997547 0.38174284 0.015342796 0.032308057 0.0968541 0.030914854 0.15542273 0.012538235
0.33503234 0.010676716 0.15852213 0.108863145 0.021752276 0.20328441 0.16623524 0.015027555

stage1.1.depthwise.weight f4 [48, 1, 3, 3]
00000000: 025a 363e 179b bc3e 1ce0 3cbe 9660 7bbe
00000010: f6e8 f6bd fa90 10bf 5d62 b53d b625 aa3d
00000020: b49d 82be 3789 00be cf0e 553e 4424 ab3d
00000030: 6fab 3ebe 43ae c33e 3f70 993e ffbd eebb
00000040: 0ff1 3ebe 850f 41be e6fe 58bd 00e6 30be
00000050: 8819 e8bd 867f 063f 2952 903e b7bc 60be
00000060: 1c7d 423d d36d e53d 9fc8 713b 8c61 063b
00000070: 2df3 243e 8528 b6be 6504 b9be bbdc 5a3e
00000080: 98c5 5cbd fae8 8cbe 120d 95be 1691 a6be
00000090: 82a9 3cbe e3c9 6ebd 844f efbd 7aec c23e
000000a0: 8000 943e 17d5 c7be 918c 7abe 27c0 adbd
000000b0: 0c1b cb3e fa06 b5bd 58ce 06be e62c 663e
000000c0: 0316 c1bd 4915 32be 59c7 153f cfef 34be
000000d0: 0ef8 d6bd 8892 7bbd 87f7 0a3e fae7 c73e
000000e0: 0dd7 d3bd fd86 38be 55c4 e0be b1cf 9ebe
000000f0: 4f82 953e ca12 c53e a564 7e3e 7ffa 813e
00000100: fef4 4abe 5b19 40be 4ba4 88be aa69 20bf
00000110: 3e6c 81be 7d2e 3a3e 72d8 24bd b04d c03d
00000120: faee 3a3e 50a6 bb3d c578 533d 6763 38be
00000130: bfe8 cbbe 7cd5 abbe fb57 953e 6b8e 58be
00000140: 95de bebe eb68 a7bd 08bc 69be fb66 dcbd
00000150: be37 29be c10e 863e 49b7 2abe 5029 513c
00000160: 5408 f93e aec4 033f f37a 6cbe 9913 943e
00000170: fe0e 6bbe c7ec 653e 91e4 e33e 785b 12bd
00000180: 065a 31bd a1af d3bd ea4c cabe b22f cf3e
00000190: 7224 40be a256 e13e d2b6 903e 0385 833e
000001a0: 99a9 fa3d bccf 61be 1dfc e13d 3eaf 973e
000001b0: dd16 81bd 26e8 43bd c122 c33d 5743 b93d
000001c0: fec7 3ebe e000 59be f7a2 8cbe df12 60bf
000001d0: 2998 19be 546e d03e 1ade c9bc a412 af3d
000001e0: 36f1 873e 5e65 c0be 56e0 9abe d8b9 363e
000001f0: 9465 7dbe 60e5 24be 0c93 dbbc 003b eabe
00000200: 4b9d 9bbe 45c8 21be e98d b0be b873 9abe
00000210: 78db 7abd 735b 19be 7b70 2ebe 4b97 cabd
00000220: 208b 8a3d db7a 8b3c 4d15 0e3e 058b 0b3f
00000230: f757 f83e 5288 a8be 2e28 9e3b 57de 0b3e
00000240: 705d e9bd 088d 75bd 8ffc 223e 7d98 9cbe
00000250: a96b 803e 0b4e 60be ce90 3cbe 4854 053f
00000260: 3039 6c3e 81c6 99be 36e0 85be be80 8abe
00000270: 8ada d4be 9263 b3be 51ae c33d 3378 6a3e
00000280: 15ce ac3e ca13 693e b90c 10bf 0df1 5b3a
00000290: cbc6 c6bd 0eba e63c f896 283e 0db2 0a3c
000002a0: 773d 93be 2b64 74be 2fdb 89be 9e3a 5d3d
000002b0: c5f2 15bf b14b 83be 7b9b 58be eeaf c5bd
000002c0: 978b 00bf 90aa 91be cd09 37bd 5316 383d
000002d0: 261e 0e3e f869 2b3e 8938 ec3c b0eb e1be
000002e0: 7ecf 053d 43ad c03e 22d4 a7be 27f6 3fbe
000002f0: c1b9 c13e 5b65 103e 218b f3be c34a 243e
00000300: ee99 843e 30f9 80bc 8481 5bbc 2535 963e
00000310: 593e 22be df7f cabe e534 8ebc 30c1 4a3e
00000320: 9006 763e 8d05 d1be b5cf 4ebe ce9e 84be
00000330: 21d6 b9bd 6608 b53e 6912 353e d26f 003e
00000340: 84e3 cfbe 4322 503e f06d 62be 8bd5 ab3d
00000350: f15e 183f e7fb a73c 8571 663e 2900 d0be
00000360: 2a8d 4fbb a21d 0fbd e2d9 afbe 3294 4b3e
00000370: f031 d13e 61d1 4e3e 0169 a93e 0844 503e
00000380: 927b 9c3c c7e4 05be 86e4 25bd d4c5 5e3e
00000390: 0588 8dbe d11b a7be 2e67 6c3e a05f a23d
000003a0: e58d abbe 141f 99bd 0586 8cbe 5b1e b7be
000003b0: 45b9 30be c892 14be 0c49 b33d 4463 0b3d
000003c0: 480e 793d 7b8a 013f 7a19 a03e 309b a63e
000003d0: d52c 3fbd 750d 31bc 1568 c33e acad 8ebd
000003e0: 9a87 5ebe 888d 683e 2810 69be be36 bbbe
000003f0: b08e 393e badb 543f f754 873e 5b1b 2cbd
0.17807773 0.36837074 -0.18444866 -0.24548563 -0.120561525 -0.56471217 0.08856652 0.08307974
-0.25510943 -0.12552343 0.2080643 0.083565265 -0.18620084 0.3821889 0.2996845 -0.007285833
-0.18646644 -0.18853576 -0.052977465 -0.17275238 -0.11332995 0.52538335 0.28187683 -0.21946989
0.047482595 0.11202588 0.003689326 0.002050492 0.16108389 -0.3557779 -0.36136165 0.21373264
-0.053899378 -0.27521497 -0.29111534 -0.32532567 -0.18424037 -0.058298003 -0.11685088 0.38071042
0.2890663 -0.39029762 -0.24467684 -0.08483916 0.39669073 -0.08839221 -0.13164651 0.22478065
-0.094280265 -0.17390932 0.58507305 -0.17669605 -0.104965314 -0.06141904 0.13570987 0.39044172
-0.10343752 -0.18020244 -0.4389979 -0.3101783 0.2920098 0.38490897 0.2484308 0.25386426
-0.1982002 -0.18759672 -0.26687846 -0.6266123 -0.25277895 0.18181796 -0.04024548 0.09389818
0.18255225 0.09162581 0.051628847 -0.18006669 -0.3982601 -0.33561313 0.29168686 -0.21148078
-0.37279192 -0.081743084 -0.22825634 -0.107618295 -0.1652517 0.2618313 -0.1667148 0.012766197
0.48639166 0.51471984 -0.23093776 0.28921202 -0.22954938 0.22453605 0.4451032 -0.035731763
-0.043298744 -0.10336233 -0.39511806 0.40466076 -0.18763903 0.44011408 0.2826448 0.25687417
0.122393794 -0.220519 0.11034415 0.29625887 -0.06303189 -0.047828816 0.09528113 0.09046047
-0.18630978 -0.2119174 -0.27468082 -0.87528795 -0.1499945 0.40709174 -0.02464204 0.08548477
0.26551217 -0.37577337 -0.3024928 0.17844331 -0.2474578 -0.16103125 -0.026803516 -0.45748138
-0.30393443 -0.15799053 -0.3448327 -0.3016641 -0.061244458 -0.14976291 -0.17035095 -0.09892138
0.06764817 0.017026355 0.13875313 0.54509 0.48504612 -0.32916504 0.004826567 0.13659035
-0.11394775 -0.05994895 0.15916656 -0.3058509 0.25082138 -0.21904771 -0.18414614 0.5208173
0.2306869 -0.3003426 -0.26147622 -0.27051347 -0.41572982 -0.35036904 0.095547326 0.22897415
0.33750978 0.22761455 -0.56269413 0.00083901064 -0.097058855 0.02816489 0.1646384 0.008465302
-0.2875783 -0.23866336 -0.26925036 0.05401098 -0.5857356 -0.25643685 -0.21153061 -0.096526965
-0.50213 -0.2845044 -0.04468708 0.044943165 0.13878688 0.16739643 0.028835552 -0.44125128
0.032668583 0.37632188 -0.32779032 -0.18746243 0.3783703 0.14101164 -0.47567084 0.16044144
0.2589869 -0.015743822 -0.013397578 0.2933742 -0.15844096 -0.39550683 -0.017359206 0.19800258
0.24025941 -0.40824547 -0.20196421 -0.25902408 -0.09074045 0.3535797 0.17682804 0.12542656
-0.40603268 0.2032557 -0.2211225 0.083903395 0.5951987 0.020505859 0.22504242 -0.40625122
-0.0031669834 -0.03494037 -0.3434592 0.19880751 0.40858412 0.20197059 0.33087924 0.20338452
0.019101892 -0.13075553 -0.04050114 0.21755153 -0.27642837 -0.3263841 0.23086235 0.07928395
-0.33506694 -0.07476631 -0.27446 -0.35765347 -0.17258175 -0.14509118 0.08754167 0.034030214
0.060804635 0.5060193 0.31269437 0.32540274 -0.046673615 -0.010806431 0.38165346 -0.06966719
-0.21731415 0.2271024 -0.2276007 -0.36565202 0.18120837 0.83147776 0.2643201 -0.042018276

stage1.1.bn1.weight f4 [48]
00000000: 2ddd 3e3f 3d96 6f3f 8be7 713f 28b2 493f
00000010: fd45 7b3f 6c92 693f b540 883f 78e4 733f
00000020: 3a0e 513f 210a a93f 697e 3b3f 094e 5c3f
00000030: 1544 fb3e 3ccc 613f 240c 403f 1ec1 723f
00000040: 79da 7a3f e2bd 683f 6bbe 443f 2b03 543f
00000050: de96 9b3f 0671 093f 6ec3 8d3f 1968 973f
00000060: f3dc 823f 58e8 5b3f a3e5 913f d457 623f
00000070: 8ab7 573f 640e 593f a279 8a3f 2cc5 583f
00000080: 2cbc 4b3f c97b 973f 0c1b 4f3f 1bc6 7f3f
00000090: 0670 9d3f bf81 8a3f d257 4a3f 259a 583f
000000a0: 9c92 833f 27ed 843f 3b35 8f3f 8378 983f
000000b0: 5b40 293f 1dea 4f3f 9136 233f 4ea1 483f
0.7455624 0.9358862 0.9449393 0.7878747 0.9815367 0.9123905 1.0644747 0.9527049
0.81662333 1.3206216 0.7323976 0.8605657 0.4907538 0.8820226 0.75018525 0.94825923
0.9798961 0.9091474 0.76853055 0.82817334 1.2155416 0.53688085 1.1075265 1.1828643
1.0223678 0.85901403 1.1398205 0.88415265 0.84264433 0.84787583 1.0818369 0.8467586
0.79584 1.1834651 0.80900645 0.9991166 1.2299812 1.0820845 0.79040253 0.84610206
1.0279117 1.0384873 1.118812 1.1911777 0.66113824 0.81216604 0.63755137 0.7837113

stage1.1.bn1.bias f4 [48]
00000000: 73ec 013e e7e0 463f 70c8 473d 481d 20bd
00000010: 16d7 03be f918 ea3e 88e1 b73e 0bb2 f73e
00000020: f272 823d 7160 f03e f3c7 d93e c3dc efbe
00000030: b354 d23e 7f6b 0b3e 976c 583f d676 413d
00000040: db47 3bba 606e 743e 1548 5c3e a39e bd3d
00000050: 98cb 683e f772 013e 3c73 373f 489e ac3e
00000060: 9e4f 96be f51e 753d 3e78 1a3f 94d4 c5bc
00000070: 0da8 7dbe 9660 ee3d aa31 6f3e 324c d23e
00000080: 9b86 4a3e 7085 d73e f716 a33e 253b 693e
00000090: 0deb 2e3f ad9e 2ebe 4a43 f03d 44af 7d3e
000000a0: d3b4 e63e 0df4 de3d fea8 423e a271 cf3e
000000b0: ae05 0e3f e461 303f 321d d33d efb4 ae3e
0.12687854 0.77686924 0.048775136 -0.039090425 -0.12875018 0.45722178 0.35914254 0.48378024
0.0636958 0.4694858 0.42535362 -0.46848115 0.41080245 0.13615225 0.84540695 0.04723247
-0.0007144191 0.2387023 0.21511872 0.09258773 0.22733915 0.12641512 0.7166021 0.3371451
-0.29357618 0.059843976 0.60339725 -0.024149217 -0.24771138 0.11639516 0.23358789 0.41073757
0.1977791 0.42093992 0.31853458 0.22776468 0.6832741 -0.17052718 0.11731584 0.2477389
0.45059833 0.10886393 0.19009778 0.40516382 0.55477417 0.6889937 0.10308303 0.34122416

stage1.1.bn1.running_mean f4 [48]
00000000: 073b c7be e9f0 363e db3f 613e fb88 19bf
00000010: 7732 683b 163c e4bb 32af 693e 9f22 19bf
00000020: 7715 18bf 2543 5f3e 8eee edbc d1fb 803d
00000030: d115 4abf 4c79 e8bd 0306 a4bf e79a f93e
00000040: 8aa5 ee3d ad06 82be 5400 17bf f0a4 6dbf
00000050: 750f af3d 6da8 83bd 9814 ce3a c9cd f53d
00000060: 2a4a 133e 3689 85be 4820 c43c 0451 da3b
00000070: f67b 903e bb3d 4bbc 945f b33d 10f1 d3bc
00000080: 3ea5 ffbe ba71 ca3d cbbb 35be e365 cd3d
00000090: 52f6 fcbb 323a d73c 881c a3bd 2c67 f03d
000000a0: bd8a 273d d6ed 523f 4b67 a83d 514f 603e
000000b0: 7018 34bf f9fb b13c d4fb 513e 5626 c6be
-0.38912222 0.17865337 0.21997015 -0.5997464 0.003543047 -0.0069651706 0.22820738 -0.5981845
-0.5940775 0.21802957 -0.029044416 0.0629803 -0.7893954 -0.113512605 -1.2814335 0.48750994
0.11652668 -0.25395718 -0.58984876 -0.928298 0.0854787 -0.06428609 0.001572269 0.12002141
0.1438376 -0.26081246 0.023941174 0.00666249 0.28219575 -0.012404854 0.087584645 -0.025871783
-0.49930757 0.09884973 -0.17747419 0.10029199 -0.0077197934 0.026272867 -0.07964426 0.117384285
0.040903796 0.8239416 0.082228266 0.21905257 -0.7034979 0.021726595 0.20506221 -0.38701123

stage1.1.bn1.running_var f4 [48]
00000000: 2750 953d fa3e 103d a189 143e ee9d 0c3f
00000010: 1115 be3c 4504 ae3d c994 883d 8b3b 303e
00000020: d2ab 1c3f 96c2 133e 20b0 4d3d 47b0 7f3c
00000030: 28a2 4d3f 8e95 c83d 6369 8c3e 1156 bb3e
00000040: 6019 893d 4d5d 693e 6b60 003f 5006 ec3f
00000050: db65 9e3d 12de 573d e390 363d 210a 9b3c
00000060: 469d 803d 4cbd 173e 7e7f c93d 61c8 043e
00000070: e71e 833e a4fd 573b d0f4 043e 60df 853d
00000080: ea06 cd3e 5faf 1c3e 98ee a63d dd6c 5b3d
00000090: bb90 ab3c df10 d13c 5aee 623e 286e 6b3d
000000a0: 192f 3d3d 535a 5f3f e0a7 903d de16 9e3e
000000b0: d660 6c3f edcf 4b3d 95a7 1d3d 3197 c93e
0.072906785 0.03521631 0.14505626 0.5492848 0.023203405 0.08496908 0.066690035 0.17210214
0.61199677 0.14429697 0.050216794 0.015605993 0.80325556 0.0979415 0.27424154 0.365891
0.06694293 0.22789498 0.5014712 1.8439426 0.07734271 0.052702017 0.04457177 0.018925728
0.062799975 0.14818305 0.0983877 0.12967063 0.25609514 0.0032957578 0.12984014 0.06536746
0.40044338 0.15301274 0.08150977 0.053570617 0.020943036 0.02552074 0.22161236 0.0574781
0.046187494 0.872472 0.070632696 0.3087682 0.9233526 0.04975884 0.038489897 0.39373162

stage1.1.pointwise.weight f4 [48, 48, 1, 1]
00000000: 617c 02be e06b dd3c 509d 86bd 16ce 993c
00000010: 5932 88bd c96c 583d a88d ce3b 0270 4c3e
00000020: 0af2 a7be 3f62 88be 7ee8 593d 2876 8ebd
00000030: 2b5e d9bc 0020 b53e 649f 04bd ea4b 94bc
00000040: 9359 033f c8a0 46be 4381 043e 9dce 153d
00000050: 2ad4 c63e 1d66 43bd 0d06 1dbe 9c0b 4b3d
00000060: 9f84 f53d f0bb 9f3d 8ee3 c5bd e2ae 1c3e
00000070: db07 023d 2ba8 ae3b d9ab 333e dbbb debd
00000080: 32cf a5bd 9e65 61be 97e5 6abe 7f6c 693d
00000090: ded8 94be 909a 13be bfd7 0e3e 353e 8c3e
000000a0: 338f 47bd e6d9 463d ec37 c2bd b65d 0ebe
000000b0: 2ccb 393e 5049 bb3d 72bd 02bf ebd2 56be
000000c0: 04e4 40be 787d ea3d 81dd b1bc 5893 a63d
000000d0: 535c ab3b 65c6 23be a2c4 13bf e72f 40be
000000e0: ecf1 b23d b618 4a3d 90a2 8dbd efc9 32be
000000f0: b2ed cc38 8ed5 dbbd ed98 b83d 6875 803e
00000100: 91aa 20be fb2c 23be fc3e abbd f473 bebd
00000110: 60ae b83d aed8 113e 70be 8dbe e43c 90be
00000120: 5dbe 2c3e d09d 10be afa8 19be e8a2 83bd
00000130: 4192 a33d e9f0 f53e aa7a 073e 2bff 11be
00000140: 1746 96bd f234 8abe 993c 863e b6b8 07bf
00000150: 50e8 3f3d c59a 3f3e 9f14 b0be e172 2cbe
00000160: f485 583e 4f4f 673d 4f82 41bc 4a2f b8bd
00000170: 9652 2b3e eb5b 053d 3e27 f43d 9c30 5cbd
00000180: eb88 d2ba ea1f 033e 667d bd3d 18fd 8c3e
00000190: 5376 8fbe 403d a13d 849d 57bd f0fc 2c3e
000001a0: 92f7 36bd d1f7 bebe 795c 92be 4b0f 883d
000001b0: ddfc cf3d befa 4cbe a840 eebd 81ad 31be
000001c0: fe07 dd3d 593e 553d 5536 1e3d ebd1 093c
000001d0: 7751 01bf 6cd9 d03c 504b 27be 26d3 fa3d
000001e0: a5f1 023e 01e4 bebd 6c40 913e 45b3 c7be
000001f0: 4418 d0bc 37b9 44be bd3a 5f3d c8a3 50bd
00000200: a45b 96be 1cf5 01bf 2e92 263e 4f60 61bd
00000210: 32d8 ca3c ee16 8ebe b884 d2be 61b1 49bd
00000220: 36af 993d 2456 c33d d87c cd3d 37ce a53e
00000230: dafc b03d faa2 a4bd cbaf 1d3d 9c16 973e
00000240: 705d ddbd 3e7e ee3b 367f 2c3e 4f48 313e
00000250: d6e2 2ebe 3b2c 863e e58b 063d 9914 5c3e
00000260: 7ac9 a73d c098 1b3e f882 77be 68b7 d2bd
00000270: 3038 0a3d e70c 2ebe 32a5 d2bd f9f8 cabc
00000280: 8589 74be eadd 463e 5ccc b83b 7180 073e
00000290: 3d38 22bf aa6c a63d e308 4f3d da89 5e3e
000002a0: 0d78 5a3d c28f 83be 7ff3 9fbe e307 eb3e
000002b0: d695 fbbd 5ec2 2cbd 57ea 1b3e 36d5 e4bd
000002c0: 10b7 773d e2d0 013e 9b19 a5bc fbdc d13b
000002d0: ef1d 90be ffed aabc b704 3dbd 5a33 acb9
000002e0: 9e2b 6e3e cc24 ee3b b32c cc3e fad0 afbe
000002f0: b251 f93d eb79 933e 53b6 a63d 7c48 9e3e
00000300: e274 d0be 9ae0 eebe e463 63be d9b0 72be
00000310: 5fb7 583e 12a8 533d 083d 6c3d ba4c acbe
00000320: 8002 c03a 006e 9fbe d4a9 db3b c001 c0bd
00000330: aabe 84be 4f78 393e 8ef9 833b 2c95 613e
00000340: 58da 993d 265f 2fbd 4c95 85bd 996f 053f
00000350: 6731 2837 feb2 b43d 0938 a7bc dfdb 77bd
00000360: ee97 863e 86de 24be 39e1 8c3e bcf0 6fbd
00000370: 3397 763e e781 fabc e57d f43d d8c2 f53d
00000380: ef27 f4be 29ea 9abd e7c4 57bd d845 c73d
00000390: 7d69 063c 3612 a03d 33ce 803d ca1c 83be
000003a0: b1ba 593e 9b49 e1bd b2ac 043e 29b8 bf3d
000003b0: eff3 9bbc 67ee a83d b0a3 c63c 91d4 03be
000003c0: 6d23 47be 51fb cbbd abc9 68be f5fe 2e3e
000003d0: 4ebe 27bd ae41 2e3e 4334 63be 4cb3 fbbe
000003e0: dae7 2ebd ac11 87bd 68d3 1dbd 0bc0 44be
000003f0: e4bb 18bc bd64 e9bd 1ef1 8d3e 6b23 ab3e
-0.1274276 0.027028978 -0.06572974 0.018775027 -0.06650228 0.05283812 0.006303508 0.19964603
-0.3280185 -0.26637456 0.053200237 -0.0695613 -0.02653416 0.35375977 -0.03237857 -0.018102605
0.51308554 -0.1939727 0.12939934 0.036573995 0.38833743 -0.047704805 -0.1533434 0.04957162
0.11988186 0.07799518 -0.09662543 0.15301087 0.031745773 0.005330106 0.17546023 -0.10875674
-0.0809616 -0.2201142 -0.22939144 0.056988236 -0.29071707 -0.1441443 0.13949488 0.2739121
-0.04872055 0.048547648 -0.094833225 -0.13902935 0.1814391 0.091448426 -0.5107032 -0.20978896
-0.18836981 0.114497125 -0.021712067 0.08133572 0.0052295118 -0.1599365 -0.5772191 -0.18768273
0.08737549 0.049339972 -0.06915772 -0.17459844 9.771752e-05 -0.10734092 0.09013543 0.25089574
-0.15690066 -0.15935127 -0.08361623 -0.0929946 0.090176344 0.14242813 -0.27684355 -0.28171456
0.16869493 -0.141227 -0.15005754 -0.06427556 0.0798688 0.48035362 0.13230386 -0.14257495
-0.07337587 -0.2699352 0.26218107 -0.5301622 0.04685241 0.18711384 -0.34390733 -0.16840698
0.21144849 0.05647212 -0.011810853 -0.08993395 0.16730723 0.032558363 0.11921547 -0.053757295
-0.0016062533 0.12805143 0.092524335 0.27536845 -0.28019962 0.07873011 -0.052640453 0.16893363
-0.044669695 -0.37298444 -0.28586176 0.06643542 0.10155652 -0.20017526 -0.11633426 -0.17351343
0.1079254 0.052061412 0.038626034 0.008411865 -0.5051493 0.0254943 -0.16337323 0.122473046
0.12787493 -0.09320832 0.28369462 -0.3900396 -0.025402196 -0.19211279 0.054499377 -0.050937444
-0.2936679 -0.5076463 0.162667 -0.055023488 0.024761293 -0.2775187 -0.4111688 -0.049241427
0.07504122 0.095379144 0.10033578 0.32383892 0.086419776 -0.08038898 0.038497727 0.29509437
-0.108088374 0.007278233 0.16845402 0.1731274 -0.17078719 0.2620562 0.032848258 0.21492232
0.081927255 0.15194988 -0.24171054 -0.10288888 0.03374499 -0.1699711 -0.10285415 -0.024776923
-0.23880585 0.19420591 0.005639596 0.1323259 -0.6336706 0.08126195 0.050545584 0.21732274
0.053337146 -0.25695616 -0.3124046 0.45904455 -0.12284438 -0.04217755 0.15226112 -0.11173479
0.060477316 0.12677339 -0.020153811 0.0064045168 -0.28147838 -0.020865439 -0.046147075 -0.00032844656
0.23258826 0.00726757 0.39877853 -0.34339124 0.12173785 0.28803954 0.08140244 0.30914676
-0.40714175 -0.46655732 -0.22206074 -0.23700275 0.211637 0.051673956 0.05767539 -0.33652288
0.0014649183 -0.3113861 0.0067035947 -0.09375334 -0.25926715 0.181123 0.004027552 0.22029561
0.07512349 -0.04281535 -0.06522617 0.5212341 1.0025083e-05 0.088232026 -0.020412462 -0.06051242
0.26287788 -0.16100511 0.2751558 -0.05857919 0.24081115 -0.03057952 0.11938075 0.12000054
-0.47686717 -0.07564194 -0.052678015 0.097301185 0.008203861 0.078159735 0.062893294 -0.25607902
0.21262623 -0.11000367 0.12956503 0.09361298 -0.019037215 0.08248597 0.024247974 -0.12874056
-0.19447108 -0.09960044 -0.2273318 0.17089446 -0.040952973 0.17017242 -0.22187905 -0.4916023
-0.04270158 -0.065951675 -0.03853169 -0.19213884 -0.00932214 -0.113961674 0.2772302 0.3342546

stage1.1.bn2.weight f4 [48]
00000000: 559f ae3f bf2f c83e c866 913f 1077 863f
00000010: 58a2 6c3f 15e6 e23e 84fb 613f 8bb7 893f
00000020: a7e0 463f 8ee6 4e3f 9a5d cb3f 2713 213f
00000030: ff4e 933f 95ad 4f3f 9823 943f f611 683e
00000040: b690 7b3f 3638 2c3f 9eac 223f c59e 403f
00000050: 6f2d 803f 87e4 983f 5d31 e63e 16b2 363f
00000060: e39d 0a3f f65c 333f b1fc 993f e559 3c3e
00000070: aa66 2b3f 88a7 923f 4494 d93e 494d 643f
00000080: 5126 2d3f 4b62 803f 25de d53e afcf 233f
00000090: dd78 f03e 698d d93e 5641 e33e d427 313f
000000a0: fad7 453f 7cb5 483f 406c 593f f7fd c33f
000000b0: 9e9a 433f a71f 713f 7e00 6c3f e44b f53e
1.3642374 0.39098927 1.1359491 1.0505085 0.92435217 0.44316164 0.8827441 1.0759138
0.7768654 0.8082055 1.588794 0.6291985 1.1508483 0.8112424 1.1573362 0.22663102
0.98267686 0.6727327 0.6354464 0.75242263 1.0013865 1.1944741 0.44959536 0.7136549
0.54147166 0.7006372 1.203024 0.18393667 0.6695353 1.1457376 0.4249593 0.8918043
0.6763659 1.0029997 0.41771045 0.63988775 0.4696721 0.424907 0.44385785 0.692014
0.7728268 0.78401923 0.849308 1.5311879 0.764078 0.9418892 0.9218825 0.47909462

stage1.1.bn2.bias f4 [48]
00000000: 4046 36bc dfe8 173f 349f 853d 993a d03d
00000010: 7fa4 ab3e 9062 063f 18f5 943e e469 5dbc
00000020: 7511 ab3e c58f c93e 5e95 2bbd c5fb d43e
00000030: 7df1 2d3e e6b8 033f b9d1 a6bd e25b 383f
00000040: f8d9 273e ed08 133f 536d e23e f3b2 9c3e
00000050: decf 1b3e 9734 ea3d 8dca 0c3f 38c3 c93e
00000060: 2bcf 043f 8d0f ae3e 2cc9 b63d 5e51 3f3f
00000070: 5c2a b43e d422 113e 241d 1e3f c0ec 213e
00000080: 5509 b93e c4f2 663e 9569 0b3f 958f bd3e
00000090: fbc5 063f 4933 1c3f 5d03 193f bc37 963e
000000a0: 67ec d63e 2a8f 963e c007 603e c9dc 2c3c
000000b0: d01a d13e a8f5 3c3e 63a8 153e 603b 093f
-0.011125147 0.5933971 0.06524506 0.101674266 0.33523938 0.52494144 0.29093242 -0.013514016
0.33411756 0.393675 -0.041890495 0.41598335 0.16986652 0.5145401 -0.0814547 0.720152
0.16391742 0.57435495 0.44224033 0.30605277 0.15216014 0.11435812 0.5499657 0.39406753
0.51878613 0.3399624 0.08925089 0.7473353 0.35188568 0.14173442 0.61763215 0.15812969
0.36139932 0.22553545 0.5445798 0.37023607 0.52645844 0.61015755 0.59770757 0.29339397
0.41977236 0.294061 0.21877956 0.010550686 0.4084077 0.18453085 0.14615016 0.53606224

stage1.1.bn2.running_mean f4 [48]
00000000: 9e8c d8be 4bcd 86bf da65 1cbf be23 b73e
00000010: 7af1 1abf 99dc 05bf d952 e83e 6c6c f1be
00000020: a28b 2c3f dc01 15bf fb88 d33d 0923 49bf
00000030: a1bf 1bbf 74aa 103f 7dc2 8cbf e844 aebf
00000040: c099 9abf 16c9 0d3f b23d a73f d5c4 8e3f
00000050: e732 6fbf e6e0 b13c e981 0b3f 70b0 8a3f
00000060: 9ef5 e23e a2ed 933e 0e17 a0bf 3514 9dbf
00000070: 6585 5ebf 443b 9dbf 139e 663d 4894 2b3f
00000080: a685 643f a647 83be 36d8 f1be 8756 40c0
00000090: 8965 b23e eb26 08bf 19c1 92be b40b 293f
000000a0: 818c d03e 0f08 a63f e36f f6bf 3679 923f
000000b0: 2861 1e3f 7349 2ec0 6f62 4bbf b078 a8bd
-0.42294782 -1.05314 -0.61092913 0.35769457 -0.60524714 -0.5228973 0.45375708 -0.47153032
0.6740056 -0.5820596 0.10328861 -0.78569084 -0.6083928 0.5651009 -1.0996853 -1.3614779
-1.2078171 0.5538496 1.3065703 1.1153818 -0.93437046 0.021713685 0.544951 1.0835094
0.44328016 0.28892237 -1.2507036 -1.2271792 -0.86922294 -1.2283711 0.056303095 0.67023134
0.8926643 -0.256406 -0.47235268 -3.0052812 0.3484309 -0.53184384 -0.28662947 0.6603348
0.40732196 1.2971209 -1.9252895 1.1443241 0.61867 -2.723233 -0.7944707 -0.08226144

stage1.1.bn2.running_var f4 [48]
00000000: d5fd 963f 2d4f 3a3f 5d0c f63f aa53 1b40
00000010: 14a3 ab3f 52d8 863f 145f 9c3f 88dd e53f
00000020: 6160 903f 6855 cc3f 2f35 d23f 8f96 b73f
00000030: 8555 d43f 41d0 7b3f 11b0 b43f 287b a93f
00000040: 8a62 a53f 7e49 0940 6d27 c43f 664b 883f
00000050: 8ce1 0b40 0f3a 8f3f 6a88 f23e 4a90 8d3f
00000060: 0d4e 9e3f dd06 a53f 35b3 623f ff4d b23f
00000070: a044 4a3f aa33 e03f 20d4 3840 de0b 1b40
00000080: f3cc 693f dca3 9b3f 0a51 553f 4a29 0b40
00000090: 0f3f bf3f 13ee fa3f 8d9e d13f 1ddf 1140
000000a0: 4112 5b40 b81c e63f eb23 2f40 2184 b53f
000000b0: 450c ec3f a99e 2d40 e728 f63f 5126 c83f
1.1796213 0.7277706 1.9222523 2.4269814 1.3409142 1.0534766 1.2216516 1.7958231
1.1279413 1.5963564 1.642248 1.4342822 1.6588598 0.98364645 1.4116231 1.3240709
1.2920697 2.1451106 1.5324532 1.064801 2.1856413 1.1189593 0.473697 1.1059659
1.2367569 1.289272 0.885547 1.3930053 0.79010963 1.7515767 2.887947 2.4225993
0.9132835 1.2159381 0.8332678 2.174395 1.4941119 1.9603904 1.6376511 2.2792428
3.4229891 1.7977514 2.7365673 1.4180948 1.8441244 2.7128088 1.9231232 1.5636693

stage2.0.depthwise.weight f4 [48, 1, 3, 3]
00000000: a6b8 f43c 5e33 1e3e 89aa 0c3f 3b73 7ebe
00000010: 6028 cabc 64e6 633e b44f 25be 52ed a6be
00000020: 4a5c 493c f521 ae3c 97c4 1e3f cfce 3b3d
00000030: 1673 0c3e 8919 b33e 4567 c63e ba55 eabd
00000040: b8a3 313d e76c 75bd 3252 5dbc 2ccc 11be
00000050: d968 c13c e97c 113e dd42 6f3f f1ed ecbc
00000060: 81c4 01be 8fd9 bdbd ce68 043d 7486 27be
00000070: 3f1f 493d 81de 023e 9f68 85be 690b e8be
00000080: ead7 cebe 7371 c9be 09c1 5cbd 1506 d0be
00000090: c694 fa3c 2000 863e c313 4cbe f117 623e
000000a0: 9719 213f cfdf 313e 8e75 e0bd 31c3 f7bc
000000b0: da0a e2be 7733 963e e892 0a3e 3f2a a5be
000000c0: 3b17 b53e 685f 25bd 6b77 97be ece6 e33d
000000d0: 5e60 7ebb 0f3e 34be e2a1 723d 8dc2 e73e
000000e0: b92d 613e 5508 8e3d 0f05 bfbe 16d6 093d
000000f0: ca3b 8bbd bd9d 00bf 4761 cebd b66e 1e3d
00000100: b9a6 f9bd 733d b7bd 8e5a 64be fbc7 82bf
00000110: 1eae 143c 6f7c d2bb 4f90 13bc 6167 703e
00000120: f169 a93e 54a6 643e 48d6 18be ca35 823e
00000130: 52d9 903e 0bb7 8ebe 5715 8bbd af1d a6bc
00000140: 8ca6 99be d66b e53c 478d 40bf c00b c4be
00000150: e488 583d 8748 f1bd 2685 5abd 6293 1e3e
00000160: 23ee 95be fce9 383d 1131 203e 2ebe 3dbe
00000170: e8c4 c5bc 3196 643e 4c42 483f c70c 853c
00000180: c773 84be 48ac 63bd f85d 5cbe 1480 ecbd
00000190: be78 b33d 9af8 60be 0222 85bc 9e3d e1be
000001a0: f862 673d 6c02 bcbd ec28 0e3f d732 503e
000001b0: 79dc b1bd 511a 1a3d aff6 023e 0e80 69bd
000001c0: 9203 8b3f 2958 28be e6b6 47be 62f6 283e
000001d0: e9e3 89bd d880 3f3d 6ac0 333c 9f03 39be
000001e0: 9f26 d83e 4678 4b3d 1551 2cbe 6275 203f
000001f0: c2f2 b93d a097 26be 18b6 0cbd 837e 723e
00000200: 2ae8 62be c0d5 eabc dec2 4f3e 4774 a6be
00000210: dbd7 60be ee09 2dbe c503 bfbe fef7 98be
00000220: a3ff 7dbc d3f1 bbbe a076 703e cd97 1f3f
00000230: 1271 b7bc 97fd 57bd be5e 763d 90ba c2bd
00000240: d77d 8c3e df12 323e 4c29 edbd 7579 983e
00000250: c98b 263f 8659 d03c 80ec 2fbe 9c4d 64be
00000260: c958 98be 368b 163e ab58 493e 1d6d a4be
00000270: 50ba f13e 7df1 17bd 565e a2be e13f 873e
00000280: 5b14 7bbe 30e4 a3bc 4024 c23d c61a cabc
00000290: d132 6b3e 8466 98be 74dc dd3b 2546 0b3e
000002a0: a491 eabe 5b9a 30bb 7ab2 a43e 9676 2a3e
000002b0: 56bb 2abe a484 f53d 8643 153e 7d1e 27bf
000002c0: 56bb 68be e3f1 1c3e e278 e3bb 9880 963d
000002d0: e8f7 a63d b57d 593e 37f4 48bc ab8d 683f
000002e0: 89c9 47be b973 373c 10d7 933e e3c7 453d
000002f0: 0df8 573d 75c1 c1be 653b 8bbe 473f e1be
00000300: 3f8a a43d 23d1 8f3e 0081 853e fd30 84be
00000310: 8f86 813d 3d11 e93d 7a7b b13e 9568 eb3e
00000320: 627c 493e 9e5f 0cbe 310c 96be 2e92 f3bd
00000330: 6a89 00be 9dd6 27be abe4 803d ea48 8dbd
00000340: 4720 f8be 889f c6be 58a3 6c3e 52de 24be
00000350: 063d 00bd a521 cf3d 0f00 653e f706 913e
00000360: f96c b8be ec6e 003e a7db 74be af2b a4bd
00000370: cebf 843d 00dc 783d 9a3d dd3e 3f7f 2d3e
00000380: 8002 f73d 4b45 b03e 1c54 3bbe 957c 80be
00000390: c197 9b3d 608d d33c e090 0fbf f479 e63b
000003a0: 2cbc f73d 61dd 60be d950 7ebe 7f11 49be
000003b0: 16a8 b33b a151 de3d 2d4d b73d 9c12 9f3e
000003c0: ac5e febe bd17 8bbe 2ac2 febe 20fc dd3c
000003d0: 7bc2 c63d 974f b4bd 04e7 1b3f 0c08 b53c
000003e0: 3ccf 143f 2033 a03d 0de2 8c3e 32f6 4d3e
000003f0: ea6e 46be c4b0 163e b851 8e3e 0ecb 8d3b
0.029873203 0.15449283 0.54947716 -0.24848644 -0.024677455 0.22255856 -0.16143686 -0.32602936
0.01229007 0.021256426 0.6201872 0.045851525 0.13715777 0.3498042 0.38750663 -0.11442132
0.043369025 -0.05991831 -0.013508366 -0.14238042 0.023609566 0.14207806 0.934614 -0.028922053
-0.12672617 -0.09270012 0.032326512 -0.16359884 0.049102064 0.12780191 -0.26056382 -0.45321205
-0.40399104 -0.39344367 -0.05389503 -0.4062964 0.030588519 0.2617197 -0.19929413 0.22079445
0.6292967 0.17370532 -0.10959922 -0.030244442 -0.44148904 0.2933614 0.13532603 -0.32258794
0.35369286 -0.04037419 -0.29583296 0.11128029 -0.0038814764 -0.17601798 0.059236415 0.45265618
0.21990098 0.06935183 -0.37308547 0.033651434 -0.06798513 -0.5024069 -0.10077148 0.0386798
-0.12190003 -0.089472674 -0.22300169 -1.0217279 0.009074716 -0.006423525 -0.009006574 0.23476936
0.3308864 0.22329074 -0.14925492 0.25431663 0.28290802 -0.27874026 -0.067911796 -0.020277826
-0.30009878 0.028005522 -0.7521557 -0.38290215 0.052864924 -0.117814116 -0.053349636 0.1548591
-0.29283246 0.04514502 0.15643717 -0.18529579 -0.024141744 0.22322918 0.7822616 0.016241444
-0.2586958 -0.055584222 -0.21520221 -0.115478665 0.08763264 -0.21969834 -0.016251568 -0.43992323
0.05649087 -0.091801494 0.5553119 0.20331894 -0.0868463 0.037622754 0.12789415 -0.057006888
1.0860465 -0.1643988 -0.19503364 0.16500238 -0.067329235 0.046753734 0.010971168 -0.18067788
0.42216966 0.04967525 -0.16827805 0.6267911 0.090795055 -0.16268778 -0.034353346 0.23681073
-0.22158876 -0.028666377 0.2028918 -0.32510588 -0.21957342 -0.16898319 -0.37307563 -0.29876703
-0.015502843 -0.36707935 0.23482752 0.62341005 -0.022392783 -0.052732076 0.060148947 -0.0950824
0.27439758 0.17390011 -0.115801424 0.29780164 0.65057045 0.025433313 -0.17180061 -0.2229523
-0.29755238 0.14701542 0.1966273 -0.32114497 0.47212458 -0.037095536 -0.31712598 0.26415923
-0.24519484 -0.02000627 0.094795704 -0.02467097 0.22968604 -0.29765713 0.006770665 0.13600977
-0.4581424 -0.0026947472 0.32167417 0.166468 -0.16673025 0.1198819 0.1457654 -0.65280896
-0.22727713 0.15326647 -0.0069419006 0.07348746 0.08152753 0.2123936 -0.012265257 0.9084117
-0.19510473 0.011197024 0.28875017 0.04828633 0.052726794 -0.37842909 -0.27193752 -0.4399359
0.08034181 0.28089246 0.26074982 -0.25818625 0.06324493 0.11380241 0.34664518 0.45978227
0.19676355 -0.1370835 -0.29306176 -0.11893116 -0.1255242 -0.16390462 0.06293615 -0.06898673
-0.48462126 -0.38793588 0.23109186 -0.16100433 -0.031308196 0.10113839 0.22363304 0.28325626
-0.3602064 0.12542313 -0.23911916 -0.080161445 0.06481896 0.060756683 0.4321106 0.16943072
0.12061024 0.34427866 -0.18293804 -0.2509505 0.07597304 0.025824249 -0.56080437 0.007033581
0.12096438 -0.2195945 -0.24835528 -0.1963558 0.005482684 0.10855413 0.08950267 0.31068885
-0.49681604 -0.27166548 -0.4975751 0.027097762 0.09705063 -0.08804243 0.60899377 0.022098564
0.58128715 0.07822251 0.27516213 0.20113447 -0.19378248 0.14715868 0.2779672 0.0043271845

stage2.0.bn1.weight f4 [48]
00000000: eae6 863f 377e 3c3f 7e20 843f 83b2 953f
00000010: 3830 7d3f 2163 853f 8ae2 803f cbcd 913f
00000020: 79aa 7c3f eb2f 573f cff7 6d3f d870 923f
00000030: cc67 913f b486 4b3f 45b2 653f 1271 7a3f
00000040: a60a 763f b282 763f 331d 873f df2f 6b3f
00000050: e720 6c3f 7125 8b3f e32d 7e3f bdbc 903f
00000060: cd01 493f 70bc 863f 88f9 323f 75f8 393f
00000070: e19e 8f3f 0556 5a3f 7982 b33f fb94 9b3f
00000080: cb21 573f 6791 2c3f d1c4 5b3f be77 463f
00000090: dbc5 6d3f 4fcb 863f a101 a63f fa54 863f
000000a0: 02e7 8c3f 9c93 893f 5604 443f 6fb9 783f
000000b0: 223b 803f a250 8f3f 7d4a a33f fe81 8b3f
1.0539219 0.7363009 1.0322416 1.1695102 0.989017 1.0420877 1.0069134 1.1390928
0.9869762 0.8405749 0.9295625 1.1440687 1.1359801 0.79502416 0.8972514 0.9782878
0.9611 0.96293175 1.0555786 0.9186992 0.92237705 1.0870801 0.9928877 1.1307598
0.7851837 1.0526257 0.69912004 0.7264474 1.1220361 0.85287505 1.4024192 1.215484
0.8403594 0.67409366 0.85847193 0.7752646 0.9288003 1.0530795 1.2969247 1.0494683
1.1007998 1.0748172 0.76569116 0.9715795 1.0018046 1.1196482 1.2757107 1.0899045

stage2.0.bn1.bias f4 [48]
00000000: e051 933d 1b6b 883e 4475 c83e 31ec a03e
00000010: 437c 623e 0337 c0bd 0f98 a73e 4723 c23e
00000020: 1ee2 a53e 69b5 313e 2f5b 2a3e 31a3 4f3e
00000030: 0af6 053f 1f86 7c3e 83d1 983d 5e7d 493e
00000040: f0e7 c53d a142 463e 3707 313e 3f2b 523e
00000050: 9d84 be3e fb4f 6e3e f04d 513e 6091 113e
00000060: baf0 bf3e b7c4 143e c574 aebd a4de 363f
00000070: ba6f 7b3d 1cee 173e 24ed 353e 8f7d 893e
00000080: 3f90 043f d797 bc3e 1a1f 033f 27dc 69bd
00000090: 3934 073f a878 023f ccf7 64bd 742b d53d
000000a0: 36b2 593f 3fd7 593e fcfe 0a3f dc70 0f3d
000000b0: ea66 a43e 75f9 873e 69cd 4e3e d472 cf3d
0.07193351 0.26644215 0.39151967 0.314302 0.22117715 -0.09385493 0.327332 0.3791754
0.32399076 0.17354359 0.16636346 0.20277096 0.5232855 0.24660538 0.07461836 0.1967673
0.09663379 0.19361354 0.17287908 0.2052431 0.3721055 0.23272698 0.20439887 0.14215612
0.37488347 0.14528166 -0.08518366 0.7143347 0.061385848 0.14836925 0.17766243 0.26853606
0.517826 0.36834595 0.5121933 -0.05709472 0.5281406 0.50965357 -0.05590038 0.10408679
0.85037553 0.21273516 0.54295325 0.03501974 0.32109767 0.26557508 0.20195545 0.101293236

stage2.0.bn1.running_mean f4 [48]
00000000: 79e3 0d3e 739d 923f e488 0f3f 640a adbf
00000010: 9d2e d83e d063 1c3d f453 42be 9ae9 4dbf
00000020: 4d91 333e 5d74 7fbf 2ec5 ee3e 38a4 e2ba
00000030: 8d31 4b3f 9643 203f 18c3 2abf c642 973d
00000040: 92ca c03e 4671 f53d 8aff 333b 5e78 a0be
00000050: e295 833f e8c9 dfbe 5e1f 063e afbd 55be
00000060: 13cb 5d3e a69c ecbe 597e 81bf 4a12 bf3f
00000070: ccf1 b63e a68a 2d3f 7e3f d3bc 899f d4be
00000080: 5d84 9e3f 2082 cf3f 5c28 4a3f cfa3 91bf
00000090: 5862 aabb c8f6 ebbc 98ec 97bc 25f6 90bf
000000a0: 1212 c7bd 356e 763d c291 943f 1e84 c9be
000000b0: a5af c9be ab79 953e d339 9dbf 35ee 2cbf
0.13856305 1.14543 0.56068254 -1.3518796 0.42223063 0.038181126 -0.18977338 -0.8043457
0.17535897 -0.9978693 0.4663481 -0.0017291373 0.79372483 0.6260313 -0.6670394 0.07385783
0.3765455 0.11984496 0.0027465546 -0.31341833 1.0280116 -0.4370873 0.13097903 -0.2087314
0.21659498 -0.46213263 -1.0116683 1.4927456 0.3573135 0.67789686 -0.025787111 -0.41527966
1.2384144 1.6211586 0.78967834 -1.1378115 -0.005199712 -0.028804198 -0.018545434 -1.1325117
-0.097202435 0.060163695 1.1606982 -0.3935861 -0.3939182 0.29194388 -1.2283272 -0.67550975

stage2.0.bn1.running_var f4 [48]
00000000: 4154 4d3f faf5 243e 39cd 063f aca4 953f
00000010: e178 433e 83b7 603d a559 e73e 0b02 4f3f
00000020: b91f dd3d 44a5 283f 4445 5c3f 0ab8 d73d
00000030: 0ef4 c83f 7d9b cd3e 1f71 fb3e 55b3 183d
00000040: 920a 673e 930e 033e 73ee ed3d 7b50 823e
00000050: f747 2c3f 0c97 843f 009d c13d bc87 863e
00000060: 2c75 983d 0f39 943e f673 793f d10c 8f3d
00000070: cbee 443e 90ef ee3e 87ce a63d 64f7 f73e
00000080: 8c10 883f 1d13 b33f cbdd 273e 92d9 493e
00000090: c18b de3d 8ced 943d 8833 893d 49a0 ed3e
000000a0: d7e7 f73d c3cb 893d 7e18 b63e 4136 173f
000000b0: b569 983e bd0a ae3d 299a 5b3f ee72 6d3e
0.80206686 0.16109458 0.52656895 1.1690879 0.1908908 0.05486251 0.4518558 0.8086249
0.10797066 0.65877175 0.8604319 0.105331495 1.569948 0.4015769 0.49109742 0.0372804
0.22562626 0.12798528 0.11617746 0.25452027 0.6729731 1.0358596 0.094537735 0.26275432
0.07444224 0.28949782 0.9744257 0.069848664 0.19231717 0.46667147 0.08144861 0.48430932
1.063005 1.3990208 0.16393201 0.19711903 0.108665 0.07271871 0.06699282 0.4641135
0.12104767 0.067283176 0.3556556 0.5906716 0.29768148 0.08498142 0.85782105 0.23188373

stage2.0.pointwise.weight f4 [96, 48, 1, 1]
00000000: b574 be3e 2aa8 de3d 52bb 793d 7ce8 003e
00000010: b121 77be d081 a5be a14a 843e 0e20 893e
00000020: 6110 c1bd cf49 17be 045a 24bc ccd1 433e
00000030: 132e e9be 8cc7 823e 87eb 80be d9c6 d2bd
00000040: 14a8 e23d 2fe1 81be ed84 8ebc 19ea 0d3e
00000050: 50c2 8bbe 8d3a adbd 58b5 e2be d318 a23d
00000060: 8008 893e bf2f 85be 89fc b1bc 125d ff39
00000070: e77b 9b3c bcf7 093e 215b 3e3e 04bd 743e
00000080: 0d3e 18bd fada 6cbe 7176 38be 05f6 1f3e
00000090: 2e64 613e 6b9b 8c3d f07a 57be dde2 17be
000000a0: 852b 983c 3d0e 893d b76a 913d 5164 323e
000000b0: c4d1 8d3e eaf5 6b3d 17e0 513d 4758 10bb
000000c0: a0b9 27be 830c 08be 6566 fcbd 2a30 48bd
000000d0: 28da 523d 9917 cdbd 684c 093e ceb3 ffbe
000000e0: a187 ba3c 5f08 033d ff60 bfbd da55 4abf
000000f0: 5a61 c5bc 1b9f ca3c 1544 143e 69fa 683d
00000100: 0884 a4be 3a5a 92be 9fcd 76bd 1e82 803e
00000110: 880a 273d 4506 47be 3717 39be 9c48 323e
00000120: b51d 833e 5788 b5bd 6313 5a3d afdf 5abe
00000130: 9d42 08be 5497 163e a852 b0bb b56b 4e3e
00000140: 36da d0bd 45ef b53c 9b4f 293b b20e 413e
00000150: 56dd 0bbe d308 d23d c66a f8bd e49e 3e3e
00000160: 8ae1 d8bd f19c 2d3e 041c 5bbe 9e5d 24bd
00000170: 4e5d 26be 29f7 17be 2dff ee3e eca0 ea3d
00000180: ceef 9ebe 1f7b 233e 5cc6 e5bd a83a 1bbe
00000190: d297 0dbe d373 78be d002 15be 5c2d 243d
000001a0: d4a6 09be 2586 8e3c a172 b0bd f47d 1c3e
000001b0: bfbe 4f3d 2398 0bbe 194b 8abe e98e 7bbe
000001c0: 9929 24be 4edb 8bbe 23d1 e7bd 43cb b9be
000001d0: 0334 30be 003e 61be e861 85bc 973b 98bd
000001e0: 037d 47bd 2091 a2be 02c7 7dbd 5a90 6d3e
000001f0: 0e6e 263f 21bb 933d 1433 35bd 4dca ffbe
00000200: 8e4b d93d d667 1bbc 6f9f c13d 8e79 513d
00000210: ce79 1ebd 28bb 3bbe 50ae dcbd 326f 2c3e
00000220: b923 e1bd 5fb5 0ebe d020 debd 9b0b 96be
00000230: b1d2 d43d 6958 923e d9f6 ebbb 2dff 5ebe
00000240: b038 a4be fd51 23be fdb2 313e b508 09bd
00000250: 62ec 07bd 8928 123e b77a e73c 8d2e 86bc
00000260: 8cc5 0a3e cbb6 113e 3b46 80be 8225 273d
00000270: 9d3f 38be f131 883d 2450 253e 91d6 3fbd
00000280: eb08 a5bd 7a30 9fbd dfda 03bd f4f8 11be
00000290: 18cb 0a3e b14a f9be bb76 273e 0879 b83c
000002a0: ee5d debd e110 fbbc 9384 003e 31a8 b5bd
000002b0: 266f 763d f2a4 b83d 742b d2be e199 413e
000002c0: 00f0 74be 9def 153e 593c a7be c3dc a43d
000002d0: 7431 2e3e ae9e a43a 5423 703c c88c 52be
000002e0: ba23 68be 2f2b 1dba 31f1 963e b0a8 ae3d
000002f0: 8081 9cbe d2c9 35be 7743 d4bd b290 1cbf
00000300: 3343 80be 5a3f d23e 5ba1 4bbd be73 b73d
00000310: 2749 a33d 01e9 b2bd d330 b5bd 5edc 4abe
00000320: 0127 143e 9d2a c73e c478 04be af4c e73d
00000330: a753 c93d 3fd2 113f b719 533e abf2 30be
00000340: 04b1 8cbe 8e67 d83d 3825 20be 961c 3ebe
00000350: c439 1f3d e3b3 c13b beea e1be ea4d c4bd
00000360: c64b 70bd 7ea4 183d 3c9b 80bd b532 eb3c
00000370: 403e ab3d f552 ee3d ff95 2c3e b9a7 613e
00000380: c145 31be c471 a2bd 9b01 82be 6a4a 4abd
00000390: de75 8a3d e6a4 ae3d 871f 733e c947 9d3e
000003a0: a95a da3d 30f0 b33e dcaf 51be 0b5d 30be
000003b0: 5304 a33d 1cad 5fbd 3589 513d 9f14 1c3e
000003c0: c06b bf3e 8c8b 023e 1c1e adbc 7c85 a03e
000003d0: 1b7f 44bc 1251 3fbd bcc6 a03e 9147 1f3d
000003e0: e6b6 de3d 7eb9 d1bd 78ea b5bd 2ae0 0e3e
000003f0: 99b5 47be bd83 2ebe 3b7a 6f3e 1d87 2bbd
0.37198415 0.108719185 0.06096966 0.12588686 -0.24133946 -0.32325602 0.25838187 0.26782268
-0.09426952 -0.1477425 -0.010031227 0.19123 -0.45542964 0.25542867 -0.25179693 -0.102918334
0.110672146 -0.25367114 -0.017397368 0.13858832 -0.27296686 -0.08458433 -0.4427898 0.07914891
0.26764297 -0.2601299 -0.021726863 0.00048706733 0.01897998 0.1347341 0.1858945 0.23900229
-0.03716855 -0.23130408 -0.18013932 0.15621193 0.22010872 0.06865581 -0.2104299 -0.14832635
0.01857544 0.06692169 0.07100432 0.1742108 0.276991 0.05760757 0.0512391 -0.0022025274
-0.16379404 -0.13286023 -0.12324218 -0.048874058 0.05147758 -0.100142665 0.13408053 -0.49941868
0.022769751 0.031990405 -0.093446724 -0.7903725 -0.024094272 0.02473407 0.14479096 0.056879435
-0.32131982 -0.28584462 -0.06025469 0.25099272 0.040781528 -0.19435985 -0.18075262 0.17410511
0.25608602 -0.088638954 0.053241145 -0.21374391 -0.13306661 0.14706165 -0.005380947 0.20158274
-0.101978704 0.02220882 0.0025834802 0.18853262 -0.13658652 0.10255589 -0.121297404 0.186153
-0.10589893 0.169544 -0.21397406 -0.040128343 -0.1624653 -0.14840378 0.4667906 0.11456475
-0.3104233 0.15964936 -0.11219475 -0.15159094 -0.13827446 -0.24262933 -0.14551854 0.04008232
-0.13442546 0.01739795 -0.08615614 0.15282422 0.05071902 -0.13632254 -0.2701042 -0.24566235
-0.16031493 -0.27315754 -0.113191865 -0.3628789 -0.17207341 -0.21996307 -0.016282037 -0.07433241
-0.048703205 -0.31751347 -0.061957367 0.23199597 0.6501168 0.072134264 -0.044238165 -0.4995903
0.10610114 -0.009485206 0.09454238 0.051141314 -0.03869038 -0.18333113 -0.10775435 0.16839293
-0.10993142 -0.13936375 -0.10846102 -0.2930573 0.10391749 0.28583077 -0.0072010574 -0.2177703
-0.320745 -0.15949245 0.17353435 -0.03345557 -0.033184417 0.14273275 0.028256757 -0.016379619
0.1355192 0.14229886 -0.25053582 0.040807255 -0.17993017 0.066501506 0.16143852 -0.046835486
-0.080583416 -0.07772918 -0.032191154 -0.14255124 0.13554037 -0.48689798 0.16353886 0.02251865
-0.108577594 -0.030647697 0.12550573 -0.088699706 0.060164593 0.09015836 -0.41048777 0.18906356
-0.23919678 0.14642186 -0.3266323 0.080499195 0.17011052 0.0012559497 0.01465686 -0.20561516
-0.22669879 -0.00059955096 0.2948089 0.08528268 -0.3056755 -0.1775277 -0.103644304 -0.6115829
-0.2505127 0.41063958 -0.049714427 0.08957623 0.07972937 -0.08735848 -0.08847203 -0.19810626
0.14468004 0.388997 -0.12936693 0.11293923 0.098304085 0.56961435 0.20615278 -0.1728007
-0.27478802 0.105666265 -0.15639198 -0.18565592 0.03887345 0.0059113367 -0.44124407 -0.095851734
-0.058666013 0.037266247 -0.062796086 0.028710702 0.083614826 0.116369165 0.16854094 0.22036637
-0.17311765 -0.07931855 -0.2539185 -0.049387373 0.06760763 0.08527546 0.23742495 0.3071883
0.10661823 0.35144186 -0.20477241 -0.17222993 0.07959809 -0.05460845 0.05115624 0.15242241
0.37386894 0.12748545 -0.021132521 0.3135184 -0.011993195 -0.046708174 0.31401622 0.03888661
0.10874729 -0.10240458 -0.08882612 0.139527 -0.19502868 -0.17042442 0.23386471 -0.0418769

stage2.0.bn2.weight f4 [96]
00000000: 2433 873f f43f 9b3f 5804 933f e31d 4b3f
00000010: dbaa 1a3f a53d 4b3f 97a3 353f 31ce 553f
00000020: 0984 563f 9e74 4e3f 0bf3 513f 0702 913f
00000030: 1a87 7d3f ac98 d63e 727b 1f3f 1500 883f
00000040: 4241 c43e a0d1 393f ca64 0f3f 49bc 923f
00000050: 3511 703f b484 1c3f 4b97 6a3f e764 403f
00000060: 0d6e 073f 341e 8b3f a433 f73e 3b3b b43f
00000070: 726b 303f 1f22 8a3f 5b41 7c3f 147d 5b3f
00000080: fe49 223f 6bda b33e 68e2 833f babe b83f
00000090: 99cc 1a3f 142c 863f 9315 903f ec5c a23f
000000a0: 482b 583f ca47 803f 2760 613f adcc 393f
000000b0: e576 123f 8d6d 583f e61d 003f 5e50 1f3f
000000c0: 9396 8a3f e085 8e3f d670 a03f 4a31 863f
000000d0: a349 8f3f d194 8b3f e9c7 5c3f e675 533f
000000e0: 3517 643f 11d6 973f bd1d 8a3f afdb 983f
000000f0: 001c 473f 89eb 583f 6d60 483f a0bd a63f
00000100: df89 cd3f 40be 153f f014 a43f 0d17 4e3f
00000110: aec5 b03f 8c0a 3e3f 3504 803f b796 913f
00000120: 33f8 693f c7b2 8f3f 75de ca3e c308 f23e
00000130: 624d e23e 9d46 053f f743 5d3f bd8b 2c3f
00000140: 3b87 7b3f 73c9 1f3f c441 3e3f fae7 133f
00000150: 8a09 2b3f ed8b 583f 08eb cb3e 9fd1 fa3e
00000160: 840c 903f b0c6 643f 04c9 3d3f adfd 8d3f
00000170: 1b35 613f 76d0 3c3f bb35 823f 18e7 3a3f
1.0562482 1.2128892 1.1485701 0.7934248 0.60416955 0.7939094 0.70952743 0.8351775
0.8379522 0.80646694 0.8201148 1.1328744 0.99034274 0.41913354 0.6229774 1.0625025
0.38331038 0.7258549 0.56013167 1.146371 0.93776256 0.6113999 0.91637105 0.75153965
0.529023 1.0868592 0.48281586 1.4080576 0.6891395 1.0791663 0.98537225 0.8573773
0.63394153 0.35127577 1.0303469 1.4433205 0.6046844 1.0482202 1.1256584 1.2684608
0.8444104 1.0021908 0.8803734 0.72577935 0.5721267 0.8454216 0.5004562 0.62232006
1.0827202 1.1134605 1.2534435 1.0483792 1.1194347 1.090479 0.8624254 0.82601774
0.8909791 1.1862203 1.0790325 1.1942042 0.777771 0.847344 0.78272134 1.3026619
1.60577 0.58493423 1.281889 0.8050392 1.3810327 0.74234843 1.0001284 1.137412
0.91394347 1.1226434 0.39622846 0.4727231 0.44199663 0.5206087 0.8643183 0.67400724
0.9825322 0.6241676 0.743191 0.57775843 0.6681143 0.8458851 0.39827752 0.48988053
1.125382 0.89365673 0.7413485 1.1093041 0.8797166 0.73755586 1.0172647 0.7300887
