artifacts/best.ckpt (torch, 401261 bytes, 32 tensors)

stage1.0.depthwise.weight f4 [3, 1, 3, 3]
0	0xbe604261	-0.21900322
1	0x3d363403	0.044483196
2	0xbdefe360	-0.1171329
3	0x3f7e25e7	0.99276584
4	0x3f8e500f	1.1118182
5	0x3d5a1836	0.053245746
6	0xbe8cee48	-0.27525544
7	0x3e131708	0.14364254
8	0xbe012017	-0.12609898
9	0xbe61d858	-0.22055185
10	0x3e5225cd	0.20522232
11	0xbdedc886	-0.116105124
12	0xbe97f24a	-0.2967704
13	0x3fb0fa77	1.3826436
14	0x3e8cd2db	0.2750462
15	0xbe313a71	-0.1730745
16	0x3e85880f	0.26080367
17	0xbe192e26	-0.1495901
18	0xbc374644	-0.011186186
19	0x3e9b91a6	0.30384558
20	0xbd8b015d	-0.067873694
21	0xc011f890	-2.280796
22	0xbe77a33d	-0.24183364
23	0x3dcc5aa8	0.09978229
24	0xbdc6cd6d	-0.097071506
25	0x3d05ba70	0.032648504
26	0x3d89a99c	0.067218035

stage1.0.bn1.weight f4 [3]
0	0x3f0c61da	0.5483681
1	0x3f28b7f7	0.6590571
2	0x3f08da51	0.53458124

stage1.0.bn1.bias f4 [3]
0	0x3f9b595e	1.2136648
1	0x3fa89f70	1.3173656
2	0x3fbea237	1.4893254

stage1.0.bn1.running_mean f4 [3]
0	0x3d09004f	0.03344756
1	0x3bcb0273	0.0061953603
2	0x3c29bdc6	0.010360187

stage1.0.bn1.running_var f4 [3]
0	0x401cf990	2.452732
1	0x3fb6a03d	1.4267651
2	0x40946d6e	4.638358

stage1.0.pointwise.weight f4 [64, 3, 1, 1]
0	0xbf245539	-0.6419254
1	0x3e7b2c7f	0.24528693
2	0xbef74b2e	-0.48299545
3	0x3f481f1e	0.7817248
4	0xbeb7896f	-0.3584704
5	0x3f02e40d	0.5112923
6	0xbed39bfe	-0.4132995
7	0xbe9977b8	-0.2997415
8	0x3ef90cd0	0.48642588
9	0xbdf0feb0	-0.11767328
10	0x3efd2d7f	0.49448773
11	0x3f0a2b63	0.5397245
12	0xbda1c7de	-0.0789945
13	0x3f90fd71	1.1327344
14	0xbd7e3779	-0.06206462
15	0x3f26120f	0.64871305
16	0xbdba89c0	-0.09108305
17	0x3f194fb8	0.59887266
18	0xbea69dca	-0.32542259
19	0x3f0e2c33	0.5553619
20	0x3ea33674	0.31877482
21	0x3e61e76f	0.22060941
22	0xbf247620	-0.64242744
23	0xbf0b66d0	-0.54453754
24	0xbee15569	-0.44010475
25	0xbf5dedf1	-0.86691195
26	0x3d3ef842	0.046623476
27	0x3e64b56f	0.22334836
28	0x3f3fcfbc	0.7492635
29	0x3df0763d	0.11741302
30	0x3e28345c	0.16426224
31	0x3e90efec	0.28308046
32	0xbf62e0d2	-0.886243
33	0xbd35c61c	-0.044378385
34	0xbfa1df8f	-1.264635
35	0xbc40a441	-0.011757911
36	0xbf0e9f55	-0.5571187
37	0x3eaed8ce	0.34149784
38	0xbd4d7c28	-0.050167233
39	0x3ed496e3	0.41521367
40	0xbf2ba10e	-0.67042625
41	0xbecd9a7c	-0.40156925
42	0xbed773d1	-0.42080548
43	0x3f26dee7	0.6518387
44	0x3ecbf46c	0.39834917
45	0x3f101fef	0.56298727
46	0xbf42a349	-0.76030403
47	0xbefa0c92	-0.48837715
48	0xbf3663af	-0.71245855
49	0xbed93b1a	-0.42427903
50	0x3e47d1a2	0.19513562
51	0x3eafab5d	0.34310427
52	0x3f2d057a	0.6758648
53	0xbe8678ac	-0.2626394
54	0xbf1892fa	-0.5959927
55	0x3e8ff0cf	0.2811341
56	0xbede444e	-0.43411487
57	0x3ee6a5b4	0.45048296
58	0xbed56ded	-0.4168543
59	0x3ed75ed3	0.42064533
60	0xbe9afa9b	-0.30269322
61	0xbe571a9f	-0.21006249
62	0x3f27b59e	0.655115
63	0x3e48f9e7	0.1962658
64	0x3da3a765	0.07990912
65	0x3f6f0691	0.93369395
66	0x3f42f93d	0.7616156
67	0xbe98c724	-0.29839432
68	0x3eaced95	0.3377501
69	0x3f1e71f6	0.6189264
70	0xbf044b2d	-0.5167721
71	0xbd0021b9	-0.03128216
72	0xbea56559	-0.32303885
73	0xbf497cac	-0.7870586
74	0x3e63820a	0.22217575
75	0xbf0abacc	-0.5419128
76	0xbef9ca0e	-0.48786968
77	0x3d859130	0.06521833
78	0xbeebe7cd	-0.46075287
79	0xbedfbe9d	-0.43700114
80	0xbf11644f	-0.56793684
81	0xbeae7fda	-0.34081918
82	0xbf2354aa	-0.6380106
83	0x3f2a1987	0.664452
84	0x3e42f330	0.19038081
85	0x3eeb3d61	0.45945266
86	0xbf1e0ad8	-0.61735296
87	0xbf1a366c	-0.6023929
88	0xbeb51a51	-0.3537164
89	0x3e4b724e	0.19867823
90	0xbf868ca8	-1.0511675
91	0xbd8e684c	-0.06953487
92	0xbe8fcbc5	-0.2808515
93	0x3e2ff4bb	0.17183201
94	0xbf29e83f	-0.66370004
95	0xbe970274	-0.2949406
96	0xbe1406ac	-0.1445567
97	0xbeedb4ab	-0.464269
98	0xbf255d73	-0.6459572
99	0xbf3b8aa0	-0.732584
100	0xbe9a22fe	-0.30104822
101	0x3ef80c9e	0.48447126
102	0x3f1e4458	0.61823034
103	0x3ee02cae	0.43784088
104	0xbd868add	-0.06569455
105	0xbefc5ef9	-0.49291208
106	0x3f2019fe	0.6253966
107	0x3e9eb01e	0.30993742
108	0xbd06dbc4	-0.03292443
109	0xbf1cc63b	-0.61239976
110	0xbf458cc9	-0.77167946
111	0x3edc6fbb	0.43053994
112	0xbe02c332	-0.12769774
113	0x3eea8bed	0.4580988
114	0xbf395431	-0.7239409
115	0x3e991afa	0.29903394
116	0xbf06c2b3	-0.5264084
117	0xbe43ca46	-0.1912013
118	0x3ef19c94	0.47189772
119	0x3ee24b7a	0.4419821
120	0x3f2411fc	0.6408994
121	0x3ea8f58e	0.32999843
122	0xbed02d66	-0.40659636
123	0x3ea1d0fa	0.3160475
124	0xbf028a5b	-0.50992364
125	0xbe622199	-0.22083129
126	0xbf3d3902	-0.7391511
127	0x3ebf6723	0.37383375
128	0xbefffa12	-0.49995476
129	0x3ece543f	0.4029865
130	0x3ea909dc	0.33015335
131	0x3edc75c6	0.43058604
132	0xbecb879a	-0.39751893
133	0x3f258e5b	0.6467034
134	0x3ec1a6cc	0.37822568
135	0x3e776097	0.2415794
136	0xbf3dd1a0	-0.7414799
137	0xbe8d68d4	-0.2761904
138	0xbf237186	-0.638451
139	0xbe4675fe	-0.19380948
140	0x3ec48127	0.38379785
141	0x3e5e78b1	0.21725728
142	0xbf05e7c7	-0.5230679
143	0xbed32092	-0.41235787
144	0xbebed93d	-0.37275115
145	0x3e43e32c	0.19129628
146	0xbf1efa86	-0.6210102
147	0xbe399197	-0.18121944
148	0xbf0a5c55	-0.5404714
149	0xbf0ee860	-0.55823326
150	0x3eb4ce55	0.3531367
151	0x3ed1739b	0.40908512
152	0xbf2b5dd0	-0.6694002
153	0x3dc78212	0.09741606
154	0x3f8175a0	1.0114021
155	0xbd74c205	-0.059755344
156	0xbd1fb916	-0.03899487
157	0x3ce0b0d8	0.027428076
158	0x3fe17cee	1.761625
159	0x3eb78449	0.35843113
160	0xbee22ec2	-0.44176298
161	0xbe87c0e1	-0.26514342
162	0x3e898f7d	0.26867285
163	0xbec88628	-0.39164853
164	0xbeb02726	-0.34404868
165	0x3f290bfd	0.6603392
166	0x3ebcbe6d	0.36864033
167	0xbe75a884	-0.23990065
168	0xbf09a66c	-0.53769565
169	0x3e599f7d	0.21252246
170	0xbe78f949	-0.24313845
171	0x3ed5a8d9	0.41730383
172	0x3f17b431	0.59259325
173	0xbe87f950	-0.26557398
174	0xbd9a0de8	-0.07522184
175	0x3f1aff2c	0.6054561
176	0x3f00ea0d	0.50357133
177	0x3e6fc3d7	0.2341455
178	0xbf156ca4	-0.583689
179	0xbeca3807	-0.3949587
180	0xbebcba6e	-0.36860985
181	0xbf0f2e63	-0.55930156
182	0x3e97b2b2	0.2962852
183	0x3f111aa9	0.56681305
184	0xbdadf53e	-0.08494042
185	0xbf2bf81d	-0.67175466
186	0xbf22dd19	-0.6361862
187	0x3e06e1ee	0.13172123
188	0x3f117b27	0.5682854
189	0x3e8b039a	0.27151185
190	0xbe6d2038	-0.23156822
191	0x3f2a8c6c	0.66620517

stage1.0.bn2.weight f4 [64]
0	0x3efe825d	0.49708834
1	0x3f07c005	0.53027374
2	0x3ecfd91e	0.40595335
3	0x3f5930fe	0.8484038
4	0x3debc12f	0.11511456
5	0x3efd52e6	0.4947731
6	0x3f236e36	0.63840044
7	0x3f20db85	0.6283496
8	0x3ee1f17e	0.44129556
9	0x3eb22396	0.34792775
10	0x3eb45d40	0.35227394
11	0x3e9a55b6	0.30143517
12	0x3f088346	0.5332531
13	0x3ee40d9e	0.4454164
14	0x3f478a74	0.7794564
15	0x3f16857e	0.5879744
16	0x3e8f2f18	0.27965617
17	0x3eb9d1e8	0.36292958
18	0x3f022074	0.5083077
19	0x3f102f80	0.5632248
20	0x3f2f5553	0.6848957
21	0x3de22193	0.1104156
22	0x3f049e1d	0.5180376
23	0x3f0e3073	0.5554268
24	0x3f2ff6a6	0.6873573
25	0x3ea4a4f6	0.32157105
26	0x3f634c63	0.8878843
27	0x3f562bf6	0.8366083
28	0x3f82e364	1.0225644
29	0x3e9107e0	0.2832632
30	0x3f562c3c	0.83661246
31	0x3f73d26d	0.9524296
32	0x3f6a32f3	0.9148399
33	0x3f036616	0.51327646
34	0x3f42df44	0.76121926
35	0x3f55a224	0.8345053
36	0x3f0483f9	0.51763874
37	0x3f751aee	0.95744216
38	0x3f0d7cfa	0.55268824
39	0x3edc3168	0.43006444
40	0x3ec8150f	0.39078566
41	0x3f98377d	1.1891934
42	0x3f39c083	0.72559375
43	0x3f4e86fd	0.80674726
44	0x3f1d8196	0.6152586
45	0x3e91604b	0.28393778
46	0x3ea1130d	0.31459847
47	0x3e929025	0.286256
48	0x3ed21f69	0.4103959
49	0x3f1fc99b	0.62417
50	0x3eb858b4	0.36005175
51	0x3e8fc6ae	0.28081268
52	0x3eea4898	0.4575851
53	0x3f3aad3f	0.729206
54	0x3ea0c8bf	0.31403157
55	0x3eb9bb9c	0.36275947
56	0x3eebf7a5	0.46087375
57	0x3f010012	0.5039073
58	0x3eba4e34	0.3638779
59	0x3ee255d5	0.4420611
60	0x3f215581	0.63021094
61	0x3ea06a9d	0.3133134
62	0x3e97d2a4	0.29652894
63	0x3f5172be	0.8181571

stage1.0.bn2.bias f4 [64]
0	0x3ee58c7a	0.44833738
1	0x3f0705b4	0.5274308
2	0x3ef3d896	0.4762618
3	0x3e788487	0.24269305
4	0x3f808c8a	1.0042889
5	0x3ed5a43d	0.41726866
6	0x3eb29d59	0.34885672
7	0x3eb20732	0.34771115
8	0x3f09036a	0.53520834
9	0x3f12be64	0.57321763
10	0xbf1b0c19	-0.60565335
11	0x3f2d82df	0.6777782
12	0x3f0c8b21	0.54899794
13	0x3ef1a9bf	0.47199818
14	0x3e2fcb1d	0.17167325
15	0x3ef97031	0.48718408
16	0x3f1fd9ff	0.6244201
17	0x3f157777	0.58385414
18	0x3eeca65c	0.46220672
19	0x3eeac77c	0.4585532
20	0xbea29628	-0.31755185
21	0x3f7c46c3	0.98545474
22	0x3effa353	0.49929294
23	0x3ef0cdd8	0.47032046
24	0xbe812313	-0.25222072
25	0x3f144d82	0.5793077
26	0xbe094fae	-0.13409302
27	0x3e986943	0.29767808
28	0x3cf75393	0.030191218
29	0x3f21c540	0.63191605
30	0xbd823ee5	-0.063596524
31	0x3c88869a	0.016665746
32	0x3e37f581	0.17964746
33	0x3f00c3c7	0.5029873
34	0x3e4e9bfa	0.20176688
35	0xbe91c019	-0.2846687
36	0x3e99e960	0.30060863
37	0xbd879af2	-0.0662135
38	0x3ed85ce6	0.42258376
39	0x3f13841c	0.5762346
40	0x3f12cbdb	0.5734231
41	0xbc508036	-0.01272588
42	0x3ea99186	0.33118838
43	0xbe26f434	-0.16304094
44	0x3eca3953	0.3949686
45	0x3f23c491	0.6397181
46	0x3f1fedcd	0.6247223
47	0x3f2bf54e	0.6717118
48	0x3f01d2f1	0.50712496
49	0x3ec1ac2e	0.37826675
50	0x3f18a77d	0.59630567
51	0x3f065797	0.524774
52	0xbef8faf8	-0.48628974
53	0xbe048d23	-0.12944464
54	0x3f0c2d43	0.54756564
55	0x3f1f17d0	0.6214571
56	0x3ef5132e	0.47866195
57	0x3e8caed3	0.2747713
58	0x3f099ce5	0.5375503
59	0x3f0263eb	0.5093371
60	0xbed28a1c	-0.41120994
61	0x3f1301cc	0.57424617
62	0x3f1ee029	0.6206079
63	0xbe661316	-0.22468218

stage1.0.bn2.running_mean f4 [64]
0	0xbf96fe3d	-1.1796337
1	0x3f9e24d6	1.2354991
2	0xbe30deef	-0.17272542
3	0x3fa87aa0	1.3162422
4	0x3fa6996f	1.3015574
5	0x3fc82463	1.5636104
6	0x3f4fa01e	0.81103694
7	0xbfb1d6d5	-1.3893687
8	0xbfcdb2fa	-1.6070244
9	0x3fb7a923	1.4348491
10	0xbf3e949e	-0.7444552
11	0xbfddf553	-1.7340492
12	0xbe99d60f	-0.30046126
13	0xbf7a1091	-0.9768153
14	0x3f6f4449	0.9346357
15	0xbf85b30c	-1.0445266
16	0xbf91055b	-1.1329759
17	0x3f699be4	0.91253495
18	0xbf7f726f	-0.99783987
19	0x3f1fd017	0.62426895
20	0x3ea3e3dd	0.32009783
21	0x3fde8092	1.7382987
22	0x3f8435b6	1.0328891
23	0x3cdeceba	0.027198184
24	0xbf8c1708	-1.0944529
25	0xbf9861d0	-1.190485
26	0xbffdc655	-1.9826151
27	0xbe7a24d6	-0.24428114
28	0xbda1f976	-0.07908909
29	0xbf64aaca	-0.89323103
30	0xbfe4e7a0	-1.7883186
31	0xbf8cf496	-1.1012142
32	0xbfdffdfd	-1.7499386
33	0xbf107728	-0.5643182
34	0x3f9e3ebf	1.2362899
35	0x3f30d9a1	0.69082075
36	0xc0002f3c	-2.002883
37	0x3f856fdf	1.0424765
38	0xbfa25392	-1.2681754
39	0x3f86a2a8	1.0518389
40	0x3f1d83ae	0.6152905
41	0xbf1c9241	-0.61160666
42	0xbf92f02b	-1.1479543
43	0x3fc87e52	1.566355
44	0x3f700b48	0.93767214
45	0xbf8c7720	-1.0973854
46	0xbee51ac4	-0.44746983
47	0xbf84eb0c	-1.0384231
48	0xbf901f59	-1.1259567
49	0xbfe181bc	-1.7617717
50	0xbcbfcba9	-0.023412542
51	0x3fae3398	1.3609495
52	0x40278304	2.6173716
53	0xbf06712f	-0.52516454
54	0xbf33ce9e	-0.7023715
55	0x3f6e9ed4	0.932111
56	0xbf3b0a02	-0.73062146
57	0x3f60fa3e	0.8788184
58	0x3fbab4ee	1.4586465
59	0xbf8a662e	-1.0812433
60	0xbf3ca407	-0.73687786
61	0xbed56cd8	-0.41684604
62	0x3e748c3a	0.23881617
63	0x3f82e0ad	1.0224816

stage1.0.bn2.running_var f4 [64]
0	0x3d71dc79	0.05904815
1	0x3da7306b	0.08163532
2	0x3ec8385d	0.39105502
3	0x3d3445ee	0.044012003
4	0x3f084fbb	0.5324666
5	0x3d8a64a0	0.06757474
6	0x3d12fa48	0.035883218
7	0x3d6e0277	0.05810782
8	0x3f228db8	0.63497496
9	0x3e99c4d2	0.30032974
10	0x3efac9e4	0.48982155
11	0x3f373e2c	0.7157924
12	0x3cecb429	0.0288945
13	0x3d598b55	0.053111393
14	0x3d50f1b0	0.05101174
15	0x3d9e47a6	0.077285096
16	0x3f051067	0.51978153
17	0x3f04e0da	0.51905596
18	0x3d5e3278	0.05424735
19	0x3db8bc94	0.090203434
20	0x3eb99984	0.36249936
21	0x3e252dca	0.16130748
22	0x3d6fdc53	0.058559727
23	0x3d25b558	0.040456146
24	0x3f15b868	0.58484507
25	0x3ec31aad	0.3810629
26	0x3df24a1e	0.11830543
27	0x3f47ada6	0.7799934
28	0x3eecd07a	0.46252805
29	0x3ec59cb5	0.3859612
30	0x3e89a7c9	0.26885822
31	0x3d944bfa	0.07241054
32	0x3d7d2a73	0.06180806
33	0x3f1f162f	0.62143224
34	0x3ec70241	0.38868907
35	0x3d40241f	0.046909448
36	0x3daf0088	0.08545023
37	0x3d25c283	0.040468704
38	0x3d9a298e	0.07527457
39	0x3d0c4d2e	0.03425329
40	0x3f056b6f	0.52117056
41	0x3cee1c44	0.029066212
42	0x3da4cfc9	0.080474444
43	0x3da6b193	0.08139338
44	0x3d49e999	0.04929504
45	0x3db6343c	0.08896682
46	0x3ec92328	0.39284635
47	0x3d14b118	0.036301702
48	0x3dc0934d	0.094030954
49	0x3da23a72	0.07921304
50	0x3f111a28	0.56680536
51	0x3f0918ff	0.53553766
52	0x3f65fe14	0.8984082
53	0x3cdc76ec	0.026912175
54	0x3cd14af4	0.025548436
55	0x3eec322d	0.4613203
56	0x3ced5cd6	0.028974932
57	0x3efe410b	0.49659
58	0x3d75671c	0.059912786
59	0x3d33351a	0.043751813
60	0x3ee8aa3b	0.45442376
61	0x3ea8122a	0.32826358
62	0x3e9288dd	0.28620043
63	0x3e13f41e	0.14448592

stage2.0.depthwise.weight f4 [64, 1, 3, 3]
0	0x3c528845	0.012849872
1	0xbeb8ef2d	-0.36119977
2	0x3d0a5c8d	0.03377967
3	0xbe708fd8	-0.23492372
4	0xbed8e49a	-0.4236191
5	0xbf026c10	-0.5094614
6	0x3ecbd032	0.39807278
7	0x3f0f4df3	0.55978316
8	0x3f059e66	0.5219482
9	0xbec8b055	-0.3919703
10	0xbf0987e9	-0.5372301
11	0xbf20d4a0	-0.6282444
12	0x3dbaa64f	0.09113752
13	0x3e1afbcf	0.1513512
14	0x3d9e7530	0.077371955
15	0x3e6d13d6	0.23152098
16	0x3f1ae7e5	0.6051009
17	0x3eaaac50	0.3333459
18	0xbb7a138b	-0.0038158621
19	0xbf0be1e7	-0.54641575
20	0xbe59a913	-0.21255903
21	0x3ec2f715	0.38079134
22	0x3f1224f3	0.5708763
23	0x3f1a4121	0.6025563
24	0xbe4946a2	-0.1965585
25	0xbea38f9c	-0.31945503
26	0xbe7e0495	-0.24806435
27	0x3df62b58	0.12019986
28	0x3ddf6bbd	0.10909221
29	0x3e8d8143	0.2763768
30	0x3e88a87c	0.26691043
31	0xbf2c58c9	-0.67322975
32	0xbf8da62b	-1.1066335
33	0xbc43482b	-0.011919062
34	0xbebd89d2	-0.3701921
35	0xbd76ef1d	-0.06028663
36	0xbeac75d7	-0.33683655
37	0x3eccc036	0.39990395
38	0xbebc1aa6	-0.3673908
39	0x3d4ea54d	0.05045061
40	0x3f47456a	0.7784029
41	0xbd522724	-0.05130686
42	0xbeb1a6cf	-0.34697577
43	0x3e9eadf7	0.309921
44	0xbee588ad	-0.44830838
45	0x3ef1ddbf	0.4723949
46	0x3f33e74c	0.70274806
47	0x3eb89a0e	0.36055034
48	0xbe4ad8d8	-0.19809282
49	0xbe9c10a8	-0.30481458
50	0xbeb66af5	-0.35628477
51	0x3d602b69	0.0547289
52	0xbf1296ad	-0.57261163
53	0xbe4630e3	-0.19354586
54	0x3ee41e12	0.44554192
55	0x3f39f1bb	0.72634476
56	0x3d824989	0.06361682
57	0xbd1d61c8	-0.03842333
58	0xbd985161	-0.07437397
59	0x3d87b23f	0.066257946
60	0xbee1474d	-0.4399971
61	0xbf1c7ad2	-0.6112491
62	0xbea1c1b5	-0.315931
63	0x3e1b4fcb	0.15167157
64	0xbf2e69e7	-0.68130344
65	0xbe6746b8	-0.22585571
66	0xbe48daca	-0.19614711
67	0xbf8d0239	-1.1016303
68	0xbd47cfcf	-0.048782166
69	0x3ef4593e	0.47724336
70	0x3e4a4327	0.19752179
71	0x3e8a2f29	0.26989105
72	0xbe9b6fea	-0.3035882
73	0xbf6083b5	-0.8770097
74	0xbe33609b	-0.17517321
75	0x3dffc0de	0.12487958
76	0xbebd4240	-0.36964607
77	0xbe8cd2f1	-0.27504686
78	0x3eb6cbfa	0.35702497
79	0x3ed378b9	0.41303042
80	0xbd7021c7	-0.058625963
81	0x3d9faca5	0.07796601
82	0xbe03e026	-0.12878475
83	0x3d13d8e9	0.036095534
84	0xbf5388f9	-0.8263088
85	0xbe4b551b	-0.19856684
86	0x3f2e4b1f	0.68083376
87	0xbe2b5b89	-0.16734137
88	0xbe144a75	-0.14481528
89	0x3e3f55c5	0.18685062
90	0x3e7595c1	0.23982908
91	0xbd9d8b6d	-0.07692609
92	0xbef439e4	-0.47700417
93	0xbea30acb	-0.31844172
94	0x3ef42872	0.47687107
95	0x3f2e9a2a	0.68203986
96	0xbec03c3b	-0.37545952
97	0x3ef90714	0.48638213
98	0x3e70dc79	0.23521604
99	0x3ea78221	0.32716468
100	0x3eac93e1	0.33706573
101	0xbe95ce2f	-0.29258868
102	0xbe5ae190	-0.21375108
103	0x3e578f53	0.21050768
104	0x3e6d82b5	0.23194392
105	0xbf72a485	-0.94782287
106	0xbf0b6c1b	-0.5446183
107	0x3e8925ee	0.2678675
108	0xbcdd1fee	-0.026992764
109	0xbf1d686f	-0.6148748
110	0x3e84f689	0.2596934
111	0x3ecbae4a	0.3978141
112	0xbf87bcbf	-1.0604476
113	0xbec4c1d6	-0.38429135
114	0x3e815ec8	0.25267625
115	0x3e0eb880	0.13937569
116	0x3d2df183	0.04246665
117	0x3e9931b2	0.29920727
118	0x3ec4ae4a	0.38414222
119	0x3e22532f	0.15852045
120	0x3e8913ea	0.26773006
121	0xbd926d91	-0.071498044
122	0x3df6b557	0.120463066
123	0xbdd8141a	-0.10550709
124	0xbf679d06	-0.90473974
125	0xbed78eaa	-0.42101032
126	0x3e820fb5	0.2540261
127	0x3e669cd5	0.22520764
128	0x3dd3c5db	0.10340472
129	0x3e4c9245	0.19977672
130	0x3e9fd3e9	0.31216362
131	0x3f260eae	0.6486615
132	0x3ecdb528	0.40177274
133	0x3edacdac	0.4273504
134	0x3f09f4db	0.53889245
135	0xbd6066f4	-0.054785684
136	0xbc5459ea	-0.01296089
137	0xbea44113	-0.32080898
138	0xbc892024	-0.016738959
139	0xbe99c7db	-0.3003529
140	0xbf3dd81d	-0.7415789
141	0xbe12b5f6	-0.14327225
142	0xbf070d86	-0.5275501
143	0xbf683539	-0.9070621
144	0x3db22337	0.08698123
145	0x3ec3d9cd	0.38252106
146	0x3e8749d5	0.26423517
147	0xbe40ed09	-0.18840422
148	0xbf26729b	-0.65018624
149	0xbf199821	-0.59997755
150	0x3dc51641	0.09623385
151	0x3e8b3cf6	0.27194947
152	0x3ea9159e	0.33024305
153	0xbeb7b011	-0.35876516
154	0xbf05019d	-0.51955587
155	0xbee93acd	-0.45552674
156	0xbdd6f1a5	-0.10495309
157	0xbbbe09a8	-0.005799491
158	0xbd876c07	-0.066124015
159	0x3efc4f6f	0.49279353
160	0x3ebc8873	0.36822852
161	0x3f1c74f5	0.6111596
162	0xbd9c489d	-0.076310374
163	0x3f0304bb	0.51179093
164	0xbe20d6ae	-0.15706894
165	0xbdffad95	-0.1248428
166	0x3f8b5765	1.0886046
167	0x3d0e03cb	0.034671586
168	0xbeafe7b8	-0.34356475
169	0x3eb20b09	0.34774044
170	0xbe463ee8	-0.19359934
171	0xbf04dcf8	-0.5189967
172	0xbdc24a5b	-0.094868384
173	0x3f262769	0.64903885
174	0x3ebe4a26	0.37165946
175	0x3e227333	0.15864258
176	0xbf0de658	-0.554296
177	0x3e0e5eaa	0.13903299
178	0xbd757b9c	-0.059932336
179	0xbda6da14	-0.08147064
180	0xbd03438f	-0.03204685
181	0x3f1d996b	0.6156222
182	0x3f23fbad	0.640559
183	0xbe5c0926	-0.21487865
184	0xbd1afb0e	-0.03783708
185	0xbd7c9734	-0.061667636
186	0xbdbb8fa3	-0.09158256
187	0xbeed3a79	-0.46333674
188	0xbead91c5	-0.33900276
189	0xbeca65c3	-0.39530763
190	0xbe90876a	-0.28228313
191	0xbe2f8336	-0.17139897
192	0xbe8de678	-0.27714896
193	0x3f1e0b61	0.6173611
194	0x3f4d1626	0.8011192
195	0xbdfc42f4	-0.12317458
196	0xbdf60c11	-0.1201402
197	0xbe18d585	-0.14925201
198	0x3e90675d	0.2820386
199	0xbd0c7b63	-0.03429736
200	0xbe65be35	-0.2243584
201	0x3efc66d7	0.4929721
202	0xbe367b6f	-0.17820524
203	0xbf2001e4	-0.62502885
204	0x3f1f4a6e	0.62222946
205	0xbd8ce448	-0.06879479
206	0xbead710f	-0.3387532
207	0xbeb63658	-0.35588336
208	0xbf2c25aa	-0.6724497
209	0xbf9b8868	-1.2151003
210	0xbe2af7a9	-0.16696037
211	0x3e5de24f	0.21668361
212	0x3ce29087	0.027656807
213	0xbb98dce1	-0.0046650027
214	0x3e0df5ad	0.13863249
215	0x3e54ec85	0.2079335
216	0xbd530f5c	-0.05152832
217	0xbeb0aed2	-0.34508377
218	0x3ec00a05	0.37507644
219	0x3d120262	0.035646804
220	0xbebe8759	-0.37212637
221	0xbb0ec0a3	-0.00217823
222	0x3f8ab225	1.0835615
223	0xbe8c18cf	-0.27362677
224	0x3e997c65	0.29977718
225	0x3e8ad4b2	0.271154
226	0xbc70e2b5	-0.014702489
227	0xbe80c72f	-0.25151965
228	0x3f5828cf	0.8443727
229	0xbd444e6c	-0.04792635
230	0xbf4cb4d5	-0.7996343
231	0x3e5cd088	0.21563923
232	0xbc9cb7a6	-0.01913054
233	0xbe1f92e1	-0.15583374
234	0x3e9ac6ca	0.3022979
235	0x3ede3987	0.43403265
236	0x3e8b5396	0.27212209
237	0x3d80a797	0.06281965
238	0x3e6f3ce3	0.2336307
239	0x3e41f95b	0.18942778
240	0xbf240dd5	-0.64083606
241	0xbee04cde	-0.43808645
242	0xbe99ed95	-0.30064073
243	0xbdd4cec9	-0.10391004
244	0xbedefbcd	-0.43551484
245	0xbe62e5f5	-0.22158034
246	0xbe17f780	-0.14840508
247	0xbeb1e004	-0.34741223
248	0xbe304dc3	-0.17217164
249	0x3e745df7	0.2386397
250	0x3f6a1856	0.91443384
251	0x3ec719be	0.38886827
252	0x3f20cab9	0.6280933
253	0x3ed3a956	0.4134013
254	0x3df388c0	0.11891317
255	0xbb42136a	-0.0029613622

stage2.0.bn1.weight f4 [64]
0	0x3f7a1e09	0.9770208
1	0x3fa38ca7	1.2777299
2	0x3fa8007e	1.312515
3	0x3f595f3c	0.8491094
4	0x3ffcb416	1.9742458
5	0x3f77874a	0.9669081
6	0x3f87c71c	1.0607638
7	0x3f8a93e3	1.0826381
8	0x3f218aa8	0.631022
9	0x3f82d35c	1.0220752
10	0x3f11b456	0.56915796
11	0x3f53d8a0	0.8275242
12	0x3f246e70	0.64231014
13	0x3f7a1d4d	0.9770096
14	0x3f65e762	0.8980619
15	0x3f27af0d	0.6550148
16	0x3fb62e39	1.4232856
17	0x3fdb899a	1.7151368
18	0x3f453c0e	0.7704476
19	0x3f7cb2e5	0.9871047
20	0x3f30041a	0.6875626
21	0x3fe4b580	1.786789
22	0x3f8da07a	1.1064599
23	0x3f4ceff2	0.8005363
24	0x3f26fded	0.6523121
25	0x3fd29137	1.6450566
26	0x3f6d3af0	0.92668056
27	0x3fb0607e	1.3779447
28	0x3f6434de	0.8914317
29	0x3f9b2e0e	1.212343
30	0x3f3244ff	0.6963653
31	0x3f402108	0.750504
32	0x3f1ff1f7	0.62478584
33	0x3fd118d1	1.6335698
34	0x3f797f4b	0.9745986
35	0x3f5fadc1	0.873745
36	0x3f23fc1f	0.6405658
37	0x3f10f93c	0.566303
38	0x3f84a907	1.0364083
39	0x3f97db04	1.1863713
40	0x3fc4b6aa	1.5368245
41	0x3f677b63	0.9042265
42	0x3f130fca	0.5744597
43	0x3f15cfdd	0.585203
44	0x3f9a39b8	1.2048864
45	0x3f8e1872	1.110121
46	0x3fa7b04a	1.3100674
47	0x3f8f0128	1.1172228
48	0x3f90536f	1.1275462
49	0x3f8c6983	1.09697
50	0x3fbc05f3	1.4689316
51	0x3f94f0c8	1.1635981
52	0x3f0f1433	0.55890197
53	0x3f30d1c0	0.69070053
54	0x3f8d8155	1.1055094
55	0x3fb5d86c	1.4206672
56	0x3f6713a4	0.90264344
57	0x3f431c1a	0.76214755
58	0x3fb288d6	1.3948009
59	0x3f88696e	1.0657175
60	0x3f5615aa	0.83626807
61	0x3fca9c4a	1.5828946
62	0x3f9a8b58	1.2073774
63	0x3f161131	0.5861998

stage2.0.bn1.bias f4 [64]
0	0xbe74f247	-0.23920546
1	0x3dfbbf2e	0.12292324
2	0x3de750db	0.11294719
3	0x3e9f45fd	0.31108084
4	0x3efc4770	0.49273252
5	0x3e9f878b	0.311581
6	0x3edd21d2	0.43189865
7	0x3f297dce	0.6620759
8	0x3e9e16fb	0.30876908
9	0xbe0ab916	-0.13547167
10	0xbee8659f	-0.4539003
11	0x3ec92c88	0.39291787
12	0x3e71578e	0.23568556
13	0x3e847499	0.25870207
14	0x3d033629	0.032034073
15	0x3ee8bc0e	0.45455974
16	0xbe97eb7f	-0.29671857
17	0xbde6634e	-0.112494096
18	0x3e3f84a2	0.18702939
19	0xbed295ad	-0.4112982
20	0xbe4a2069	-0.19738926
21	0x3c49c2f7	0.01231455
22	0xbe31a854	-0.17349368
23	0x3e20c3b5	0.15699656
24	0xbeaf2dce	-0.34214634
25	0xbdacd3cd	-0.08438835
26	0xbe0512f4	-0.12995511
27	0xbda95165	-0.08267478
28	0xbbf24d62	-0.0073944787
29	0x3ec157f5	0.37762418
30	0xbe4c209c	-0.19934314
31	0xbd573eaf	-0.052550014
32	0x3e36402c	0.17797917
33	0xbe3e79f6	-0.18601212
34	0xbde637ba	-0.11241098
35	0x3e86ad4c	0.2630409
36	0x3da19d23	0.078912996
37	0xbe45f272	-0.19330767
38	0xbdb8ec9a	-0.09029503
39	0x3e9bac32	0.30404812
40	0x3de7f71e	0.11326431
41	0x3e9439b0	0.28950262
42	0x3de011c5	0.10940889
43	0xbe05d63f	-0.1307001
44	0x3d9f2dcc	0.07772407
45	0x3e75b197	0.23993526
46	0x3f1c4254	0.6103871
47	0x3d383339	0.044970725
48	0xbcdefff8	-0.027221665
49	0xbd4977a9	-0.049186382
50	0xbd7e47d7	-0.06208023
51	0xbdff815c	-0.12475845
52	0xbef708fd	-0.48249045
53	0xbe0c1fe1	-0.13684036
54	0xbca15385	-0.019693146
55	0x3e9d3cdf	0.30710503
56	0x3ea839b5	0.32856527
57	0xbe90c626	-0.28276175
58	0xbe58908d	-0.21148892
59	0x3d4c0738	0.04981157
60	0xbe306ec4	-0.17229754
61	0x3f170f9b	0.5900819
62	0x3f5eb990	0.87001896
63	0xbe96a40b	-0.2942203

stage2.0.bn1.running_mean f4 [64]
0	0xbd17356a	-0.036916174
1	0xbc947d4c	-0.018126152
2	0x3d1974a2	0.037464745
3	0xbf78ff18	-0.9726424
4	0x3d93391e	0.071886286
5	0xbcf7d9f4	-0.030255295
6	0xbdc911bd	-0.098178364
7	0xbf535f58	-0.8256736
8	0xbf3d3dc7	-0.7392239
9	0xbeaaf69d	-0.33391276
10	0x3bf0b74d	0.00734607
11	0xbee056ef	-0.43816325
12	0xbf3f4dd9	-0.7472816
13	0xbe569800	-0.20956421
14	0x3fe2af3f	1.7709731
15	0xc00df547	-2.2180955
16	0xbcb92b23	-0.022603577
17	0xbcc678d5	-0.02422754
18	0x3f1e992e	0.61952484
19	0x3b8694b0	0.0041070804
20	0x3ae22c58	0.0017255647
21	0xbd83e174	-0.06439486
22	0xbccee4ac	-0.025255524
23	0xbf95a35a	-1.1690476
24	0x3e123ad7	0.14280258
25	0x3c0e64ca	0.008691022
26	0x3d32b27a	0.04362724
27	0x3d20e70c	0.039282843
28	0x3c56fba5	0.01312152
29	0xbd600035	-0.054687697
30	0x3f08c104	0.5341952
31	0x3fbc9a00	1.4734497
32	0xbf8fd694	-1.1237359
33	0x3c2c2eda	0.010509217
34	0xbd211742	-0.03932882
35	0xbeff7a5b	-0.49898037
36	0x3f83417a	1.0254357
37	0x3df6c87b	0.12049957
38	0xbc047694	-0.008084912
39	0xbf01af71	-0.5065833
40	0x3d18dc34	0.037319377
41	0xbf77b242	-0.96756375
42	0xbf617f37	-0.8808474
43	0x3f225ae9	0.6341997
44	0xbfe2ae6d	-1.770948
45	0xbdb60c03	-0.0888901
46	0xbd4b8b0a	-0.049693145
47	0xbc0e934e	-0.008702112
48	0x3bc65a26	0.006053227
49	0x3d3b0779	0.045661423
50	0xbc22ce3a	-0.009936864
51	0x3b8e48f7	0.004342194
52	0x3d0121e5	0.031526465
53	0x3f6c59cd	0.92324525
54	0xbc82e17c	-0.01597666
55	0xbbaf9764	-0.0053586233
56	0xbbc2ea6f	-0.005948357
57	0x3f7c2952	0.9850055
58	0xbd36a9b0	-0.04459542
59	0x3d2c1693	0.042013716
60	0xbc8dcd87	-0.017309917
61	0xbdb75152	-0.089510575
62	0xbbbb074a	-0.005707656
63	0x3e983508	0.2972796

stage2.0.bn1.running_var f4 [64]
0	0x3d635423	0.05550016
1	0x3e08a6aa	0.13344827
2	0x3d4dfeaa	0.050291695
3	0x3f97edb6	1.1869419
4	0x3d4c9fed	0.049957205
5	0x3db5e3cf	0.08881342
6	0x3e891e42	0.26780897
7	0x3f3049dd	0.68862706
8	0x3e954088	0.29150796
9	0x3dc8c3d1	0.09802974
10	0x3a991bc8	0.0011681253
11	0x3dd91f30	0.10601652
12	0x3e923013	0.28552303
13	0x3e3523cc	0.17689437
14	0x400ad0b8	2.1689892
15	0x3fdfb634	1.7477479
16	0x3d05fb1d	0.032710183
17	0x3e1f60cd	0.1556427
18	0x3e67f8b1	0.22653462
19	0x3c6ad22d	0.014332336
20	0x3d4053bc	0.046954855
21	0x3d633654	0.055471733
22	0x3deb3d61	0.114863165
23	0x3f549c89	0.83051354
24	0x3d927fc9	0.07153279
25	0x3dd256d3	0.10270467
26	0x3e414939	0.18875588
27	0x3e8366f0	0.25664473
28	0x3eaa386f	0.3324618
29	0x3ceb5b6b	0.028730115
30	0x3ede2f0f	0.43395278
31	0x3ff3264e	1.8996065
32	0x3f9bd809	1.2175304
33	0x3e03e67c	0.12880892
34	0x3e54b42e	0.20771858
35	0x3f4011a4	0.7502692
36	0x3edfadcc	0.43687284
37	0x3e2e2085	0.17004593
38	0x3dedadfc	0.116054505
39	0x3e9133d3	0.2835985
40	0x3d4946e4	0.049139872
41	0x3fd2ea1d	1.6477696
42	0x3f478aab	0.77945966
43	0x3f434141	0.76271445
44	0x3f9e1c4f	1.2352389
45	0x3dad502c	0.08462557
46	0x3d597258	0.053087562
47	0x3d1b4a11	0.037912432
48	0x3dd4258e	0.103587255
49	0x3e4800d0	0.1953156
50	0x3dc54b36	0.09633486
51	0x3c38a07c	0.011268731
52	0x3bb8f049	0.0056438786
53	0x3f994149	1.1973048
54	0x3e38226d	0.17981882
55	0x3d845dbc	0.06463191
56	0x3dc27ef7	0.09496873
57	0x3f3913df	0.72295946
58	0x3e474ddb	0.19463293
59	0x3e6c8dc5	0.23100956
60	0x3d00f8c7	0.031487253
61	0x3d959754	0.07304254
62	0x3d687cb2	0.056759544
63	0x3e3d6eb0	0.18499255

stage2.0.pointwise.weight f4 [128, 64, 1, 1]
0	0x3e024788	0.127226
1	0xbe09f968	-0.13474047
2	0xbe0a1ab3	-0.13486747
3	0x3dcce7f3	0.10005178
4	0x3e4124a8	0.1886164
5	0xbddeb73d	-0.10874794
6	0x3e5081f9	0.2036208
7	0x3d672246	0.05642917
8	0xbd4fad71	-0.050702516
9	0xbe1bbf36	-0.1520966
10	0x3d07220c	0.032991454
11	0xbe7f0613	-0.24904661
12	0x3eaf25ab	0.34208426
13	0xbd1941fc	-0.037416443
14	0xbe1b2468	-0.15150607
15	0x3dcd7af4	0.10033217
16	0xbf2c12a7	-0.6721596
17	0xbd3890c2	-0.045059927
18	0x3db940d6	0.090455696
19	0xbe89b62a	-0.26896793
20	0x3b6203fc	0.0034487238
21	0xbe45045a	-0.19239941
22	0x3c9df7d0	0.019283205
23	0x3df8782f	0.12132298
24	0x3f03e207	0.51516765
25	0x3e7163b0	0.23573184
26	0x3e38ca68	0.18045962
27	0xbf21df52	-0.63231385
28	0xbe8caa2d	-0.27473584
29	0x3f6431fd	0.89138776
30	0xbdfda936	-0.1238579
31	0x3e32fcd6	0.17479262
32	0x3d88ff98	0.06689376
33	0x3f1f6030	0.62256145
34	0xbdb6619d	-0.08905337
35	0xbe2825a1	-0.16420604
36	0xbe0d9d65	-0.13829572
37	0xbcfa51b6	-0.030556541
38	0x3e53b62d	0.20674963
39	0xbd89b3ec	-0.067237705
40	0xbf3636b1	-0.711772
41	0x3e51a3cc	0.2047264
42	0xbd8a3c0f	-0.067497365
43	0xbd84e8d0	-0.06489718
44	0x3dfd24cc	0.12360534
45	0x3f5a73b9	0.8533283
46	0xbfbcab96	-1.4739864
47	0xbe2b6017	-0.16735874
48	0x3e90b9c3	0.28266725
49	0xbf3ea056	-0.74463403
50	0xbec19816	-0.37811345
51	0xbf6da20e	-0.928254
52	0xbe715da7	-0.23570882
53	0xbe96ea6c	-0.29475725
54	0x3e10c86d	0.14138956
55	0xbe2b0b03	-0.1670342
56	0xbcbc706c	-0.023002826
57	0xbdc9cd6b	-0.098536335
58	0x3efbcea1	0.49181083
59	0x3f4367a2	0.76330006
60	0x3d964cf4	0.073388964
61	0xbef16abd	-0.47151747
62	0x3e0046c5	0.12526996
63	0xbce6103e	-0.028083917
64	0x3e1511a8	0.14557517
65	0xbe05ffa6	-0.13085803
66	0xbe449742	-0.19198325
67	0x3f05b7e5	0.52233726
68	0xbf092ab5	-0.5358079
69	0xbe385eff	-0.18004988
70	0xbd74f927	-0.059807923
71	0x3f25349d	0.64533406
72	0x3eca9a2d	0.39570752
73	0x3e47fdeb	0.19530456
74	0xbea48155	-0.32129923
75	0x3eb5f9d7	0.35542175
76	0x3f03c6ca	0.51475203
77	0x3eea12b3	0.4571739
78	0xbe3bbaf7	-0.1833304
79	0x3eabdbb6	0.33566064
80	0x3d1e98ed	0.03872006
81	0x3e2ed01c	0.17071575
82	0xbe7daeba	-0.24773684
83	0xbf08499a	-0.5323731
84	0x3eddd674	0.43327677
85	0xbec89603	-0.3917695
86	0x3d0e623b	0.03476165
87	0x3ed79ea0	0.4211321
88	0x3e8696f2	0.26287037
89	0x3f1b02cf	0.6055116
90	0x3ed78e83	0.42100915
91	0x3e4a876c	0.19778222
92	0xbd800dde	-0.06252645
93	0x3de5baf8	0.11217302
94	0x3dd1989d	0.10234187
95	0x3ecc0a79	0.3985174
96	0xbe0bf2bf	-0.13666819
97	0x3ec2026d	0.37892476
98	0x3e055702	0.13021472
99	0x3ece7f1c	0.40331352
100	0x3ec0d814	0.37664855
101	0xbdf1a4fc	-0.117990464
102	0x3de2832d	0.11060176
103	0x3e98d442	0.2984944
104	0xbe073171	-0.13202454
105	0x3e8819a5	0.26582065
106	0x3e06d0f9	0.13165654
107	0x3d4ab44a	0.049488343
108	0x3edef4ec	0.43546236
109	0xbebac6a4	-0.36479676
110	0xbd069645	-0.032858152
111	0xbef05b93	-0.46944866
112	0xbebaee72	-0.36510044
113	0x3f19bd8e	0.6005486
114	0xbe4764bb	-0.1947202
115	0xbebc207d	-0.36743537
116	0x3e03bcd1	0.12864996
117	0x3e0c53cf	0.13703845
118	0xbdd29c03	-0.10283663
119	0xbe6477fe	-0.22311398
120	0x3ee7ae4a	0.4525016
121	0xbf1af57c	-0.6053083
122	0xbf591e13	-0.84811515
123	0xbf18b763	-0.59654826
124	0x3e15377b	0.14571945
125	0x3e042858	0.12906015
126	0x3ed71900	0.4201126
127	0xbe56fc6c	-0.20994729
128	0xbe1d1d32	-0.15343168
129	0xbc6255ca	-0.013814399
130	0x3df53299	0.11972541
131	0xbe323589	-0.17403235
132	0x3e958b78	0.2920797
133	0xbe5369a5	-0.20645769
134	0xbefe40f2	-0.49658924
135	0xbec13682	-0.377369
136	0x3d12474d	0.03571253
137	0xbec4676a	-0.3836015
138	0xbdf959bd	-0.12175319
139	0x3d434a10	0.047678053
140	0xbe1359cd	-0.14389725
141	0xbf702e1e	-0.9382037
142	0x3e5cdfb5	0.21569712
143	0xbc92ee73	-0.017935967
144	0x3e010338	0.12598884
145	0xbe7de775	-0.24795325
146	0x3c1e4a29	0.009661236
147	0xbf12977b	-0.5726239
148	0xbf03933f	-0.51396555
149	0xbf76e598	-0.9644408
150	0xbe639426	-0.22224483
151	0xbdeff88b	-0.11717328
152	0xbdfa127f	-0.12210559
153	0xbe32c203	-0.17456822
154	0xbe106c61	-0.14103843
155	0xbe5caa93	-0.21549444
156	0x3e2b8341	0.16749288
157	0xbefd65e5	-0.49491802
158	0x3d9a5c3f	0.07537126
159	0x3e1ae438	0.15126121
160	0x3d2abd05	0.04168417
161	0xbd2d2d6a	-0.04227964
162	0xbf2b04e3	-0.6680433
163	0xbd3ccb0e	-0.046092086
164	0xbcbfb93f	-0.023403762
165	0xbd3b5d8e	-0.045743518
166	0xbe8ebabb	-0.2787684
167	0xbef922dc	-0.48659408
168	0xbdb017b1	-0.08598269
169	0xbe218118	-0.15771902
170	0xbdb133a0	-0.08652425
171	0x3c815455	0.015787283
172	0xbeb33679	-0.35002497
173	0xbf5d3644	-0.8641093
174	0x3ddb35f4	0.1070365
175	0xbf1a1cb0	-0.60200024
176	0xbec45cb6	-0.38351983
177	0xbca7eb0a	-0.020497818
178	0xbef539e9	-0.47895744
179	0xbf131b35	-0.5746339
180	0x3e4b6453	0.1986249
181	0xbe2e3c4c	-0.17015189
182	0x3f0400f7	0.5156397
183	0xbf02a301	-0.51029974
184	0x3e21f940	0.15817738
185	0xbc47e2a9	-0.012200036
186	0x3f94153a	1.1568978
187	0x3f750185	0.95705444
188	0xbf07e077	-0.5307688
189	0x3e29543d	0.1653604
190	0xbe2de888	-0.16983235
191	0xbdc5a0b0	-0.09649789
192	0x3e36e952	0.17862442
193	0x3e02686a	0.12735143
194	0x3dfd409f	0.12365841
195	0x3c51ccb9	0.012805157
196	0x3e34aa88	0.17643178
197	0xbc4a7629	-0.012357273
198	0x3e9c485e	0.30523962
199	0x3ca6ccc3	0.02036131
200	0x3dae783e	0.08519028
201	0x3efbd6e9	0.491874
202	0xbf018452	-0.5059253
203	0x3e545884	0.20736891
204	0x3e72bc58	0.2370466
205	0x3e974b54	0.29549658
206	0xbf015576	-0.5052103
207	0xbedd1f9a	-0.43188173
208	0xbe2914d1	-0.16511847
209	0xbeeab26d	-0.45839253
210	0x3d8d1f39	0.06890721
211	0x3ea33d38	0.31882644
212	0xbd4dd983	-0.050256263
213	0xbe42470f	-0.18972419
214	0xbf85050e	-1.0392168
215	0xbea49fef	-0.3215327
216	0xbdce1f26	-0.10064535
217	0xbf418dd5	-0.75607044
218	0x3f192757	0.5982565
219	0xbe5be17c	-0.21472734
220	0xbdc95c7e	-0.098320946
221	0xbba46b20	-0.005017653
222	0xbea7a190	-0.3274045
223	0x3d1b81a9	0.03796545
224	0x3eb709a0	0.3574953
225	0xbf1a1402	-0.6018678
226	0xbe696a2f	-0.22794412
227	0x3ebbadc5	0.36656013
228	0x3d32537e	0.043536656
229	0x3e0f051e	0.13966796
230	0xbec2c8cd	-0.38043824
231	0xbebc6fc2	-0.36804014
232	0x3dd7645c	0.10517189
233	0xbdad8e70	-0.084744334
234	0x3cae868f	0.021304397
235	0x3ef1db43	0.47237596
236	0x3e39d091	0.18145968
237	0xbeba1234	-0.36342013
238	0x3c8a1591	0.016855987
239	0xbe6755cf	-0.22591327
240	0x3e06b4d5	0.1315492
241	0x3e517d8f	0.20458053
242	0x3d996d35	0.07491533
243	0xbe4ee146	-0.20203122
244	0xbd44bfcc	-0.048034474
245	0xbf6bc696	-0.92099893
246	0xbf681d27	-0.9066948
247	0x3dfb1b16	0.122610256
248	0x3edcdb8f	0.4313626
249	0xbefd5bc0	-0.49484062
250	0xbf4e25c5	-0.8052638
251	0xbf0dbc18	-0.55365133
252	0xbf1036e5	-0.5633376
253	0x3ee7198c	0.45136678
254	0x3dbc8d14	0.09206596
255	0x3dcefe80	0.10107136

stage2.0.bn2.weight f4 [128]
0	0x3f196aaa	0.5992838
1	0x3f0ef23e	0.5583838
2	0x3f87d94a	1.0613186
3	0x3f210a92	0.62906754
4	0x3ee20ad7	0.44148895
5	0x3ee999c3	0.45625123
6	0x3f6b8f4c	0.9201553
7	0x3f531296	0.82450235
8	0x3f0f1c1e	0.5590228
9	0x3f208842	0.6270791
10	0x3e63060c	0.22170275
11	0x3f9483af	1.1602687
12	0x3f797332	0.974414
13	0x3f02e68d	0.5113304
14	0x3f0c09c2	0.5470239
15	0x3f08b58a	0.53402007
16	0x3f2c4d35	0.6730531
17	0x3f4e13c1	0.8049889
18	0x3f389b59	0.7211204
19	0x3f2030e1	0.62574583
20	0x3f5d2389	0.8638235
21	0x3f11b4d2	0.56916535
22	0x3edfba22	0.43696696
23	0x3f0c67ee	0.54846084
24	0x3f236cdc	0.6383798
25	0x3ec86ea9	0.39146927
26	0x3f46672a	0.77501166
27	0x3f14946e	0.58038986
28	0x3f36b952	0.71376526
29	0x3f68b032	0.9089385
30	0x3eb6091c	0.35553825
31	0x3fac8efd	1.3481137
32	0x3f80995b	1.00468
33	0x3f1b63ba	0.60699046
34	0x3ed84861	0.4224272
35	0x3f28a371	0.6587439
36	0x3f4d1855	0.8011525
37	0x3f18ecb1	0.5973616
38	0x3f41bd70	0.75679684
39	0x3f2e373e	0.6805304
40	0x3f2f7115	0.68531924
41	0x3efbfee9	0.4921792
42	0x3f50bca2	0.8153783
43	0x3e94f3c8	0.2909224
44	0x3ef843b5	0.48489156
45	0x3f39afaa	0.7253367
46	0x3f16707b	0.5876538
47	0x3ef10ced	0.47080174
48	0x3f38835e	0.7207545
49	0x3f0853fe	0.5325316
50	0x3f5c0032	0.859378
51	0x3f1cfa3d	0.61319333
52	0x3f0d4c9e	0.55195034
53	0x3f6b6be9	0.9196153
54	0x3eb4e1fc	0.35328662
55	0x3f429b2f	0.7601804
56	0x3f1b1479	0.60578114
57	0x3f2898a9	0.6585794
58	0x3f287cd5	0.6581548
59	0x3f09b397	0.5378966
60	0x3ee1084b	0.4395164
61	0x3f7f5cb3	0.9975082
62	0x3f60a90a	0.87757933
63	0x3f08b68b	0.5340354
64	0x3f46c50d	0.77644426
65	0x3ea53b20	0.3227167
66	0x3f2eba2c	0.68252826
67	0x3f2a27dd	0.66467077
68	0x3ef4500d	0.47717324
69	0x3ebc2123	0.3674403
70	0x3ed436cd	0.4144806
71	0x3edac11d	0.4272546
72	0x3f13a525	0.57673866
73	0x3ef086a5	0.46977726
74	0x3eeafd90	0.45896578
75	0x3f5022ab	0.813029
76	0x3f7f1d60	0.996542
77	0x3ef723e8	0.48269582
78	0x3f42292c	0.75844073
79	0x3f6b97e7	0.9202866
80	0x3f5bc33c	0.8584478
81	0x3ed19b88	0.40938973
82	0x3f29f422	0.6638814
83	0x3f51b87a	0.81922114
84	0x3f1c01b4	0.609401
85	0x3f5e7c02	0.8690797
86	0x3f1425ee	0.57870376
87	0x3f6d1a7d	0.9261854
88	0x3f09f710	0.5389261
89	0x3ed2b7be	0.4115581
90	0x3ef417e3	0.47674474
91	0x3f33bac5	0.7020686
92	0x3ef2303c	0.47302425
93	0x3ef37f87	0.47558233
94	0x3f1f82cc	0.62308955
95	0x3f156fc9	0.58373696
96	0x3ee7384f	0.45160148
97	0x3f666da1	0.9001103
98	0x3f87af26	1.0600326
99	0x3f11f2f0	0.5701132
100	0x3f2a8b4c	0.666188
101	0x3fc1dc94	1.514544
102	0x3f86d164	1.0532651
103	0x3f1599df	0.58437914
104	0x3f2eb84b	0.6824996
105	0x3f204a4f	0.62613386
106	0x3f122901	0.57093817
107	0x3ec5846f	0.385776
108	0x3f5191e1	0.8186322
109	0x3f506091	0.8139735
110	0x3f8c3e12	1.0956442
111	0x3f44684a	0.7672163
112	0x3ef8e445	0.48611656
113	0x3f140410	0.578187
114	0x3ef9c4a6	0.48782843
115	0x3f016a8e	0.50553215
116	0x3f3c90d5	0.73658496
117	0x3ebf11e8	0.3731835
118	0x3f71f14f	0.9450883
119	0x3f07d4fa	0.5305935
120	0x3f3242bf	0.69633096
121	0x3f11eed9	0.5700508
122	0x3f398485	0.72467834
123	0x3f12c1a1	0.57326704
124	0x3f538827	0.82629627
125	0x3ef3503f	0.4752216
126	0x3f1d57cb	0.61462086
127	0x3f10cfe7	0.56567234

stage2.0.bn2.bias f4 [128]
0	0xbed42f09	-0.41442135
1	0xbedd9e06	-0.43284625
2	0xbbbcbf58	-0.0057601146
3	0xbec13128	-0.37732816
4	0xbeb62f54	-0.35582983
5	0xbed89324	-0.4229976
6	0x3defaf2d	0.11703334
7	0xbce3e9e7	-0.027821494
8	0xbdcf2945	-0.101152934
9	0x3e944470	0.28958464
10	0x3f34ea8e	0.706704
11	0x3d23f4dd	0.04002844
12	0xbe291f03	-0.16515736
13	0xbee46722	-0.44609934
14	0x3ec8731c	0.3915032
15	0xbebb66f6	-0.3660199
16	0x3ea9f9f9	0.33198527
17	0xbe869497	-0.2628524
18	0x3eb53f6f	0.35399958
19	0x3d2f326c	0.042772695
20	0xbdb515a9	-0.08842022
21	0xbea1449e	-0.31497663
22	0xbedb4bc9	-0.42831257
23	0xbee49bdc	-0.4465016
24	0xbe99c8da	-0.3003605
25	0xbf02ae60	-0.51047325
26	0xbdbe866f	-0.09302985
27	0x3e80b39f	0.2513704
28	0xbe32409b	-0.17407458
29	0xbdb5ba35	-0.08873407
30	0xbec74038	-0.38916183
31	0xbb03325c	-0.002001903
32	0xbd6a5caa	-0.057217278
33	0xbebc36d9	-0.36760595
34	0x3eb0e60b	0.3455051
35	0xbedb0c6b	-0.42782912
36	0x3dbc65a5	0.09199075
37	0x3e95c909	0.2925494
38	0xbe3beb04	-0.1835137
39	0xbe90c929	-0.28278473
40	0xbea77324	-0.32705033
41	0xbee86d2f	-0.453958
42	0xbd29cd04	-0.041455284
43	0xbef13234	-0.47108614
44	0x3ece66df	0.4031286
45	0xbea09ec3	-0.31371126
46	0xbec8491e	-0.39118284
47	0x3ea4f463	0.32217702
48	0x3e8c5ae2	0.27413088
49	0x3edc94b8	0.43082213
50	0xbe5e1861	-0.21688987
51	0xbec9e0b3	-0.39429244
52	0xbe933b7d	-0.28756323
53	0xbd25eaf1	-0.04050726
54	0x3ee4d396	0.44692677
55	0xbe85fc6e	-0.2616915
56	0xbec1ad85	-0.37827697
57	0xbeb72b2b	-0.35775122
58	0x3d9ac903	0.07557871
59	0xbeca078c	-0.39458883
60	0xbeb94d47	-0.3619177
61	0x3d879fbd	0.066222645
62	0x3d73128e	0.059343867
63	0xbee558a4	-0.4479419
64	0xbe569b5a	-0.209577
65	0xbeb4acf9	-0.35288218
66	0xbea989a9	-0.3311284
67	0xbeb1bcea	-0.34714442
68	0xbeeb2d36	-0.4593293
69	0xbecf32a1	-0.40468314
70	0x3ec7f8bd	0.3905696
71	0x3ec5a809	0.38604763
72	0xbee6c020	-0.45068455
73	0xbf053782	-0.52037823
74	0xbf09e095	-0.5385831
75	0xbe72a66f	-0.23696302
76	0xbc47f265	-0.012203787
77	0x3ead1afd	0.33809653
78	0xbe823933	-0.25434265
79	0xbdb50706	-0.0883923
80	0x3dc8f6c5	0.098126926
81	0xbf0156b3	-0.5052292
82	0xbe73b852	-0.23800781
83	0x3e0f1c43	0.13975625
84	0xbeb9cda7	-0.36289713
85	0x3e254cb4	0.16142541
86	0xbeb475ee	-0.35246223
87	0x3e0a9b0e	0.13535711
88	0xbee59380	-0.44839096
89	0xbeff547c	-0.49869144
90	0xbef8e6ff	-0.48613736
91	0x3e5a0d8e	0.21294233
92	0xbef629c4	-0.4807874
93	0xbef299ca	-0.47382957
94	0xbeaff804	-0.34368908
95	0xbee939ae	-0.4555182
96	0x3ef14878	0.47125602
97	0x3e2eaf02	0.17058948
98	0xbc34f6d1	-0.011045174
99	0xbed68b49	-0.4190314
100	0xbe926783	-0.28594598
101	0x3d4adf58	0.049529403
102	0x3cc880ef	0.024475543
103	0xbe962e4e	-0.29332203
104	0x3e87e26b	0.2653993
105	0x3e909dfc	0.28245533
106	0xbec82c33	-0.3909622
107	0xbeeb920a	-0.46009856
108	0xbd651d4a	-0.055936135
109	0x3e192a65	0.14957578
110	0x3d8ef48a	0.06980236
111	0x3e3597ed	0.17733736
112	0xbebc42ed	-0.3676981
113	0xbecfe5ac	-0.40604913
114	0x3eb16359	0.3464611
115	0xbf0492d2	-0.5178653
116	0xbdb2af2e	-0.08724819
117	0xbef08109	-0.46973446
118	0xbd63554b	-0.055501264
119	0xbebbabb0	-0.36654425
120	0x3e4a4f2a	0.19756761
121	0xbecd35c5	-0.40080085
122	0x3e068ee2	0.13140443
123	0x3e8d86c1	0.27641872
124	0xbd143c31	-0.036190215
125	0xbe9e60e7	-0.30933306
126	0xbea27561	-0.31730178
127	0x3ea54da4	0.32285798

stage2.0.bn2.running_mean f4 [128]
0	0xbf99cb3e	-1.201515
1	0x4011fb24	2.2809534
2	0xc077d697	-3.8724725
3	0xbf79fc8e	-0.9765099
4	0x3fad0b52	1.351908
5	0xbf86f576	-1.0543659
6	0xbf922daf	-1.1420192
7	0xbffdc38f	-1.9825305
8	0xbf815b8f	-1.0106066
9	0x3fd119e6	1.6336029
10	0xbd06b2ed	-0.03288548
11	0xbf44f139	-0.76930577
12	0xc07b4a5d	-3.9264138
13	0xc0551267	-3.3292482
14	0x3fba0db6	1.4535434
15	0xc042513b	-3.036208
16	0x40258f9d	2.5868905
17	0xbfd524a2	-1.6651804
18	0xbe2e7d1c	-0.17039913
19	0x3d0053e8	0.03133002
20	0xbfc2fefa	-1.5234063
21	0xbff7d1c7	-1.9360894
22	0xc0630b97	-3.5475824
23	0xc04dc843	-3.215348
24	0xc0a5ffcd	-5.1874757
25	0xc02ae7e2	-2.670403
26	0xbfed8519	-1.8556243
27	0xbfe54841	-1.7912675
28	0x3efca6e2	0.4934607
29	0xbfbeba57	-1.4900616
30	0x3ff68990	1.9260731
31	0xbf1661cc	-0.58742976
32	0x3f0882f6	0.5332483
33	0x3eff0d20	0.498147
34	0xc06dcae5	-3.7155087
35	0xc08a6112	-4.3243494
36	0xc00f2a2f	-2.2369497
37	0xc06d00a9	-3.7031653
38	0xc0639aec	-3.5563307
39	0xc05857a3	-3.380349
40	0xc0256bbd	-2.5847008
41	0xbf5b5c31	-0.8568755
42	0xc06fac8c	-3.7449064
43	0xbffa5b65	-1.9559141
44	0x3f376e66	0.7165283
45	0xc065ddbf	-3.5916593
46	0xbfb1b352	-1.3882849
47	0x3fd44158	1.6582441
48	0xbfdadf8b	-1.709947
49	0x401f7926	2.4917693
50	0x3fdf48b3	1.7444061
51	0xbddb4bc2	-0.10707809
52	0xc03cb9ae	-2.948833
53	0xbffdcadc	-1.9827533
54	0x3ff51d34	1.9149537
55	0xbfdbeb88	-1.7181253
56	0xc055dc55	-3.341573
57	0xc098cf04	-4.7752705
58	0xc00b0f4e	-2.1728091
59	0xc0cfe388	-6.496525
60	0xbe952775	-0.29131666
61	0x3efd96ee	0.49529213
62	0xc0427858	-3.0385952
63	0xc08a9063	-4.3301253
64	0xc036185d	-2.845237
65	0x3e3e8b8b	0.18607919
66	0x3e0be61b	0.13661997
67	0xbf452bd1	-0.77019984
68	0xc0717219	-3.772589
69	0x3f887ebe	1.0663679
70	0x3feac42c	1.8341117
71	0xc008c8c4	-2.1372538
72	0xbfedf0d5	-1.8589121
73	0xc04bbcde	-3.1834025
74	0xbf6c8059	-0.92383343
75	0xbd44bfd3	-0.0480345
76	0xbf4b70d8	-0.7946906
77	0x3e1585e2	0.14601853
78	0xbeb848b8	-0.3599298
79	0x3d7a030c	0.061038062
80	0x3f37d91e	0.7181567
81	0xc03d75c6	-2.9603133
82	0x3e8399b6	0.2570321
83	0xbf16467f	-0.5870132
84	0xc00a4f44	-2.161088
85	0xc0092c87	-2.1433427
86	0xc09120f6	-4.5352736
87	0xbfa76cfb	-1.3080133
88	0xc053e5e3	-3.3109062
89	0xbeebb1fb	-0.46034226
90	0xc088d602	-4.276124
91	0xc048e6bd	-3.1390831
92	0xc029c7d5	-2.6528218
93	0xbfac9161	-1.3481866
94	0xbf70e721	-0.94102675
95	0xc057f75f	-3.3744733
96	0x404bb09c	3.1826544
97	0xbf29393b	-0.6610295
98	0x3ea11bf2	0.31466633
99	0xbf69daa6	-0.91349256
100	0xc03a6ef8	-2.913023
101	0xbc47fb90	-0.012205973
102	0xc03e7c2a	-2.9763284
103	0x3ea97c9f	0.3310289
104	0x40192e92	2.3934674
105	0xbf422db3	-0.7585098
106	0xbfacfd64	-1.3514829
107	0xbed39a09	-0.41328457
108	0xbfd87453	-1.6910499
109	0xbf35d00e	-0.7102059
110	0x3f182bd2	0.59441864
111	0xc0592b6f	-3.393276
112	0xbfee4cf4	-1.8617234
113	0xbfd038cb	-1.6267332
114	0x3fe18d61	1.762127
115	0xc08b9643	-4.3620925
116	0xc0285be2	-2.630608
117	0x3e210712	0.15725353
118	0xbf7d2b3d	-0.988941
119	0xc083d76e	-4.1200476
120	0xbe8731e7	-0.2640526
121	0xc032047c	-2.7815237
122	0xbff49d7f	-1.9110564
123	0xbfda3f24	-1.7050519
124	0x3f83fa81	1.0310823
125	0xbfbba102	-1.4658511
126	0xc0616c16	-3.522222
127	0x40040f05	2.0634167

stage2.0.bn2.running_var f4 [128]
0	0x40b174ee	5.5455236
1	0x4092286e	4.5674353
2	0x40eb9726	7.3622007
3	0x40d71237	6.7209735
4	0x40c2d5f2	6.0886164
5	0x40525634	3.2865114
6	0x40dc5cf0	6.886345
7	0x404e2300	3.2208862
8	0x408a82dc	4.328474
9	0x406b82c2	3.6798558
10	0x408731aa	4.2248125
11	0x40749652	3.8216748
12	0x40bd34c3	5.9126906
13	0x40f4417d	7.632994
14	0x403ec38f	2.980686
15	0x40677350	3.616413
16	0x40a5e737	5.1844745
17	0x416b870b	14.720469
18	0x4096a7e0	4.7079926
19	0x401abeaf	2.4178884
20	0x40cc1b2b	6.3783164
21	0x40cac617	6.336681
22	0x40b2cc57	5.587444
23	0x40b6acf6	5.7086134
24	0x417ac2e7	15.672584
25	0x40be647d	5.9497666
26	0x40aa7b8d	5.327582
27	0x40c5b6ed	6.17858
28	0x403f997f	2.9937437
29	0x4124d77d	10.302609
30	0x40954d28	4.6656685
31	0x41454425	12.329137
32	0x409ae173	4.8400207
33	0x407d99ae	3.9625049
34	0x4021f1b6	2.5303779
35	0x41615251	14.082597
36	0x40899ca6	4.300372
37	0x408d7dd6	4.421611
38	0x40c059e5	6.0109735
39	0x40d8c44e	6.773963
40	0x40c26662	6.074998
41	0x408252d0	4.072609
42	0x40ad1c05	5.4096704
43	0x400c0e64	2.1883783
44	0x409ea748	4.95792
45	0x419c588a	19.543232
46	0x40ff62a6	7.980792
47	0x40c6d3fb	6.2133765
48	0x409a2190	4.816597
49	0x41206f4c	10.027172
50	0x4070d54a	3.7630181
51	0x405f0639	3.4847548
52	0x40c62a85	6.1926904
53	0x40d2f394	6.5922337
54	0x4092cf44	4.587801
55	0x40837435	4.1079354
56	0x40d06682	6.512513
57	0x41575d27	13.460242
58	0x40eb87ea	7.360341
59	0x418208e9	16.25435
60	0x4069ddce	3.654163
61	0x411226d7	9.134482
62	0x412b5ebc	10.7106285
63	0x412d877b	10.845576
64	0x40ec3a4c	7.3821163
65	0x409a7ffb	4.8281226
66	0x411b100e	9.69142
67	0x416103cc	14.063427
68	0x4140906f	12.035262
69	0x40b3ada2	5.6149454
70	0x4051794a	3.273028
71	0x4048b047	3.135759
72	0x409113bd	4.5336595
73	0x40a401ff	5.1252437
74	0x402e247a	2.7209764
75	0x40929638	4.5808372
76	0x410eca3b	8.924373
77	0x40dc9ec5	6.894381
78	0x4072f69a	3.7963014
79	0x40817143	4.045076
80	0x401881ba	2.382918
81	0x40590428	3.3908787
82	0x4059914a	3.3994927
83	0x407a0dac	3.9070845
84	0x407c7514	3.944646
85	0x40a5ba62	5.179002
86	0x41efe2ac	29.98568
87	0x40ad255d	5.410811
88	0x4137c131	11.484666
89	0x4096f330	4.717186
90	0x409e6f50	4.951088
91	0x40c786d1	6.235207
92	0x40c36515	6.106089
93	0x4114ea64	9.307224
94	0x40998d84	4.798525
95	0x40f97acb	7.7962394
96	0x405a115d	3.4073098
97	0x40350016	2.8281302
98	0x40416753	3.0219314
99	0x40ebc86b	7.368215
100	0x4096b6e4	4.7098255
101	0x40c381ea	6.1096087
102	0x40088719	2.1332457
103	0x4057c521	3.3714068
104	0x405f8887	3.492708
105	0x404f596e	3.2398334
106	0x4060c5a8	3.512064
107	0x406c607c	3.693389
108	0x40fe0aa0	7.938797
109	0x408c34d8	4.3814507
110	0x40e43f23	7.132707
111	0x40f64d13	7.6969085
112	0x4127ced4	10.487995
113	0x40ca1ac4	6.3157673
114	0x409995b1	4.799523
115	0x41031d82	8.194704
116	0x40bfb3ad	5.990683
117	0x40896189	4.293156
118	0x407ad6bd	3.9193566
119	0x41325585	11.145879
120	0x40e7a73d	7.239165
121	0x4123de63	10.241794
122	0x4088bce5	4.2730584
123	0x404c2006	3.1894546
124	0x4033ec53	2.811299
125	0x4097589c	4.7295666
126	0x414b0b54	12.690266
127	0x4055c69e	3.3402476
