artifacts/best.ckpt (torch, 785621 bytes, 62 tensors)

stage1.0.depthwise.weight f4 [3, 1, 3, 3]
00000000: 29ca 8f3e 8cac a33e 3e26 9cbd 6384 9b3e
00000010: 36dc d0bd c7fd 363d 5b10 13be a6fe 3f3e
00000020: e5cf 853e 33ab 76be efc5 933e d7c3 5d3d
00000030: 4ba4 823e 8609 773d de35 193e b723 17bd
00000040: 2864 8d3e 0e51 633d aea9 02be a652 c83d
00000050: c2b9 15be bcf2 fdbc dd0d 23be d3f5 4d3e
00000060: 580b 8dbe 475d 41be cf87 93bd
0.28083923 0.3196758 -0.076244816 0.3037444 -0.10198252 0.044675615 -0.14361708 0.18749484
0.26135173 -0.24088745 0.2886195 0.054141846 0.2551597 0.060311817 0.14961955 -0.036899295
0.27615476 0.05549722 -0.1276004 0.09781389 -0.14621642 -0.030999534 -0.15923257 0.20113306
-0.27547717 -0.18883239 -0.07203638

stage1.0.bn1.weight f4 [3]
00000000: 5ef3 813f 32a4 7f3f 1217 753f
1.0152395 0.9985992 0.9573833

stage1.0.bn1.bias f4 [3]
00000000: 4d65 293d 77c7 133c 31bb 653c
0.041356374 0.009019724 0.014021681

stage1.0.bn1.running_mean f4 [3]
00000000: 256c 76bc 3575 e03b 8e66 c3bb
-0.015040432 0.0068499097 -0.005963153

stage1.0.bn1.running_var f4 [3]
00000000: 310e 633f 0a37 423f f818 2a3f
0.8869353 0.7586523 0.6644435

stage1.0.pointwise.weight f4 [64, 3, 1, 1]
00000000: 64c8 95be fec0 6f3d 618a 20bf d4ea 123f
00000010: 60a9 f3be 73f3 c83e 7d31 d73d 716a 4cbe
00000020: a81a b23e 3827 ad3d ba18 fd3e 84cd 453d
00000030: 03ad 54be 5da9 133e 7da1 03be 59e6 703e
00000040: d43a 0f3f a15f 9f3e 0ebc 60be 38a4 b63e
00000050: 0081 e43d 7ed5 943e 2291 bbbe b61b 11bf
00000060: 0dde 5abe 194c dcbe b036 f93e 667b 5f3e
00000070: b8a7 793e bc9f 2d3e 052e 18bb d5af fa3e
00000080: 0f0e c0be a209 523d 7c3e c0be 65e1 4b3e
00000090: 2e65 56be 6e83 2c3e 3242 e1bd a87e fe3e
000000a0: d411 b5be 44bc 96be f8e4 bdbe 18a7 fd3e
000000b0: 6b34 423e 73f8 0c3f b25c 04bf 005c 08bf
000000c0: ce37 f1be 6fe4 d6be bd57 443e a253 7d3e
000000d0: d7a0 de3e 759d 9ebe b57e b5be 30f4 b53e
000000e0: 8299 48be adc8 b83e 8864 0dbe 772a a23e
000000f0: 9fff 01bf c0ab 9bbe 7a50 183e a2be ec3d
00000100: 78fb 0abe 8463 b73e 6d08 cd3e 6578 dbbe
00000110: e272 95be ac24 073f 767f 32be cdc8 78be
00000120: 60b9 19bf 418d a9be efde f13d 08a7 5cbd
00000130: 7004 e4be 57aa 23bd 1de5 c5be 89d7 e6be
00000140: 1ae8 acbe 099e 09bf a02c aebe 3a83 123f
00000150: 1315 983d 1ae0 1b3e c208 12bf 4c69 b2be
00000160: 969f 3cbe ec2e fa3d 4156 09bf da1a 69be
00000170: 7e28 b0be 521d 31bd a062 58be f9c6 30bd
00000180: a1b6 c3be 57dc cbbe efc7 aabe 16fa 5bbe
00000190: 7669 e4be 459e f43e 3d7f 18be ab39 fd3e
000001a0: b943 343e ce10 f7be 854c d23e 460b 11be
000001b0: 5415 4ebe 0a9f eebe 9052 18bf 220e 463e
000001c0: 6e47 d9bd 3cee 473e 7fad 01bf 0cfd ca3e
000001d0: 9a01 cfbe 0c93 a0bd 91fc 0e3e f790 943e
000001e0: d476 ee3e 75c1 0a3f a8d3 e5be 6262 ed3d
000001f0: c6ab 90be 030a d5bc e76d d1be 1b74 023f
00000200: d3c7 ecbe 2db4 b73e 0a67 2c3e 86ab 4e3e
00000210: 7a91 a3be 34d7 053f b241 f13d 7d70 833d
00000220: 68a8 fabe 0fc4 863e 9c78 6dbd d169 66be
00000230: dc70 093f 8987 093e cae6 b8be 4d91 89be
00000240: 03b7 1abd 65fb ab3e 5000 fabd a46a 9ebe
00000250: 0659 64be da63 dcbe 53c4 263e fbec fb3e
00000260: 1b48 0fbf f1ae ea3d bae9 a83e f090 853d
00000270: fa99 60be 5069 a43e b175 853e 6453 6c3e
00000280: ade7 9dbd 8457 4cbe 1b6c 463d 3e0a cabd
00000290: 9514 56be 32d2 be3e 2c32 fa3e 02ab cbbd
000002a0: 3713 edbd f76e 3b3d 24ae 4abd f447 213e
000002b0: 3ee7 3c3e cca2 febe e7b2 3abe 3718 fe3e
000002c0: 824f 6a3e 58ff fcbc 0a1a aabe 0c37 bebe
000002d0: 9342 01bf 7608 35be ee34 663e f18a c23e
000002e0: 9732 9e3e 1fc5 f2be a3f6 b0be 2556 2dbd
000002f0: d560 133f e321 b83d 3549 0ebe 9ef6 793e
-0.29254448 0.05853366 -0.6271115 0.5738957 -0.4759016 0.39248237 0.10507486 -0.19962479
0.34785962 0.08454746 0.49432927 0.048291698 -0.20769124 0.14420076 -0.12854572 0.2352537
0.5594914 0.31127647 -0.21946737 0.35672164 0.11157417 0.29069132 -0.36634165 -0.5668291
-0.21373768 -0.43026808 0.48674536 0.21824417 0.24380386 0.16955465 -0.002322079 0.48962274
-0.37510726 0.051278718 -0.37547672 0.199102 -0.20937034 0.16847011 -0.10998954 0.49706006
-0.35365164 -0.2944051 -0.37088752 0.49541545 0.18965308 0.55066603 -0.5170394 -0.5326538
-0.47112888 -0.41971156 0.19174094 0.24738935 0.43482086 -0.30979505 -0.35448232 0.35537863
-0.19589809 0.36090603 -0.13807881 0.31673023 -0.5078067 -0.30404472 0.1487445 0.11559798
-0.1357249 0.35818112 0.4004549 -0.4286529 -0.2918921 0.5279033 -0.17431435 -0.2429535
-0.60048485 -0.3311558 0.11810099 -0.05387023 -0.44534636 -0.03995737 -0.38651362 -0.45086315
-0.3377083 -0.5375677 -0.3401842 0.57231486 0.074258946 0.15222207 -0.57044613 -0.3484596
-0.18420252 0.12215981 -0.5364724 -0.2276415 -0.34405893 -0.043240853 -0.21131372 -0.043158505
-0.38225272 -0.39816543 -0.33355662 -0.21482119 -0.4461171 0.47777 -0.14892288 0.4945806
0.17603959 -0.48255008 0.41074005 -0.14164457 -0.20125324 -0.46605712 -0.5950098 0.19341329
-0.10609327 0.19524473 -0.5065536 0.39646184 -0.4043091 -0.07840547 0.13963534 0.2901685
0.46575034 0.5420144 -0.44888043 0.11591031 -0.28256053 -0.02600575 -0.4090416 0.5095841
-0.46246204 0.3587965 0.16836181 0.20182618 -0.31946927 0.522815 0.117801085 0.0641794
-0.4895661 0.26321456 -0.05797635 -0.22501303 0.53687835 0.13430609 -0.36113578 -0.26868668
-0.03777219 0.33590236 -0.12207091 -0.30940735 -0.22299585 -0.4304493 0.16285829 0.4920424
-0.559694 0.11459149 0.3299082 0.06521785 -0.21933737 0.32111597 0.26066354 0.23078686
-0.07710204 -0.1995526 0.04844294 -0.09865235 -0.20906289 0.3726974 0.48866403 -0.099447265
-0.115759306 0.04576012 -0.04948248 0.15750104 0.18447587 -0.4973358 -0.18232308 0.4962785
0.22881892 -0.030883476 -0.3322299 -0.37151372 -0.5049221 -0.17679009 0.22481129 0.3799663
0.30897972 -0.47416016 -0.3456317 -0.042318482 0.5756963 0.089908384 -0.13895114 0.24410483

stage1.0.bn2.weight f4 [64]
00000000: 4aa8 803f 8cea 7e3f 1a36 843f fb97 7a3f
00000010: fd75 843f cabf 7c3f fb63 813f 8ed8 803f
00000020: da23 843f 386a 7c3f 76d1 843f c90f 783f
00000030: 6b45 803f 0c1d 813f d412 843f fdbc 853f
00000040: 6172 803f a6de 723f cc21 823f 1eb4 863f
00000050: ffe3 813f 0c93 803f e385 833f 9223 823f
00000060: 01b5 803f a9e0 7d3f c9e9 823f af3b 843f
00000070: 491c 853f e7ba 7c3f fa73 793f 2d90 763f
00000080: 03fb 823f 5cb5 813f a5b8 7e3f fe36 7e3f
00000090: e369 813f 785b 843f 60a6 843f 6cbf 833f
000000a0: 2d30 843f c937 833f 93c4 7d3f d3a2 823f
000000b0: da72 7b3f 202b 813f 7dcd 803f 9544 7e3f
000000c0: 280b 873f 2c60 753f 648e 803f cb7c 7c3f
000000d0: db07 873f 7ae9 7a3f eab4 7d3f 9768 833f
000000e0: abd1 823f 332d 813f 8cae 743f cd9e 7c3f
000000f0: 0af5 7e3f a34b 7a3f 6c71 853f c61c 813f
1.0051358 0.9957664 1.032901 0.97888154 1.0348507 0.98730147 1.0108637 1.0066087
1.0323441 0.98599577 1.0376422 0.96899086 1.0021185 1.0086989 1.0318246 1.04483
1.0034906 0.94870985 1.0166564 1.0523717 1.0147704 1.0044875 1.0275234 1.0167105
1.0055238 0.9917093 1.0227596 1.0330714 1.0399257 0.9872269 0.9744259 0.96313745
1.0232853 1.0133471 0.99500495 0.9930266 1.0110439 1.0340414 1.0363274 1.0292792
1.0327202 1.0251399 0.99128073 1.020594 0.98222125 1.0091286 1.006271 0.993234
1.055028 0.9584987 1.0043454 0.9862792 1.0549272 0.98012507 0.9910418 1.0266293
1.0220236 1.0091919 0.9557884 0.9867981 0.9959265 0.9777166 1.0425239 1.0086906

stage1.0.bn2.bias f4 [64]
00000000: 189a c5bc bee5 153d ea9d 1cbc b707 1d3d
00000010: ef28 11bc e031 f63c 7c38 eabc 77c1 ef3c
00000020: 9837 c8bb 7396 f03c 876b 4abb 82c9 5abd
00000030: dfac 93bc 2e92 663c 02d2 a73b f495 bd3b
00000040: 52d0 4bbc fb06 693d f506 31bc 77e8 2f3c
00000050: 88e5 983c 5fac e2bc 5c38 2dbc f4f8 d53b
00000060: 1c8f c2bc d388 d23c 41ff a8ba a9e2 abbc
00000070: 3ba0 d83c 043b 04bd 40c9 2b3d ffea 37bd
00000080: 1593 7e3b fc11 edbb c0ae d0bc 8bc1 d3bc
00000090: 61df e93c eb75 c33b 8473 6bbc 6731 34bc
000000a0: 908f fc3b 5791 a73c da4e 273d fbd6 963c
000000b0: 7b61 143d 1368 5ebc fe68 c2bc a339 13bd
000000c0: cd43 3a3a ccba 31bd dadc f4bb 9f53 cfbc
000000d0: ab04 c6ba d0b3 16bd 0ee2 25bd 06d2 9eba
000000e0: 2af6 8a3b a59c ddbc dffb 623d 829f ff3c
000000f0: 87f0 b63c c39c 19bd cdba 8d3c 4598 cebc
-0.02412133 0.036596052 -0.009559134 0.038337436 -0.008859857 0.03005308 -0.028591387 0.029267056
-0.006110143 0.029368615 -0.0030886845 -0.05341483 -0.018026767 0.014072938 0.0051214704 0.005785698
-0.012439804 0.056891423 -0.010804881 0.010736576 0.018664137 -0.027670084 -0.010572519 0.0065299217
-0.02374988 0.025700008 -0.0012893454 -0.020982103 0.026443591 -0.032282844 0.041939974 -0.044901844
0.0038844992 -0.00723481 -0.025473952 -0.025849124 0.028548898 0.0059649847 -0.014370803 -0.010998107
0.0077075437 0.020455046 0.040846683 0.018413058 0.036225777 -0.013574618 -0.023731705 -0.03594364
0.000710544 -0.043391034 -0.0074726166 -0.025308428 -0.0015107592 -0.036792576 -0.040498786 -0.0012117035
0.004240771 -0.027052233 0.055415984 0.031203989 0.02233149 -0.037503015 0.017300988 -0.025219092

stage1.0.bn2.running_mean f4 [64]
00000000: aa01 54be f5f5 ee3d 72e8 703d 9f55 183e
00000010: 607d 48bd 3ed4 863e 5bec 3a3d 8f22 13be
00000020: 55e0 4ebd 5572 163e 7f17 b03c 5183 14bd
00000030: d6da 19bd de07 0ebd f8ba 953d 9e27 d7bd
00000040: 9a54 25be a000 c33d 77c7 7bbd dc41 053e
00000050: a52a 1ebe 4e96 9f3d 17cb 93bd a25a 223d
00000060: fe93 47be 34a8 f9bd 4678 91be b03b aebd
00000070: e671 90bd f00d dfbd 7d4d 89be 3da4 87bd
00000080: 7239 89be 8dd1 30bd 702e fc3d 7e24 76bd
00000090: ba3f 99be 78fa 883d 5654 f6bd 1107 a43d
000000a0: 32c6 093e a8b3 2abd 2d0f b4bd df1d 313e
000000b0: 7da1 953d 26db 31bd d8ff 3a3d a3b9 e5bd
000000c0: 13aa 203d e0df 6bbe 1b31 f23c 5b37 003e
000000d0: db9f b23d aa98 a1bb adaf 6fbd 6f33 423e
000000e0: 7ace 08bd 3087 1ebd 54f1 f83d c604 33be
000000f0: 9424 f9bd 4036 443d 4eaa 033d 3247 2f3d
-0.2070376 0.11668006 0.058815427 0.14876412 -0.048947692 0.26333803 0.045635562 -0.14368652
-0.05050691 0.14692052 0.021495579 -0.036258046 -0.037562214 -0.03467547 0.07311052 -0.10505603
-0.16145554 0.095216036 -0.06146952 0.13013405 -0.15445955 0.0779234 -0.07216471 0.039637215
-0.19490048 -0.12190285 -0.28412074 -0.08507478 -0.070529744 -0.1089133 -0.2681693 -0.06623123
-0.2680164 -0.043168593 0.12313545 -0.060093395 -0.29931432 0.06688398 -0.120278046 0.0800916
0.13454512 -0.04167524 -0.08791957 0.17296551 0.07306192 -0.043421887 0.045654148 -0.11217048
0.039224695 -0.2303462 0.029564431 0.12521116 0.08721896 -0.004931529 -0.058517147 0.18964933
-0.033400036 -0.038703144 0.12155405 -0.1748229 -0.1216518 0.0479033 0.032144837 0.042792507

stage1.0.bn2.running_var f4 [64]
00000000: 12ff f23e ed6d f63e 226c ea3e f6d3 fa3e
00000010: 673f df3e a309 053f a82c e03e 84de f03e
00000020: 8733 183f 5371 eb3e 2b1e 073f 240f f13e
00000030: e903 df3e 7e64 ee3e d9dc e43e dd2c fc3e
00000040: cf98 1a3f f543 103f 02ab e53e 93e5 e63e
00000050: e757 113f dbc1 e63e 8554 e73e 5a8f f73e
00000060: 234c 1c3f 9b78 f43e efa8 093f 39dd 323f
00000070: d899 013f 85e4 fe3e 5f7c 053f 3c8c e13e
00000080: 8a42 053f a488 173f feb3 e83e 3e57 e73e
00000090: 8a81 ff3e 1c39 e03e 5e06 f23e 146c e13e
000000a0: 267c 363f 3e69 df3e b5ba fa3e cefb f13e
000000b0: 0869 e53e 9d10 ff3e fcff 023f 3259 e23e
000000c0: a401 eb3e 642a f33e 3b8a 1c3f cf5e ec3e
000000d0: 9314 e23e b451 e33e 826b de3e fcc9 143f
000000e0: 5960 dd3e bce1 023f d25a e63e 21e7 e73e
000000f0: 4149 0d3f 40ac 183f 7c81 0a3f ebbd e23e
0.47460228 0.48130742 0.45785624 0.48989838 0.4360306 0.5196783 0.4378407 0.47044766
0.59453624 0.45984897 0.5278041 0.47081864 0.4355767 0.46561044 0.44699743 0.49252978
0.6038942 0.56353694 0.4485703 0.45097026 0.56774753 0.45069775 0.4518167 0.48351556
0.61053675 0.47748265 0.537734 0.6986881 0.5062537 0.49783722 0.521429 0.44052303
0.52054656 0.5919287 0.45449823 0.45183748 0.49903518 0.4379357 0.47270483 0.4402777
0.71283185 0.4363498 0.4897057 0.47262424 0.44806695 0.49817362 0.5117185 0.44208676
0.4589969 0.4749328 0.6114842 0.46166083 0.44156322 0.44398272 0.43441397 0.58120704
0.4323757 0.51125693 0.44991165 0.45293525 0.551899 0.5963783 0.5410383 0.4428552

stage1.1.depthwise.weight f4 [64, 1, 3, 3]
00000000: 409a f1bd 9a4c 4abe ce48 813e 8638 13be
00000010: 1cdd 23bd 886a a5be 6f4b 713e 8452 883e
00000020: 9d74 1d3e 18e2 81be f864 b4be 58e3 9abe
00000030: cf81 703e e7ca 083e c724 793e e0fe 273e
00000040: 2acb 863d c356 f3bc 1bb3 4dbe 3757 88be
00000050: 2fe0 adbe f1c6 c53d a818 4cbe 88b3 d7bd
00000060: 715b 31be 21d5 42bd 30ae 96be 1a4a 7dbe
00000070: a0c0 813d 2364 05be f5b4 3e3e 7e7a 00be
00000080: 18d7 5ebe 3385 bbbd c03a 2ebe 3356 8dbd
00000090: 1656 96be 8510 543e a9ff 4cbe 5229 4c3e
000000a0: fdd4 3b3e 19c7 8f3e fdc9 7fbe 8fff 823e
000000b0: a734 fbbd 0831 fe3d 4a18 a23e 0fb5 3dbd
000000c0: 5026 43bc 0f2e a8bd 53bf 8fbe 6d97 183e
000000d0: bce5 abbe e387 4b3e 3c24 8a3e da7a a83e
000000e0: 2c1c 89bd 26f2 83be 0a5d 9c3d d005 453e
000000f0: 6d8f a4be de88 8dbd c128 41be eb79 8dbd
00000100: ea43 4ebe e9ad 32be 5ab7 14be 8882 bfbe
00000110: 98b7 663e 2183 753e 9053 7ebd b1a3 a2bd
00000120: 2d25 11be 33a8 a1be 0f31 a6be b11a e73d
00000130: 9cb5 4fbe 5ce3 70be e745 293c bb81 b3bd
00000140: 0ff5 d1bd a4bd 803d cacb 00bc 1649 02be
00000150: c0a1 1abe 788e 8cbe e634 903e ae1c 15be
00000160: 4aab 853d deb3 e8bd 9f38 913c 6a49 8b3e
00000170: 9ea8 ff3d b270 97be 425f 1d3e 276a ab3e
00000180: a2f4 e93d 65e3 723e b234 b83e 6192 06bb
00000190: 658a 043d 65f2 85be cf1b 98bd c57b 653e
000001a0: 8e95 0b3e 0ad4 2dbe 54c1 9dbe 8e30 88be
000001b0: 8988 abbe 9906 4dbe 5262 74bd b2f1 8c3e
000001c0: d904 ef3d 001c 47be 1d9c 69be 1a7e 433e
000001d0: c6aa 80be 0722 d7bc 94ba 433e 43ef 00be
000001e0: 2f1d 40bd 3ff0 513c d630 05bd 44e7 1abe
000001f0: 0fe2 b4be 9bef 88be 35bb 1bbe 6830 c23e
00000200: bd21 febd ea7d 5fbe 5dfe 9b3d b94f 043e
00000210: 48c2 113e 0ec3 713e 92cb 273e 195a aabe
00000220: 455e 93bc 2216 3c3e 061f 0dbd 898b 81be
00000230: b402 953e 1dc0 09be 58e4 47be 9026 a8be
00000240: b5e3 bcbb 9603 193e 24c1 993d 11f9 a73d
00000250: 960a 72be 4054 96be 6b48 363d 7043 b43e
00000260: dd74 423e 8d85 40be 0f86 5dbd c783 7ebe
00000270: d113 1ebe 2adf 783d 19f3 363e d593 953e
00000280: 40a6 95be dc2b 6c3e d60d 55be 3883 f43d
00000290: ea4d a03e 0482 553c d85f ac3e 1db7 81be
000002a0: 884b eebd 6b99 563e 6ffd 49bd ab57 26bd
000002b0: 2252 dcbd 4d03 833e c6b2 323e 8dd7 f53d
000002c0: c396 27be 8102 8abe 0bd9 3f3d 7d98 e63d
000002d0: d3e3 29be 4a28 8ebd 05f2 833e 7b8f ef3c
000002e0: 4179 ef3c fcb3 6ebd 39f9 a8be 381f 86be
000002f0: d068 30be 86d8 f6bd 64a7 283e 9c41 60bd
00000300: 800d abbd 1290 b93e f806 173e 296f 903e
00000310: d963 ebbd 7752 c4bd 3f92 023e 8a8b 59be
00000320: f798 4fbe 980f 6db8 2e3f cabd e99a 68be
00000330: 04ef 6b3e 7020 923e 26ef 903d 04c6 81bd
00000340: 1dae 89be d04d 34be fbea 0d3d d826 e13d
00000350: d431 a4bd d084 18be c389 113e d60f a0be
00000360: fffc 673e 8765 b3bd cd3c 443d f7ec edbc
00000370: 2aaf a73d 4201 6cbd 26cc 813e f0d4 8d3c
00000380: 7d95 963e dd0f 993e 8892 3fbe 1990 87be
00000390: 9d2d 803e 25ed 743e 0835 8abe 567a 37bd
000003a0: 40ea b8be 9ea9 91be dc7d da3d a2c9 0c3e
000003b0: b0a9 fa3d 2bb8 b2bd 4c50 9f3e 212d 2e3d
000003c0: 3321 37be 98ab 8dbb bebb bf3d 0f31 143e
000003d0: 0809 55be 9e07 223e c176 23be 7415 83be
000003e0: d52f 1ebe 4aa5 aa3e 1326 9b3e e08a a73e
000003f0: d123 443e ac43 7d3e d5fa 46bd 84f8 3fbe
-0.11796999 -0.19755784 0.25250858 -0.1437703 -0.04000579 -0.3230784 0.23563932 0.26625454
0.15376516 -0.25367808 -0.35233283 -0.30251575 0.23487018 0.13358651 0.24330436 0.16405821
0.06581719 -0.029704457 -0.20087855 -0.2662904 -0.339601 0.09657086 -0.1993128 -0.1053229
-0.17320038 -0.047566537 -0.2942977 -0.24735299 0.063355684 -0.1302648 0.18623717 -0.12546727
-0.21761739 -0.09156265 -0.17014599 -0.06901207 -0.29362553 0.20709427 -0.20019402 0.19937637
0.18342967 0.28081587 -0.24979396 0.255856 -0.12265902 0.12411696 0.31659156 -0.04631525
-0.01191099 -0.0821191 -0.28075656 0.14901514 -0.3357371 0.19876055 0.2698077 0.32906228
-0.066948265 -0.25770682 0.07634933 0.19240499 -0.32140675 -0.06910871 -0.18863203 -0.0690802
-0.20143095 -0.17449154 -0.14523068 -0.37404275 0.22530973 0.23975803 -0.06209141 -0.07941378
-0.14174338 -0.31573638 -0.32459304 0.11284388 -0.20284122 -0.2352423 0.010331607 -0.087649785
-0.10251819 0.06286171 -0.007861087 -0.12723193 -0.15100765 -0.27452445 0.28165358 -0.14561722
0.065268114 -0.11362432 0.017727194 0.27204448 0.12483333 -0.29578167 0.15368369 0.33479425
0.11423613 0.23719557 0.35977703 -0.0020534026 0.032358546 -0.26161495 -0.07427179 0.22410496
0.1363127 -0.16975418 -0.3081156 -0.26599544 -0.33502606 -0.20022048 -0.059664078 0.2752815
0.116708465 -0.19444275 -0.22813459 0.19091073 -0.2513029 -0.026261343 0.19114143 -0.12591271
-0.04690283 0.012813627 -0.032517277 -0.15127283 -0.3532872 -0.26745304 -0.15208133 0.37927556
-0.12408779 -0.21825376 0.07616875 0.12921037 0.14234269 0.23609564 0.1638625 -0.33271864
-0.017989287 0.18367818 -0.034453414 -0.2530177 0.29103625 -0.13452192 -0.195207 -0.3284192
-0.0057644495 0.14942774 0.07507542 0.082018025 -0.2363685 -0.29361153 0.044502657 0.352077
0.18989892 -0.18800946 -0.054082926 -0.24854957 -0.15437247 0.0607597 0.17866172 0.2921435
-0.292284 0.23063606 -0.20806059 0.119390905 0.31309444 0.013031486 0.33666873 -0.25335017
-0.116355 0.20956962 -0.04931396 -0.04061095 -0.10757853 0.25588456 0.17451009 0.12004004
-0.16366105 -0.26955035 0.046837848 0.112595536 -0.16590814 -0.06941278 0.25770584 0.029243222
0.029232623 -0.058277115 -0.33002642 -0.26195693 -0.17227483 -0.12053017 0.16470104 -0.05475007
-0.08352184 0.3624273 0.14748752 0.28209808 -0.11493654 -0.095860414 0.12751101 -0.21244636
-0.20273195 -5.6519726e-05 -0.09875332 -0.22715344 0.23040396 0.28540373 0.07076864 -0.063365966
-0.2689065 -0.17607808 0.034647923 0.10993737 -0.080173165 -0.14894414 0.14212708 -0.31262082
0.22655104 -0.08759599 0.047909547 -0.029043658 0.08187707 -0.057618387 0.25351065 0.01731345
0.29410926 0.29894915 -0.18708241 -0.26477125 0.250348 0.23918588 -0.26993585 -0.044794403
-0.3611622 -0.2844972 0.10668537 0.13748792 0.122393966 -0.087265335 0.3111595 0.042523507
-0.17883758 -0.004323434 0.09361981 0.1447184 -0.20804226 0.15823218 -0.1596327 -0.25602305
-0.15447934 0.3332923 0.30302486 0.3272314 0.19154288 0.24732846 -0.048579056 -0.18747145

stage1.1.bn1.weight f4 [64]
00000000: 902a 7e3f 7761 813f fc1d 7d3f c8d6 763f
00000010: acd8 823f adc3 7e3f 0076 833f 5ee8 7d3f
00000020: bc06 7c3f 321f 813f fec0 763f 181b 803f
00000030: 06cc 793f 6fae 7c3f 00c4 823f 0f6e 823f
00000040: 793e 773f 408e 723f ebf4 813f 4023 7e3f
00000050: 98af 833f db1e 813f 461f 833f 0e3d 773f
00000060: bffc 803f 55b0 773f 15c7 7d3f 73c8 7f3f
00000070: ac28 863f d0db 723f a148 7c3f 2896 733f
00000080: 4c33 803f d69e 7e3f 464a 813f 7214 773f
00000090: 6ace 813f fad3 843f d6b6 723f 94b0 753f
000000a0: 6b8c 813f 9a5e 813f 88b1 843f b863 863f
000000b0: f4af 823f e56d 713f ba3e 803f a6bb 823f
000000c0: 99fa 803f 214b 7b3f 3656 753f 7b16 7a3f
000000d0: 2e29 833f 133d 813f efd8 813f 43ba 7f3f
000000e0: 5913 7d3f a401 803f 3dc8 753f d823 7e3f
000000f0: a181 7d3f ca53 803f 59a4 853f cc62 823f
0.99283695 1.0107869 0.9887388 0.9642148 1.0222373 0.9951733 1.0270386 0.9918269
0.98447776 1.0087645 0.9638823 1.0008268 0.9757694 0.98703665 1.0216064 1.0189837
0.965797 0.94748306 1.0152868 0.9927254 1.0287962 1.0087541 1.0243919 0.9657754
1.0077132 0.96753436 0.991319 0.99915236 1.0481162 0.9486666 0.9854832 0.95150995
1.0015655 0.99461114 1.0100791 0.9651557 1.0141118 1.037719 0.94810236 0.9597256
1.0120977 1.0106995 1.0366678 1.0499182 1.0209947 0.9430831 1.0019143 1.0213516
1.0076476 0.9816151 0.9583467 0.9769055 1.0246942 1.0096763 1.0144328 0.9989359
0.9885765 1.0000501 0.96008664 0.99273443 0.99025923 1.002557 1.044078 1.01864

stage1.1.bn1.bias f4 [64]
00000000: 1ed4 42bd edcd 6c3b c197 71bc 75ce 29bd
00000010: 2f62 e93c bf9d dfbc 40e0 843c a755 413c
00000020: e8ac 25bc 8094 c93b b957 1bbc 8d94 98bc
00000030: 423e 9ebb 2a4d fc3b 8af2 a73c 2545 013d
00000040: b0c8 97bc cd2b 41bd 3384 b33c 7aec 20bd
00000050: 7e34 4d3c 49f6 c53b 9cd2 7dbc ce68 b9bc
00000060: 42c3 21bc bbc0 f3bc 1083 96bc 9e19 f7bb
00000070: f147 14bd 871e 413c 0fc0 e43c c865 14bd
00000080: aa7a c8bb 011a 1abc 677f 173d ab63 ccbc
00000090: 4c6b ce3c 05f5 033d 31cf 44bd 9bfc 5ebd
000000a0: 608c d539 0c53 443c 8a61 c73c af88 183d
000000b0: 3b1e 043d 4de3 64bd 062f 723c cd23 a33c
000000c0: 578e 9e3b 5937 0bbd c11a efbc 5749 563c
000000d0: e793 853c ce17 04bc 592a 52bc 2954 bf3c
000000e0: ab83 87bc f6d4 b8bc 2b94 6c3c 6ebb f13c
000000f0: e53c 8cbc 6f49 3abb 9810 143d 51f5 6d3c
-0.047565572 0.0036133484 -0.014745654 -0.04145666 0.0284892 -0.027296899 0.016220212 0.011800206
-0.010112025 0.006151736 -0.009481364 -0.018625522 -0.004829199 0.0076996284 0.020501394 0.031560082
-0.018528312 -0.047160912 0.021913623 -0.03928802 0.012524722 0.0060413224 -0.015492108 -0.022632983
-0.009873213 -0.029754987 -0.018373042 -0.0075408956 -0.03620142 0.011787063 0.027923612 -0.03622988
-0.0061181383 -0.009405614 0.036986735 -0.02494987 0.025197648 0.03221609 -0.048049156 -0.054440122
0.00040731113 0.011982691 0.024338502 0.037239727 0.032255393 -0.055880833 0.014781719 0.019914532
0.0048387456 -0.03398833 -0.029187562 0.013079009 0.016305877 -0.008062316 -0.012827479 0.02335556
-0.016542276 -0.022562485 0.014439623 0.029508319 -0.01711888 -0.0028425117 0.036148638 0.01452382

stage1.1.bn1.running_mean f4 [64]
00000000: 6ad0 0d3c a0d9 0cbc 9ef8 b9be 093c 2bbe
00000010: cb3d f33c b234 183b f78a 1fba 38c1 eabd
00000020: b94d 99be 29eb c7bd 8a60 9b3e 2f3a 12be
00000030: 41a3 2cbe fd0f 49be acca f13d d93a 26be
00000040: cc5e 813d bb03 0abd e7ad 703d 39e2 9c3c
00000050: 1bdf 3abe 1a95 953d a411 87bc 0eee 19be
00000060: d9ed 0d3e 9060 06be 38f4 b93d e0c3 c43d
00000070: 91a5 4fbc 0cd2 acbc 051f 5b3e 85c7 01ba
00000080: 90dd 87be 17aa 2c3e 6bde 623d 65d2 05bd
00000090: 4c27 863e 0644 303e 3c51 90be ae8e 2bbe
000000a0: 4d8a afbc 2b12 66bd 6ba0 45be b93f d03d
000000b0: 6962 debd e055 2dbe d9e3 7cbe cf73 a53d
000000c0: 7073 9f3d 9055 093d 1414 223d 7fdf ccbd
000000d0: 9ca1 fa3d 65e0 573d 0085 07bd 21ee c63d
000000e0: 7365 02be 4e9c fc3d 0265 9e3d 745e 073d
000000f0: 89a9 36be 4f3c b4bd 1489 cebd 8c6c 223e
0.008655647 -0.008596808 -0.36322492 -0.1672212 0.029692551 0.0023224768 -0.0006086076 -0.11462635
-0.2994211 -0.0976165 0.3034709 -0.14280008 -0.16859151 -0.19635005 0.11806235 -0.16233386
0.06316909 -0.033694964 0.058759596 0.01915084 -0.1824917 0.073038295 -0.016487904 -0.15032217
0.13860263 -0.13122773 0.09079784 0.09607673 -0.012673751 -0.021096252 0.21398552 -0.000495069
-0.26536226 0.16861759 0.055387896 -0.03267135 0.26201856 0.17213449 -0.28186977 -0.16753647
-0.021428252 -0.05616967 -0.19299476 0.10168404 -0.10858614 -0.1692729 -0.24696292 0.08078729
0.0778569 0.033528864 0.03956993 -0.10003566 0.12237856 0.052704234 -0.033085823 0.09713388
-0.12734012 0.123345 0.077341095 0.033049062 -0.1783811 -0.088005655 -0.10084739 0.1586172

stage1.1.bn1.running_var f4 [64]
00000000: 49b8 e33e 0d8c e73e 273f 5c3f a9c5 163f
00000010: f201 e63e 7edf e03e fb5e ea3e 4031 ef3e
00000020: a1a7 213f da1f fb3e d418 533f b776 f03e
00000030: d1a1 0b3f 0fe8 123f af2c 013f 5867 053f
00000040: a745 e03e 6f9c e33e 1efe eb3e 5f31 df3e
00000050: 74eb f53e bdda ea3e ac62 ec3e bbd4 083f
00000060: e4de e93e a220 eb3e 3790 e53e 62a1 ea3e
00000070: 5d6e df3e e4ba de3e b1cc 003f 8e91 dd3e
00000080: 2f9a 0b3f e663 fe3e d55c ee3e 754e e43e
00000090: a865 193f c3c4 0d3f 8de0 333f 0f0a 0e3f
000000a0: bc6b df3e 86a3 e33e 4aa5 0a3f 8386 fe3e
000000b0: a7b3 003f 7225 f93e a158 1f3f a610 ec3e
000000c0: 9a8f ef3e d74c e33e 3717 e33e 34c5 ff3e
000000d0: dd68 013f 716b ec3e 5de5 e13e ac43 fa3e
000000e0: df26 f23e 69ac f63e 4744 fb3e 65ce e43e
000000f0: b48e f93e b142 f13e ca6d ee3e 873b 053f
0.44476536 0.45224038 0.8603386 0.58895355 0.4492336 0.4392051 0.4577559 0.46717262
0.63146406 0.49047738 0.8245976 0.46965572 0.5454379 0.57385343 0.50458807 0.52110815
0.4380314 0.44455287 0.46092314 0.43592355 0.480312 0.4587001 0.4616903 0.534496
0.45677865 0.45923334 0.4483659 0.4582625 0.43638888 0.4350196 0.50312334 0.43275112
0.5453214 0.4968559 0.465552 0.44591108 0.5992074 0.5537836 0.7026451 0.554841
0.43636882 0.44460696 0.5415846 0.49712 0.5027413 0.4866138 0.6224461 0.46106452
0.46789247 0.44394562 0.4435365 0.49955142 0.50550634 0.4617572 0.44120303 0.48879755
0.4729528 0.48178414 0.4907553 0.44688717 0.48741686 0.47121194 0.46568137 0.52043957

stage1.1.pointwise.weight f4 [64, 64, 1, 1]
00000000: d825 8dbd c0b1 12bd eaa2 a3bb 4218 a2bd
00000010: c431 0d3e d27f cdbb 84ef 913d 4f53 0fbe
00000020: ce0f 9b3d 2d63 f6bc 2e7a d2bd 50df 613c
00000030: 7a44 9d3c 958e e53d 5d46 afbd 845e 49bd
00000040: 7b7a 053d 8c3e 243c 5e68 553d e62d 8d3d
00000050: 8be2 3dbd 8183 9c3d 725e b63d d507 e6bc
00000060: 0f69 c93d 1d8c 6c3d 30a1 dd3d cccd 2abd
00000070: 816d 5bbd a7f3 8a3b 101c 863c 8b5d e83d
00000080: 9821 9cbd fb0c b83d 5be5 6bbd 2ebd 893d
00000090: a6d0 f53c aad8 eabd 48a9 dabd 2506 b6bd
000000a0: 3921 dc3d 5c63 57bd 671f 24bd f850 853c
000000b0: 160d aabd 03c3 073d 7ba7 d8bd 8241 98bd
000000c0: 14c7 f4bd a8f3 0bbb 868c b3bd 4e22 793d
000000d0: 3edf 9d3b de57 543d 8001 cc3d 6c04 153d
000000e0: 10da 37bd 8c03 fbbd 1202 4f3d c666 47bd
000000f0: be58 743d 865b 0d3e eef3 583d 4b3e ff3d
00000100: d68a a63d 7c14 843d ee15 33bd adeb ab3d
00000110: 3fb0 afbd d103 3dbb 3fc2 1f3e a31d b43d
00000120: 0918 ac3d 3df9 efbc 5158 75bd 19e9 e1bc
00000130: e65c 0b3e 6c52 7bbc 61b1 123c a941 edbb
00000140: 17c7 91bd e80a 4c3d b4ba ae3c 8136 a83d
00000150: 2bdb 393b 7591 b43d d105 ac3d 2cd7 973c
00000160: 2e43 b53d 10ac 553d 405a b63d 4cbe 683d
00000170: 967f d93c 59c0 dabd f4db 7a3b fb1f 493c
00000180: d829 013c b318 643b 504e 563b eaee 093e
00000190: e890 c83c 77cf 82bc 8d18 cdbb e5ab ec3b
000001a0: e8f5 01bc 5720 993d 0b03 a03d 8b24 163e
000001b0: cfe7 1a3d 06dd 953d 1723 4b3d 94de f2bd
000001c0: 2507 693d 5851 6bbd d3d3 06bd 978a 77bd
000001d0: 47cb f13d 9e15 ca3d 0e2d b73d c431 283e
000001e0: 4ed1 97bc d7a8 dbbb d19e 863d 8c54 87bd
000001f0: 6163 c93b ac9d 7fbd d5e0 663c d8de 65bd
00000200: 70df 6fbd cde7 b83d 636d c8bc c5e9 cdbc
00000210: bf21 0d3d a8db 4fbd f885 d7bc 4df8 2a3e
00000220: 3a1e 0fbd 60aa 98bd 1bf9 87bd 46d3 a0bc
00000230: 4bfd 67bd b3cc b3bd 2fb8 9f3d 027b a23b
00000240: 06ff 1bbd eb1e e2bd 9844 a5bc bf87 63bd
00000250: e39d 3cbd 0a70 19be cd68 4c3c 69af a4bd
00000260: 1d77 e4bd 2051 06be 848b 883d 4d97 92bd
00000270: d62a c8bd 471d d53d a249 bf3d d4c2 943d
00000280: fa6a 03be 3aeb d8bd 2ac4 58bc 9106 aa3d
00000290: fde6 ee3c 6dc6 fabd c394 33bb 2851 e9bd
000002a0: 93be 51bc 90b7 98bc f122 c53d 741f 443d
000002b0: 090d e4bc bc82 193d cc5e 98bc 15c7 bf3c
000002c0: 2ec5 5c3d 1511 fc3c 290c 17bc 1e7f f63d
000002d0: 1ddf acbb be1e 66bd 1f66 e73d a980 c13d
000002e0: f399 0d3e f906 393d 09c2 5fbd 0380 a23d
000002f0: e3b5 f33d 6407 ecbd 5748 e7bb 3010 cabd
00000300: 2d4b 0c3c 18e4 a43d f33f a7bc 2ddb 3abd
00000310: 671d 873d 78e6 b53a 7042 19be fc64 913d
00000320: 0ba7 1fbd 0ac9 4bbc c485 f2bc 24fe 983c
00000330: cdcb e3bd 00b5 5e3c 9302 edbc d2e1 d3bd
00000340: 1b00 a73c 0936 38bd a96a 8bbd a67d 7bbd
00000350: 573a b3bc a71b c6bc 8034 5a3c 5bc9 a33d
00000360: 1f5a 09be 418d b8bc ce64 92bb 9260 463c
00000370: f7ec c23d c9ef 01be 989e b8bc c9dc 633d
00000380: 94f9 bb3d 68cd d3bd 0067 49bd 0784 febd
00000390: c76e d9bd 50bc 923d 4a88 4bbc 64ad 3e3d
000003a0: bb36 acbd 913a 873d 53b2 90bd e5b9 423d
000003b0: 1a0f dabd 52aa 99bc 99a7 ecbd 1986 94bb
000003c0: 52b0 a13d a062 8d3d ba63 fdbd fd90 b03b
000003d0: bb1f 843c 0452 01be 7fa4 6b3d 662a eebb
000003e0: 716e ac3d 4ef8 d7bd ba04 f9bb 2a53 8c3c
000003f0: a824 b53d 0386 1cbb 497e febc 8a31 0a3e
-0.06891984 -0.035814047 -0.004993786 -0.07914783 0.13788515 -0.006271341 0.07125762 -0.13996623
0.07571374 -0.030076588 -0.1027721 0.013786152 0.019197691 0.11208836 -0.085583426 -0.049162403
0.03258751 0.010024678 0.052101485 0.0689352 -0.046358626 0.0764227 0.08904733 -0.028079906
0.098344915 0.05775081 0.1082176 -0.04170017 -0.053571228 0.0042404714 0.016370803 0.11345967
-0.07623595 0.08986851 -0.057591777 0.06725536 0.030006718 -0.11467107 -0.10676819 -0.08887891
0.10748524 -0.05258499 -0.04006901 0.01627396 -0.08303277 0.033144962 -0.10578819 -0.074343696
-0.11952034 -0.0021354947 -0.08767037 0.06082373 0.0048178723 0.05184161 0.099612236 0.03638117
-0.044885695 -0.12256536 0.050539084 -0.048681997 0.059654944 0.13804445 0.052967004 0.12463053
0.081319496 0.064492196 -0.043722086 0.08394561 -0.08578538 -0.0028841386 0.15601443 0.08794715
0.08403022 -0.02929365 -0.05989868 -0.02757697 0.13609657 -0.015339475 0.008953423 -0.0072404933
-0.071180515 0.04981509 0.021329261 0.08213521 0.0028359394 0.08816806 0.08399547 0.01853522
0.08850704 0.052166045 0.089039326 0.056822106 0.026550096 -0.10681219 0.0038278075 0.012275691
0.0078835115 0.003480476 0.0032700486 0.13470045 0.02448316 -0.015968068 -0.00625903 0.00722264
-0.007932164 0.074768715 0.078130804 0.14662378 0.037818726 0.073175475 0.04959401 -0.1185886
0.05689158 -0.057450622 -0.032916855 -0.060434904 0.1180635 0.098674044 0.089441404 0.16425234
-0.018532421 -0.006703477 0.065732606 -0.06607923 0.00614588 -0.062406227 0.01409169 -0.056120723
-0.058562696 0.090285875 -0.024466222 -0.025135884 0.03445601 -0.05074659 -0.026308998 0.16696282
-0.034940936 -0.074543715 -0.0663931 -0.019631993 -0.056638043 -0.08779278 0.07798802 0.0049585113
-0.038085006 -0.110410534 -0.02017431 -0.05554938 -0.04604901 -0.14984146 0.012476158 -0.08041269
-0.111555316 -0.13116884 0.066672355 -0.071577646 -0.09773795 0.10405975 0.09340216 0.07263723
-0.12833777 -0.10591741 -0.013230363 0.08302034 0.029162878 -0.12244878 -0.0027401901 -0.113924325
-0.012801784 -0.018642217 0.09625805 0.04788156 -0.027838247 0.037478194 -0.01859989 0.02341036
0.053898983 0.030769864 -0.009219208 0.120359644 -0.0052756206 -0.05618166 0.11298775 0.09448368
0.13828258 0.045172665 -0.054628406 0.079345725 0.118999265 -0.11524847 -0.007058184 -0.09866369
0.008562845 0.08051318 -0.020416236 -0.04561918 0.06597405 0.0013877889 -0.1496675 0.07099339
-0.038977664 -0.012438068 -0.0296048 0.018675871 -0.11122856 0.013592958 -0.028931892 -0.10345806
0.020385792 -0.044973407 -0.06807453 -0.061399125 -0.021878405 -0.024183108 0.013318181 0.0799739
-0.13413285 -0.022528293 -0.0044675833 0.012107985 0.09517854 -0.12689127 -0.02253656 0.05563048
0.091784626 -0.103419125 -0.049170494 -0.12427526 -0.10616832 0.07164824 -0.012422631 0.046552077
-0.084088765 0.066029675 -0.07065263 0.047540564 -0.10647412 -0.018757973 -0.11555404 -0.0045325872
0.078949586 0.06903577 -0.12372537 0.0053883777 0.016128412 -0.12628943 0.057529923 -0.007268238
0.084195025 -0.10545407 -0.0075994404 0.0171295 0.08844882 -0.0023883588 -0.031066077 0.1349546

stage1.1.bn2.weight f4 [64]
00000000: 1cb8 833f f494 823f 083b 843f 1a69 823f
00000010: 742d 813f 87eb 813f 2299 823f 4f5b 7c3f
00000020: 248d 7d3f dc6d 843f 9340 7a3f 1a97 783f
00000030: b30b 833f 237b 7d3f ab4e 843f 3ec3 7e3f
00000040: ffb6 813f f07c 7c3f e497 833f bff6 843f
00000050: 775f 863f a7f0 7e3f 55ac 853f c62f 843f
00000060: 5efb 803f fb7b 7e3f 51fd 7d3f 245f 7e3f
00000070: 7bb2 833f 7779 833f f5ca 843f 1302 803f
00000080: 1783 833f 6f88 803f 63eb 853f 9e11 833f
00000090: e958 813f fce2 823f 985d 7c3f 6330 7f3f
000000a0: 0c99 7d3f 7d0e 7c3f 49b3 863f aa4e 843f
000000b0: 94f2 793f 3732 7c3f c064 823f 804d 803f
000000c0: a073 7b3f a5eb 803f 45dc 7d3f 83d3 823f
000000d0: 4dfd 803f d152 793f e736 783f 9632 833f
000000e0: c24e 853f 29e5 833f 5515 813f c351 823f
000000f0: b695 813f 30b3 833f db02 843f d950 863f
1.0290561 1.0201707 1.0330515 1.0188324 1.0091996 1.0150002 1.0202982 0.98576826
0.9904349 1.0346026 0.9775478 0.9710556 1.0237945 0.99016017 1.0336508 0.99516666
1.0133971 0.9862814 1.0280728 1.0387801 1.0497884 0.99585956 1.0443217 1.0327079
1.0076711 0.9940793 0.99214655 0.99363923 1.0288843 1.0271443 1.0374438 1.0000633
1.027438 1.0041636 1.0462459 1.0239751 1.0105258 1.022552 0.9858031 0.9968321
0.99061656 0.9845961 1.0523463 1.0336506 0.9763577 0.9851412 1.0186996 1.0023651
0.98223305 1.0071913 0.9916423 1.0220798 1.0077301 0.9739199 0.96958774 1.0249813
1.041466 1.0304309 1.0084635 1.0181202 1.0123813 1.0289059 1.0313371 1.0493423

stage1.1.bn2.bias f4 [64]
00000000: 35fc d43b b5d7 34bb acf2 363b 37c9 263c
00000010: f6b8 af3c 220d 203c 5542 b1bb 8d35 32bd
00000020: 2d16 cdbc f16a 6338 316f f2bc be16 383d
00000030: 106f 813c 6ce3 263d 503b fabb f525 9f3c
00000040: a205 843c 41fb 27bd b203 d83b 20d0 053c
00000050: 919f 853c 4b29 cb3c 73cd 773c caee 523b
00000060: cff8 a93b dfd8 273d 08e3 f9bc 2435 0e3d
00000070: 92a0 70bc fce8 423b 924f 6cbb 851b 373c
00000080: 5d2a 6cbc b876 8d3c 3cb9 ff3b 4933 293c
00000090: 6759 a83c f37f 5b3c e129 ed3c 02ba fb3c
000000a0: 4fb3 23bd 63a0 253d 6b1b 6b39 75f9 7bbb
000000b0: c7c4 613d ecda 273d 9752 963c 4e59 e03c
000000c0: ce50 3ebd cf13 fdbc 95d6 df3c 0720 64bc
000000d0: 8f89 b53c df13 1e3d bbce 1f3d bbb7 a5ba
000000e0: f849 d2bb 8865 7b3b df04 eabc cd65 723c
000000f0: ca86 93bc 1585 9a3a 2dd2 fd3b 73a0 17bc
0.006499792 -0.0027594392 0.002791564 0.010179809 0.021450501 0.009768756 -0.0054095187 -0.0435081
-0.025034988 5.4220614e-05 -0.029594036 0.044943564 0.015800029 0.04074423 -0.007636465 0.019427279
0.016115967 -0.0410111 0.0065922374 0.008167297 0.016311439 0.024799963 0.0151246665 0.0032185786
0.005187131 0.04097831 -0.030503765 0.034718648 -0.01468672 0.002974092 -0.003605817 0.011175995
-0.014414397 0.017268524 0.007804064 0.010327169 0.020550443 0.013397205 0.028950633 0.030728344
-0.039965924 0.04043616 0.0002242156 -0.0038448249 0.055119302 0.040980265 0.018349929 0.027386334
-0.04646378 -0.030893235 0.027324 -0.013923652 0.02216032 0.03859317 0.039015513 -0.0012643257
-0.006417509 0.0038360078 -0.028566776 0.014794779 -0.018008608 0.0011788929 0.007746002 -0.009254563

stage1.1.bn2.running_mean f4 [64]
00000000: 9fb8 ab3c 4999 8c3e 3401 f4bd b557 31be
00000010: 530b 0d3d a3e0 0c3e 269b 963d c06e 1f3e
00000020: 6383 01bd adfa 67bd 89a2 dcbd 0847 813e
00000030: 81e0 6cbc 51d1 f7bd e95f 983e ae58 83be
00000040: 788b d53d 9e76 9fbd e441 2bbe 41e1 9fbd
00000050: 811a 803e 3790 d9bc 575a 45be 5bba 77be
00000060: fa24 9ebd 10f3 a53c 0326 92bd 0585 103e
00000070: 7769 3b3d 4110 4abe 3ebd 633e f394 89bd
00000080: 670d 56bd 721a 193e 6eca 52bd d6dd 4b3d
00000090: 7cc4 afbd bcc8 053e 30db 94bc 260b 5abe
000000a0: acf4 fbbc d25c f4ba 6bda dfbd 9711 fcbd
000000b0: 35ad 773d e999 8a3d fa52 0fbd 88c7 c63d
000000c0: 493e a5bd 998a 943e e662 1a3d f6d9 6c3d
000000d0: 3633 b1bd 643c babc 06a2 3abd bc93 37bd
000000e0: cb8c 59be 13e1 92be 39e6 6a3b cd86 0fbe
000000f0: 5997 2f3e f455 1b3d 25d7 ef3c deab 2e3e
0.020962058 0.27460697 -0.11914292 -0.17318614 0.034434628 0.13757567 0.07353811 0.15569592
-0.03161944 -0.056635547 -0.107731886 0.25249505 -0.014457823 -0.12100471 0.29760674 -0.25653595
0.10426992 -0.07786296 -0.16724354 -0.07806636 0.2502022 -0.026558025 -0.19272743 -0.24192183
-0.077218965 0.020257503 -0.071361564 0.14113243 0.045754876 -0.19732763 0.22240159 -0.06717863
-0.052258875 0.14951494 -0.051462583 0.049772106 -0.08582398 0.13064855 -0.018170923 -0.21293315
-0.030756317 -0.0018643385 -0.10930332 -0.123080425 0.060467917 0.06767637 -0.034991242 0.09706026
-0.080685206 0.29011992 0.037691973 0.05782505 -0.08652346 -0.022733875 -0.045564674 -0.044818625
-0.21245115 -0.28687343 0.003584279 -0.14016266 0.17147578 0.03792377 0.029277394 0.1705775

stage1.1.bn2.running_var f4 [64]
00000000: b65d fe3e db7f 003f 81fd 0a3f 67ba ed3e
00000010: 66c6 1a3f bbcf 073f 3e7b 033f 926f 0f3f
00000020: 5dd3 fd3e c7dc 0f3f 9e82 113f 4578 0d3f
00000030: 310f 013f c1a7 fe3e 7715 2c3f ba85 083f
00000040: 24ef f13e 1e32 083f 3586 f83e dbd5 0b3f
00000050: de04 083f 81d6 043f 1cf0 003f f45d ff3e
00000060: 18ad f43e a917 ff3e ad8b 013f aac1 f93e
00000070: 316b fe3e b074 083f de34 003f a451 063f
00000080: 3082 fa3e 27cc fa3e f39d 083f f542 003f
00000090: 47f0 003f 4746 fc3e 342f f33e 3128 fc3e
000000a0: 9e1c f63e 9c46 133f 237a 0c3f f58d 103f
000000b0: c7ec fd3e 3524 f93e ae53 083f 105f f73e
000000c0: c6ff 073f c607 fe3e f5d1 fc3e aae5 fc3e
000000d0: 4edc 093f e918 1c3f 85d0 fa3e 81c2 033f
000000e0: 7bb7 093f 5a1c 033f 8c04 043f a616 fd3e
000000f0: 8b3e fc3e 5406 223f 10e6 283f 57a6 fd3e
0.4968087 0.5019509 0.54293066 0.46431276 0.6045898 0.53051347 0.5135993 0.5602962
0.4957532 0.56196254 0.5683993 0.5526164 0.50413805 0.4973736 0.6722025 0.5332905
0.47252762 0.5320147 0.48539892 0.5462319 0.53132427 0.51889807 0.5036638 0.49876368
0.4778831 0.4982274 0.50603753 0.48780566 0.49691156 0.5330305 0.5008067 0.52468324
0.4892745 0.4898388 0.5336601 0.5010217 0.50366634 0.49272367 0.4749695 0.49249414
0.48068708 0.57529616 0.54873866 0.5646661 0.4959471 0.48660436 0.53252685 0.48314714
0.53124654 0.49615306 0.49378935 0.4939397 0.53851783 0.6097551 0.48987213 0.51468664
0.53795594 0.51215136 0.5156944 0.49431342 0.49266466 0.63290906 0.6597605 0.4954097

stage2.0.depthwise.weight f4 [64, 1, 3, 3]
00000000: 0576 f33d b2ff 9ebd 9ff6 313d 3da6 553e
00000010: f77c cebd 4f33 3e3e 07f1 853e 89f8 083e
00000020: 6d2f 3bbd ce07 57be 0e79 50be 9671 e3bd
00000030: d976 fd3d 4236 3e3e f2b3 62bb b470 893e
00000040: 41ce dcbd 55c5 c73d 68c5 1dbe 521f 0d3e
00000050: 955a a63e e35e 003e 6d38 8b3d 92dd eabd
00000060: ba24 91be 769f 47be 5d34 80be 70d2 7c3e
00000070: 841b 17be 8abd 84bd e3ff a9be d7f4 f7bd
00000080: 122e 8a3e 6f7c 853c 80e9 bfbd e8db 083e
00000090: acdf 773e e669 813e 6f3c 85be 19c1 7a3c
000000a0: 45db 91be 4c8b 7bbe 9734 753e 7f88 8fbe
000000b0: 0a9a 3bbe 550d 533e 1fc1 983e 3a67 b0be
000000c0: 1a43 42be 85da f5bd 176d 613e 0c18 813e
000000d0: c9e3 5a3e f6ac 543e cfd0 8fbd 1da8 623e
000000e0: 3810 1d3c d74b 503c 8dfe cabd 30e2 203e
000000f0: 1911 3c3e 8985 f6bc c927 943e 24af 3dbd
00000100: 1c0f 003e 3a91 8c3e 7f76 723e 0733 c5bd
00000110: d6b8 bfbd 56cd df3d 2ce7 543d be03 ad3d
00000120: 187c 773e 1f45 223e 424b 4cbe abd9 84be
00000130: 46d0 a53e 871f 76bd ddec 09be c5fb 86be
00000140: a1c0 893e d80e 413e 10e8 48be f5e5 8fbe
00000150: b7fd 953e 88eb 1d3e 9b59 47bd ff17 94be
00000160: a2e7 583e ebd2 7abe e5d9 ef3d 3cff b9be
00000170: a2d3 b3be a99b a4be 8877 913e 71f4 8d3e
00000180: d298 99be 50be 603e a384 71be 47af b0be
00000190: 77b3 023e caed 1b3e 63c3 133e 783f 893c
000001a0: 7feb 9b3e cbd9 aabe 618e e63d 3725 19be
000001b0: 6c19 863c ee77 7d3e c27a 6dbe 05d8 3a3e
000001c0: 41a6 80bd 9ed5 813e 0e1b af3c 6069 1d3e
000001d0: a8b8 8b3e f9eb fdbd 0178 a3be 01ee 9b3e
000001e0: 2569 62be 4411 5e3d 5f2b 833e bea1 d6bc
000001f0: f119 8e3e 627e 5b3e e434 b8bd e0af 703d
00000200: 4bed c9bb 7a28 a93e faa4 673e 9a44 84be
00000210: 7de9 393d 727a 323e d560 773e a8b5 d73d
00000220: 472c ec3d d8d5 77bd 6bea df3c 4b09 5ebe
00000230: 9472 973e b746 613e 0f23 46be 6a90 a5be
00000240: 5e8b 723e 1fb3 a5be 0056 623e eb71 99be
00000250: 6ea7 38be 6264 2abe 3bee a73e 4058 b43b
00000260: a6fa 8f3e 84d7 053e 2180 ab3e c9d0 543e
00000270: b0bb 953e 970b 973e b25b 03be 28ba eabd
00000280: 1f0e a43d b7e9 863e 3eeb 38be 2301 9abe
00000290: f3a7 8cbe d5bf e8bd 2144 933d 6ad0 1abd
000002a0: 4c56 96bd e462 e5bd a69a ad3d ab7a 83be
000002b0: fffc ab3e 2aaa 07bd a5d2 af3d c242 de3d
000002c0: d9a1 e5bd 3c28 9f3e 5d61 493b 3760 173d
000002d0: aca2 9fbe c635 2e3d a1a3 9a3d 406d a23d
000002e0: 2026 93bc ffa9 993e 316c 933e 0258 453e
000002f0: 1116 923a 0baf be3c ec7f 88be 01d7 87be
00000300: b45f cabd 9440 ca3c 4e9b 6dbe 3007 84be
00000310: c6d4 123e f535 ab3d 5b58 6fbe e195 343e
00000320: 6cf8 8bbe 82eb 6d3e 5863 0a3e 0e36 29be
00000330: f89f a33e f408 5ebe 68db 44be 1f0f 603e
00000340: 22fc cbbd 268d fabd f2eb 663c aa35 bbbd
00000350: cc3e 783e a629 8f3e 5182 413e 6733 003e
00000360: a8ae 6f3d 731d d83c c30c ae3d 1d98 12bc
00000370: afdb 3a3e a470 493e 73bc dabc 6804 273e
00000380: 6c34 6c3d 839a f53d 0b09 783e 3aed 83be
00000390: 3d53 383c fb10 cabd d3fd b7be ef84 b3be
000003a0: 53b2 5bbd ff34 593e 15e1 52be bdaf dd3d
000003b0: 57ab 493e dfe8 82be cf61 143e d55b 663d
000003c0: 7ead 9dbe 50ff 913b fb9f 9dbe 9abc 9b3e
000003d0: 7d78 603e e649 1b3e 370c 7a3e 7f25 4d3e
000003e0: 00a9 a23e a803 2e3e f33b 92be c1d0 8f3e
000003f0: f02c 483d ca45 06be a22a a9bd 904f 8b3e
0.11887745 -0.07763614 0.043448087 0.20864196 -0.10082429 0.1857426 0.26160452 0.13376059
-0.045699526 -0.20999071 -0.20358679 -0.11105649 0.12376184 0.18575385 -0.003459212 0.26843798
-0.10781527 0.09754435 -0.15407336 0.13781479 0.32490984 0.12536196 0.06797872 -0.114680424
-0.28348333 -0.19494423 -0.2503995 0.2468965 -0.1475659 -0.06481464 -0.3320304 -0.12107246
0.26988274 0.016294686 -0.093707085 0.13365138 0.24206418 0.25276107 -0.2602267 0.015304827
-0.28487602 -0.24564856 0.23945843 -0.28033826 -0.1832048 0.20610555 0.2983484 -0.34453756
-0.1897091 -0.1200457 0.2201427 0.2521366 0.21375956 0.20769104 -0.07022249 0.22134443
0.009586386 0.012713394 -0.09911833 0.15711284 0.18365897 -0.030092971 0.28936604 -0.046309605
0.12505764 0.2745455 0.23678015 -0.09628873 -0.093614265 0.109278366 0.051978275 0.084479794
0.24168432 0.1584668 -0.19950584 -0.25947317 0.32385463 -0.06008866 -0.13469262 -0.2636396
0.26904777 0.18853319 -0.19619775 -0.2810513 0.29295132 0.1542188 -0.04866944 -0.28924558
0.21182111 -0.24494521 0.11711482 -0.3632754 -0.351224 -0.3215001 0.28411508 0.27725556
-0.29999405 0.21947598 -0.23585753 -0.34508726 0.12763773 0.15227428 0.14430003 0.016753897
0.30453107 -0.33369288 0.11257625 -0.14955603 0.016369544 0.24752781 -0.2319136 0.18246467
-0.062817104 0.2535829 0.021375205 0.15372229 0.2728932 -0.12398524 -0.31927493 0.3045502
-0.22110422 0.054215685 0.25619027 -0.026200172 0.27754167 0.2143493 -0.08994463 0.058761477
-0.0061623207 0.33038694 0.22621527 -0.2583359 0.045388687 0.17429522 0.24158032 0.10532695
0.11531883 -0.06050667 0.027333459 -0.21683232 0.29579604 0.21999632 -0.19349311 -0.32336742
0.23685977 -0.3236322 0.22103119 -0.29969725 -0.1803262 -0.16639856 0.32798943 0.0055036843
0.28120917 0.13070494 0.33496192 0.2078277 0.29244757 0.2950103 -0.12827948 -0.11461288
0.08010506 0.26350185 -0.18058488 -0.30078992 -0.27471885 -0.11364714 0.07190729 -0.037796415
-0.073406786 -0.112005025 0.084767625 -0.25679526 0.33591458 -0.033121265 0.08585099 0.10852577
-0.112125106 0.31085384 0.00307282 0.036956992 -0.31178796 0.04253175 0.07550741 0.07930994
-0.017962515 0.3001251 0.2879348 0.19271854 0.0011145492 0.023276826 -0.26660097 -0.26531222
-0.09881535 0.024688996 -0.23203775 -0.25786734 0.14338979 0.08359901 -0.23373549 0.176353
-0.27337968 0.2323437 0.13514459 -0.16524526 0.31957984 -0.21683103 -0.19224322 0.21880768
-0.099602 -0.12233953 0.01409434 -0.09141095 0.24242705 0.27961463 0.18897368 0.12519608
0.058516175 0.02638123 0.08498528 -0.008947399 0.18247865 0.19671875 -0.026701188 0.16310275
0.05766718 0.119923614 0.242222 -0.25766927 0.011250314 -0.0986652 -0.3593584 -0.35062358
-0.05363686 0.21211623 -0.20593674 0.10824535 0.19694267 -0.25568292 0.14490436 0.05623992
-0.30796427 0.0044554844 -0.30786118 0.3041733 0.21920963 0.15164909 0.24418722 0.20033835
0.31769562 0.16993582 -0.28561363 0.28088954 0.04887098 -0.1311256 -0.08260085 0.2720914

stage2.0.bn1.weight f4 [64]
00000000: 96f3 7a3f b478 7e3f 8940 7b3f ebea 783f
00000010: 3f50 803f 6553 7c3f 225f 7a3f 9bb5 863f
00000020: 1583 753f a50b 823f d6af 7e3f afef 793f
00000030: c76c 813f f4bc 743f 0fea 833f 5f00 743f
00000040: ebf8 773f a88c 813f fdd2 7e3f 3530 833f
00000050: 3749 7d3f 2567 833f 19cb 7a3f d7d5 813f
00000060: b8ef 823f b306 823f 9f1c 763f 5bd3 7b3f
00000070: e7aa 863f 840c 7b3f b4f7 793f 97b2 7d3f
00000080: 7db9 833f e1b2 803f ca9b 873f aab0 813f
00000090: 2b91 823f 4c2f 813f c47d 793f 31f5 7c3f
000000a0: 4093 823f f056 863f f846 823f a271 853f
000000b0: c836 7c3f c267 7b3f e899 853f 261c 823f
000000c0: f7a6 833f 85ba 833f 2952 783f e126 7e3f
000000d0: afa8 803f c05d 733f 74f6 783f 4b5a 823f
000000e0: 9d7f 7c3f 064c 763f 5675 7a3f 62b5 7b3f
000000f0: 737c 823f 729d 803f 5712 7c3f 6619 803f
0.9802793 0.9940293 0.9814535 0.97233456 1.0024489 0.9856475 0.9780141 1.0524172
0.9590314 1.0159804 0.99487054 0.97631353 1.0111321 0.9560082 1.0305804 0.95313066
0.96864194 1.012105 0.9954069 1.0249087 0.9893984 1.0265852 0.9796615 1.0143384
1.0229406 1.0158294 0.9613742 0.9836938 1.0520905 0.9806597 0.9764359 0.9910063
1.0290982 1.005459 1.0594418 1.0132039 1.0200552 1.0092559 0.9745753 0.9881163
1.0201187 1.0495281 1.0177908 1.0425303 0.9852109 0.98205197 1.0437593 1.016484
1.0285329 1.0291296 0.97000366 0.99278075 1.0051478 0.95064926 0.9725106 1.0183805
0.9863222 0.9620975 0.9783529 0.98323643 1.0194229 1.0048048 0.98465484 1.0007751

stage2.0.bn1.bias f4 [64]
00000000: 069e c33c 4884 42bd f719 98bb efca 67bd
00000010: ec07 193d 7899 e1bc 8838 70bc 2090 083d
00000020: 1279 6ebb d018 903c 774a 833b decf 1e3c
00000030: 6d9b 213d f2d6 0f3d 546d 993c c1a1 d33c
00000040: f84c 6cbd af0a bdb9 5266 86b9 6544 f53c
00000050: e842 fe3c bb0d f83c 2ca9 bf3b a08c 0a3d
00000060: c9af 1f3d 89a0 ee3c 59ea bbbc 86af 4b3c
00000070: 6ae4 a4bc 5dbf 803c d7a9 c9bc 009c 5abc
00000080: 97b7 ce3c 4b4b 193c edd5 813d c52b d23c
00000090: 34bf 2c3d 51c5 403b f9e6 1ebd 6a6c 1ebc
000000a0: 2e66 963b b1c8 3a3d 919f 093d 719f d33c
000000b0: d08c 883c 806b 90b8 c9e4 163d 3011 843c
000000c0: 296c 063d a1e7 083c 53a6 3e3c 5421 23bd
000000d0: e97f 763c 980f 96bc 3046 90bc 6daf 573d
000000e0: 275e 46bd 14e0 34bd 61d1 92bc af77 6cbc
000000f0: e9d4 1d3d 0511 60ba 3cec 213d c6c3 903b
0.023879062 -0.047489434 -0.004641767 -0.056590017 0.03736107 -0.027539 -0.014661916 0.033340573
-0.0036388081 0.017589957 0.0040066796 0.009693114 0.039454866 0.035117097 0.01872889 0.025833966
-0.05769059 -0.0003605685 -0.00025634706 0.02993984 0.031037763 0.030279985 0.0058490243 0.033825517
0.038986 0.029129284 -0.022938894 0.012431985 -0.020128448 0.01571625 -0.024617119 -0.013342857
0.025234027 0.00935633 0.06339631 0.025655637 0.042174533 0.0029414485 -0.03879449 -0.009669403
0.0045898175 0.04560155 0.03359944 0.025832864 0.016668707 -6.8864785e-05 0.03683928 0.016121477
0.032817993 0.008356006 0.0116363345 -0.039826706 0.015045145 -0.018317983 -0.017611593 0.052657533
-0.048429634 -0.04415901 -0.017922105 -0.014432832 0.038533125 -0.0008547458 0.03953193 0.0044178693

stage2.0.bn1.running_mean f4 [64]
00000000: eb63 6a3e 1c84 833c b217 0ebe 7519 29bb
00000010: 000b e7bd cb22 673e 7c94 583e 0fd2 0f3e
00000020: 0587 1d3d 9dc4 5dbd ac59 2dbe 1919 883d
00000030: 49d9 8d3e 9d99 0c3e 1102 663e c699 03bb
00000040: cf3e b3bb 3d41 d03e a5d0 99be 9911 213e
00000050: 3427 423e 3df0 7ebe a479 69bc 2a03 7a3e
00000060: e7bd 6e3e 51d5 17be 3e08 16be 9684 133f
00000070: a48d 4f3e 3af1 613e bb32 97bd 49d5 bb3e
00000080: 9c7c 3cbe d183 cd3d d509 de3d 1e4e 0cbe
00000090: 5f1d 083e ff11 ebbd e9da 8bbc 98c6 d0ba
000000a0: b874 5f3e 6053 90be ebdd 43be 05ca 933e
000000b0: 55d2 b93d e2c5 f0bc bf54 fa3d 74df a1be
000000c0: f7ac 41be 03f6 b93c 7dc4 813e e1c8 1abe
000000d0: f9a9 34bd 0ccc 5b3e d44b 203e 3753 873e
000000e0: 54bb 0a3c f06b 07be 88d9 1dbd 8372 afbe
000000f0: 9338 19be c42d 6cbe 527b 5d3e bcc5 03be
0.22889678 0.016054206 -0.13876227 -0.0025802527 -0.11281395 0.22571866 0.21150392 0.14044975
0.038458843 -0.054142583 -0.16928738 0.06645412 0.27704838 0.13730474 0.22461726 -0.002008067
-0.005470134 0.40674773 -0.30041996 0.15729369 0.18960267 -0.24896331 -0.014250193 0.2441527
0.2331463 -0.14827468 -0.14651582 0.57624185 0.20268875 0.22064677 -0.07382723 0.3668616
-0.1840691 0.100349076 0.10841719 -0.13701674 0.13292454 -0.11478042 -0.017072158 -0.0015928326
0.21821868 -0.2818861 -0.19127624 0.28865066 0.09073321 -0.029391233 0.12223195 -0.31615794
-0.18913637 0.022700315 0.2534522 -0.15115692 -0.04410741 0.21464556 0.15653926 0.26430675
0.008467514 -0.13224769 -0.038537532 -0.34267053 -0.14962988 -0.23064333 0.21629074 -0.12868398

stage2.0.bn1.running_var f4 [64]
00000000: a460 003f 36dc f63e 0167 fb3e 7c29 f03e
00000010: 821e 123f c8f9 073f 06be 013f 299f fc3e
00000020: 52db fd3e a8c8 f83e 6c10 053f 466c f43e
00000030: 9db0 0d3f 4eb3 093f 8d64 223f e35c ed3e
00000040: 7139 153f 6eb3 623f 3171 1e3f 5d61 003f
00000050: c20c 133f 599b 163f 5d4d 043f 220d 173f
00000060: c376 023f 3133 073f 3d22 0d3f c236 833f
00000070: 1ce2 0d3f 62bc 0d3f 710e 113f da7a 5a3f
00000080: a30d 083f 56c6 f03e 157a f23e 0ca4 fc3e
00000090: f79d 023f 53ee 063f 7167 fe3e ffb2 f73e
000000a0: fda9 163f 8a60 123f 1525 013f 2c1f 173f
000000b0: 8e85 fa3e bd7f e83e 739c f23e 8621 2a3f
000000c0: 1751 023f a14a 023f 2242 293f 8c6f 053f
000000d0: 1e2f e83e db9f 043f f291 f83e 6e7e 223f
000000e0: 3db8 ed3e ee28 fd3e 9c03 f23e 5af3 143f
000000f0: 8157 0e3f c9fc 183f ca92 143f 59d8 fc3e
0.5014746 0.48214883 0.49102023 0.4690665 0.570778 0.5311551 0.5068058 0.4934018
0.4958139 0.4859059 0.5197818 0.47738856 0.55347615 0.5378922 0.6343468 0.4635993
0.58290774 0.8855504 0.61891466 0.50148565 0.5744134 0.5883079 0.51680547 0.59004414
0.50962466 0.52812487 0.5513037 1.0251086 0.5542314 0.55365574 0.5666266 0.85343707
0.5314581 0.47026318 0.47358766 0.49343908 0.51022285 0.52707404 0.49688295 0.4837875
0.5885313 0.57178557 0.5044721 0.5903194 0.4893002 0.45409957 0.47384986 0.664574
0.50904983 0.50895125 0.66116536 0.5212333 0.45348448 0.5180642 0.48548847 0.63474166
0.46429625 0.4944529 0.4726838 0.58183825 0.5560227 0.5976072 0.5803648 0.4938381
