artifacts/best.ckpt (torch, 500181 bytes, 62 tensors)

stage1.0.depthwise.weight f4 [3, 1, 3, 3]
00000000: a535 8cbe 69d0 7c3e 83d0 2fbe 23c0 bc3f
00000010: c4a7 9d3e ef9c 56be 4c5e 82be e170 783e
00000020: 699a 32bd f516 80be dbb9 e0bc 5d7b f3bd
00000030: b0c0 0f3f 38dd 563f ba08 bcbd 3b66 5abe
00000040: a14b 0b3f d5dd acbe 2cc7 403e d78e ca3d
00000050: 6215 8bbd 77a0 e6be 984f dbbe 62dc 8a3e
00000060: 3588 73bf 171d 12bf 27c8 8f3e
-0.27384678 0.24688877 -0.17169385 1.4746135 0.30792058 -0.20958303 -0.25462568 0.2426181
-0.04360429 -0.25017515 -0.027432373 -0.11888764 0.5615339 0.83931303 -0.09181352 -0.2132806
0.54412276 -0.33762994 0.18825978 0.09890526 -0.06791188 -0.450443 -0.42834163 0.27121264
-0.9512971 -0.5707564 0.28082392

stage1.0.bn1.weight f4 [3]
00000000: 0091 083f a1a8 263f 4a0e 003f
0.5334625 0.6510106 0.50021803

stage1.0.bn1.bias f4 [3]
00000000: 9cb6 943f 7634 c23f 2178 c33f
1.1618228 1.517226 1.5271035

stage1.0.bn1.running_mean f4 [3]
00000000: 5354 2a3d 0490 c33c 3dde 15bd
0.041584324 0.023872383 -0.036588896

stage1.0.bn1.running_var f4 [3]
00000000: 7e29 d73f 81aa 6d3f 8d4e 1e40
1.6809537 0.92838293 2.4735444

stage1.0.pointwise.weight f4 [48, 3, 1, 1]
00000000: afad 09bf 17d8 013d 4b75 2ebf ddd6 143f
00000010: 891b 3abe 0868 643f 8f56 c23d ac08 6fbe
00000020: d7cf 903f 1def 9c3e fb67 093f 1c14 8fbe
00000030: e630 19bf 220d 413d 00d4 8bbe 6bea a33e
00000040: cb97 993e cb02 333f 6454 a6be ab62 0a3f
00000050: 581d 883e 3918 aa3e d2dd f8be 4ac0 3bbf
00000060: a410 bbbe 780b 1cbf 946a e53e ac9b c93e
00000070: 8fb8 e13e 0d84 843e a469 be3e e9ce ed3e
00000080: 3c52 a1be 26b2 3bbc ccb5 9bbe 19ba 2e3f
00000090: 45c5 e7be acae c33e ca78 02bc aa5a d13e
000000a0: 1cfb 29bf 6c3d b8be 0b10 29bf 71de 0b3f
000000b0: 0283 1b3d e635 2e3f 6a54 33bf 2fa6 9cbe
000000c0: 2951 43bf ba8a aebd 29e3 a73e 41b2 e23c
000000d0: debc c53e ccb9 fabe 3f43 c7be 05b3 193f
000000e0: 6365 643e 5579 213f f60c 6fbe fc1b a13e
000000f0: fb7f b7be 738e 10bf 01ef 8b3e 5455 a53e
00000100: 784d 223d d78e 273f f54f 4c3e 5f99 3dbf
00000110: d9d2 ccbe 3486 683f 51ca 8fbe 5502 cb3d
00000120: 0f6c 4fbf 8ab8 e0be 57dc cebd e019 8b3e
00000130: 57e6 6cbf a244 a9bd 8c2e 45bf e2af c2bd
00000140: d521 02bf 3075 37bf 2437 e3be 8c89 ca3e
00000150: c64a 2f3d 7328 553d 58bf 8ebf 3992 8b3d
00000160: e623 4cbf 3ed9 11be 6d1c edbe 2928 b9be
00000170: 2c2c 07bf f234 b4be d5b1 8cbe 9653 993e
00000180: dd96 c8be 060a 7abe 0a1b 22bf fd37 bebe
00000190: 8f72 57bf 2783 523e 2ddd f1bd 53ec 213f
000001a0: 2421 ce3e 9bb4 18bf bdbf d53e ee78 f1be
000001b0: 6809 cebb dba1 1dbf 17ea 39bf deb9 dc3e
000001c0: 5b4c a5be d933 603e af70 153e 27ab 803f
000001d0: 8228 1a3e 3ade 8a3d 700d bd3e 4294 003f
000001e0: 4e10 093f 2e14 093f 8b58 ccbe 4747 493e
000001f0: 6bca 05bf 0fe1 a3be 0221 85bd bfd2 693f
00000200: 3a2e d6be 9a9c 7d3f 88ad c03d ec9a 883e
00000210: 7b60 eebe 1506 233f 9f34 8d3e 1045 4f3e
00000220: 0bc7 3cbf 79d0 6b3e b4a2 8fbe 3c7a 22bf
00000230: 1588 ae3e ed7e 983e 9977 08bf 9a75 a9be
-0.53780645 0.03170022 -0.68147725 0.58140355 -0.18174566 0.8922124 0.09489166 -0.23343152
1.1313428 0.3065118 0.53674287 -0.2794503 -0.5984024 0.047131665 -0.2731018 0.32014784
0.2999862 0.69926137 -0.3248626 0.54056805 0.26584888 0.33221605 -0.48606735 -0.73340285
-0.36536133 -0.60955 0.44807875 0.3937658 0.4408612 0.25881997 0.37189972 0.46446922
-0.31508052 -0.011456048 -0.30412138 0.6825271 -0.45267692 0.38219202 -0.007963369 0.40889484
-0.6639879 -0.3598436 -0.66040105 0.54636294 0.037966736 0.6805099 -0.7005068 -0.30595538
-0.76295716 -0.08522554 0.32790497 0.027672889 0.38620657 -0.48969877 -0.38918492 0.6003879
0.22304301 0.63075763 -0.23344788 0.31466663 -0.3583983 -0.5646736 0.27330783 0.32291663
0.03962466 0.6545233 0.19952376 -0.7406215 -0.40004614 0.9082978 -0.28084043 0.09912554
-0.8102426 -0.43890792 -0.1010062 0.2716818 -0.9253897 -0.08265044 -0.7702415 -0.09506203
-0.50832874 -0.7166319 -0.44378006 0.39558065 0.04279592 0.05204053 -1.1152143 0.06814999
-0.79742277 -0.14243028 -0.4631075 -0.36163452 -0.52801776 -0.35196644 -0.27479425 0.29946584
-0.391776 -0.24417886 -0.6332251 -0.3715209 -0.8415918 0.20557843 -0.11809764 0.6325123
0.4025966 -0.5965058 0.41747847 -0.47162575 -0.0062877424 -0.61575097 -0.7262282 0.43110555
-0.32284817 0.21894778 0.14593767 1.0052232 0.15054515 0.067806676 0.36924314 0.50226223
0.53540504 0.53546417 -0.39911303 0.19656096 -0.5226199 -0.32007644 -0.06500436 0.913372
-0.41832143 0.9906708 0.094080985 0.26680696 -0.46557984 0.63681155 0.2757921 0.20241189
-0.73741215 0.23028745 -0.2805382 -0.63467765 0.34088197 0.29784337 -0.5330749 -0.33097535

stage1.0.bn2.weight f4 [48]
00000000: f009 723f a87c 803f 4ae0 0c3f a4cf a53e
00000010: 143b d33e dc3c 003f 59e9 0b3f 131a 1c3f
00000020: 90e7 263f 7f5b 803e c63d 333f 36a3 d93e
00000030: a456 cd3e c798 bb3e e768 863f c6cc ff3e
00000040: da15 113f 333d 223f 88cc b33e 02b9 0a3f
00000050: 5b1f 683f f7c5 723f 3ab8 bf3e 4f28 c23e
00000060: b37d f53e 0fda b93e 221d b33e 5cd8 8c3e
00000070: 5943 f83e 538d 553f 52d3 bd3e 2788 353f
00000080: 0eee ac3e 89e9 3e3f a258 4f3f de79 2a3f
00000090: 2774 093f d413 ca3e d7e9 c23e 5148 113f
000000a0: fdfc 1b3f 27a6 4d3f 7a4d 3d3f 9749 193f
000000b0: 75a1 163f a897 bb3e 77a3 303f 9288 d63e
0.94546413 1.0038042 0.5502974 0.3238498 0.4125601 0.50092864 0.54652935 0.60977286
0.65197086 0.25069806 0.70016134 0.42507333 0.40105164 0.36639997 1.0500764 0.49960917
0.5667397 0.6337463 0.35116982 0.5418855 0.90672845 0.9483332 0.3744524 0.37921378
0.47947463 0.36299178 0.34983164 0.2750882 0.48488882 0.8341877 0.37075287 0.70910877
0.3377537 0.74575096 0.8099462 0.66592205 0.5369286 0.39468253 0.3806903 0.5675097
0.60932904 0.80331653 0.73946345 0.59877914 0.58840114 0.36639142 0.6899943 0.4190107

stage1.0.bn2.bias f4 [48]
00000000: 7303 063e ff48 1b3e 4efb ddbe 3a70 243f
00000010: 2b11 0c3f 1c99 c93e bc37 bd3e 792e ca3e
00000020: bbd1 af3e b841 273f ae30 6f3e 0cb2 e83e
00000030: 6c28 133f 0eea 133f b494 983d 9972 e23e
00000040: 1acf b4be 297e 7abe 9aa0 f73e f1dd ca3e
00000050: 4d5a ffbd 2734 5c3b 26ec 2d3f 07e8 063f
00000060: 13ba 00bf ad35 253f c67e 263f b9cf 323f
00000070: 25b4 ddbe 6f44 bdbd 1d79 143f 990e 643e
00000080: 25e8 0c3f 02cb 83be e79e 44be faef 9d3e
00000090: f609 f93e 3ea0 0e3f 280b 183f 576a a23e
000000a0: ef5d 923e 96c9 653e 0ef7 9dbe 179c acbe
000000b0: 8681 c33e 94dc 123f 463d 8bbe d60a 0a3f
0.13087253 0.15164565 -0.43355793 0.64233744 0.54713696 0.39374626 0.36956584 0.3948858
0.343397 0.65334654 0.23358414 0.4544834 0.57483554 0.57779014 0.07450238 0.44228056
-0.35314256 -0.24462189 0.48364717 0.39622453 -0.124683954 0.003360042 0.6793846 0.52697796
-0.50283927 0.6453503 0.6503719 0.6984821 -0.43301502 -0.09241568 0.57997304 0.22271194
0.55041724 -0.2574082 -0.19201241 0.3084715 0.48640412 0.5571326 0.59392023 0.31721756
0.2858729 0.2244018 -0.3085255 -0.33712837 0.38184756 0.57367826 -0.27195185 0.53922784

stage1.0.bn2.running_mean f4 [48]
00000000: bec8 cebf bca7 e13f 19fd bd3f 9251 3d3f
00000010: 3d8f 84bf 5404 f23f f503 5a3f 7829 bcbf
00000020: c395 2abf 24e3 c23f d690 263f bf0f 103f
00000030: d44b 293d 0208 8abf 49cf fa3d 1289 3cbf
00000040: d16b 02bf 90e4 09be ec4b 4d3f 4a13 5b3f
00000050: 4d60 5cbf 38a9 b83f a48e c0bf dcf3 473f
00000060: 11aa e1bf 5dbd 9cbf ae54 e8bf c9a8 66bf
00000070: 79f1 c7bf 8816 adbf 3323 f2bf 736f bbbe
00000080: 4e8c e5bf a8dd b1bf e6f4 b63f 28f4 46bf
00000090: 9c29 03c0 cbd7 b03e 7744 f63f 175f b43f
000000a0: 2c5f 573f 582b 86bf 9812 2b3f 44a8 da3f
000000b0: e998 563f 06ab 09bf add9 42bf 2494 77bf
-1.6155012 1.7629313 1.4842864 0.7395259 -1.0356213 1.8907571 0.8516229 -1.4700155
-0.6663477 1.5225568 0.6506475 0.56274027 0.04133208 -1.0783694 0.12246568 -0.7364665
-0.50945765 -0.13466096 0.8019397 0.8557631 -0.86084443 1.4426641 -1.504353 0.78106475
-1.7630025 -1.2245289 -1.8150842 -0.90101296 -1.5620567 -1.3522501 -1.8916992 -0.36608467
-1.7933443 -1.3895769 1.4293487 -0.777163 -2.0494146 0.34539637 1.9239644 1.4091519
0.84129596 -1.0481977 0.66825247 1.70826 0.8382707 -0.53776586 -0.76113397 -0.9671042

stage1.0.bn2.running_var f4 [48]
00000000: b38a 7d3d f8f7 0d3e 4a0a e13e fe71 c33e
00000010: 39aa 423d 0e8e 3a3d c729 a33c ea95 863d
00000020: 5997 173f 2000 133e 2195 c33e aa7b 8d3e
00000030: 1069 8b3c 592e e83c 5b6e 073d 40d1 1d3d
00000040: 117d b03e 6aa2 743e f1d2 e13c 4669 1b3d
00000050: 4188 dd3e 4f30 483d fd7c 813d 67a6 ca3d
00000060: 85f1 da3e 6c69 4e3e d90a d73d 615b 293f
00000070: 3b21 bb3e 9dfc 3c3e ddc9 ae3d 34b2 6e3e
00000080: ff47 3e3d f195 293f 9fbf 353d 7dcb ae3d
00000090: 3b75 3b3d 82f9 f53c cf9f df3e ec5b b53c
000000a0: e7de 1c3f f795 b73c 3be3 0f3f 25ba 7a3e
000000b0: 9c9e d83c 1c68 743e b216 f83e 7abd 943c
0.061899852 0.13864124 0.43953162 0.38172907 0.04752562 0.04554563 0.019917382 0.065715626
0.59215313 0.14355516 0.38199714 0.2763341 0.017017871 0.028342413 0.033064228 0.038529634
0.34470418 0.23890081 0.027566405 0.037942193 0.43268016 0.048874196 0.06322668 0.0989502
0.4276239 0.20157403 0.10500116 0.6615506 0.3654879 0.1845574 0.08534596 0.23310167
0.04645538 0.6624442 0.044372197 0.08534906 0.045766097 0.030026201 0.43676612 0.022138558
0.6127762 0.022410376 0.562061 0.24485071 0.026442818 0.2386784 0.48454815 0.018156756

stage1.1.depthwise.weight f4 [48, 1, 3, 3]
00000000: f02c 143f c6dd 83be 019b cfbe 6881 513e
00000010: 5285 06bf dcb5 20bf 3282 e4bb c1de 603e
00000020: d241 41be ac2d d3be 1d9a af3e 321b 553d
00000030: 8404 27be 25ea 543f 7894 0c3f 464f e63b
00000040: ea26 39be fd7a 603b a406 133d 344a 623e
00000050: 59d5 9cbd 409c 1c3f c1b1 3b3f af3e b0bc
00000060: da6c de3c cbe4 e13d 7c82 e13e 28aa 973e
00000070: 33ba b53e 694f 2ebf 9959 7c3e abed 1b3f
00000080: 084a 60be 1da8 d2bc 4092 94be f99f 80be
00000090: 5d86 8dbe 1ab7 0a3e 2108 833d 4da6 8b3e
000000a0: ce7f c93e 75bc 39bf 52b0 94be e3f0 7ebe
000000b0: a1d3 263f 0412 8dbd fb6a ba3d a317 043f
000000c0: 02df 9abe 80e6 0ebf 102a e03e 536d 87be
000000d0: 4b53 f1be 7698 27be 9b05 bb3e 6f3b 183f
000000e0: 83f6 8dbc dc5b 14bd d979 d9be ab85 fbbe
000000f0: b696 703e f356 d03e 6431 003f 54ce 5c3e
00000100: 27d9 ed3c 01b2 04bf e570 89be 1ee5 01bf
00000110: a26a 5ebf fd30 123d 6219 733e 4f12 b63e
00000120: 0c67 cb3d 590c 0dbf 71b9 72bf fdef f73d
00000130: ebfc 2fbd f83f f6be 9365 bc3e 6c27 2a3e
00000140: e093 2dbd a907 a13e 7105 e9be a3dc 92bc
00000150: 6397 e9be 36fd ac3e d229 1ebf 5809 7c3d
00000160: f249 573e 1006 103f 3b9b ebbe 8003 0f3f
00000170: 4b3b 8dbe 4f3d 00be 23c1 323f 5208 393c
00000180: 8b8c a5be 23ec d73d 6d84 8ebe e84b bfbd
00000190: 91fc 53bf ad16 083f 071c ab3e 91e0 d13e
000001a0: d7c9 f8bd 98ef b63d 3035 ca3d 3843 23be
000001b0: daea 8abf 35c2 1dbe 13dd 333d 9124 aebd
000001c0: a458 8d3d 7563 6e3e 4b85 cfbe ff16 e3be
000001d0: 98d1 aebd 7a49 d63e 2183 bbbd 43a2 cd3e
000001e0: 2ca3 893e 1862 4bbf 72b8 a8be 6b65 ae3e
000001f0: 5c20 debe 5f0e aebb b8a2 ec3d 11ed 3f3e
00000200: 94d5 503d 797c 87be ebc9 fabe ed05 dbbe
00000210: 45ff dcbe b322 34bf cf97 5fbe c6e5 94be
00000220: 477c 56bd da2d 17be 3fbf f83c 27b3 203f
00000230: 2016 123f 6c6a 0fbf 5196 223d 1f71 d73e
00000240: 82f9 90be 2129 a13e 2c6a a43d 7209 19bf
00000250: 62b5 b53e 61f9 863e 678d 73be ae0c 083f
00000260: 1bc6 8f3e f1e9 f93d 1bee 95be 3b9a 27be
00000270: 7d85 103e ea4f a4be 7513 12bf 7d72 103f
00000280: 82c6 bd3e 349d edbe 6122 48be 9ee2 183f
00000290: 3f76 8dbe f2fb 933e 8e2c cb3e ba0c 12bf
000002a0: 1ddc 493e dc83 91be 3b74 9dbd 7926 1d3e
000002b0: 54b7 c3be c803 0c3d d8f0 a6be a32d 0ebf
000002c0: 4c23 1ebf 801c a7be a5c9 9dbe eb53 bebc
000002d0: 4502 fe3d 17e9 ca3e 97d6 4abe c8a0 05bf
000002e0: f572 8e3e 89b2 0e3f 9a37 0abf 81b6 82be
000002f0: a7d7 c13e 41c8 fd3e 5744 d8be 6b85 33be
00000300: 575d a73e 10f0 4d3e 8ef1 2bbf b53e 953e
00000310: 1357 703d 88ba d7be 5b54 c53d f4a2 183f
00000320: 8ede 9f3e 808e dcbe d6bd dcbe f00e 02bf
00000330: 1500 b4bd f775 af3e d62e 703c d151 d13d
00000340: e38f e8be 58b8 0abe ebd2 e1be 9816 8f3e
00000350: eda2 883f 9f3d 13be 02ae bf3e b2af ea3d
00000360: 3f6b 913d 3868 3c3e 1cf1 61be 78fb f2bc
00000370: dcfe a53e eca3 8a3e 485c fe3e e18b 243f
00000380: 189c dc3e 0679 0bbf a42c 983e 7d1d 903e
00000390: 060e febe 622b 203e ec53 fa3e 6043 443e
000003a0: 2379 383d 0c06 c7be 1ccf 17be f01a 95be
000003b0: 285d f9be 3439 64be 764d 7a3e c67f 753e
000003c0: bc9b 90be 3808 5d3f 95bd 8c3e c2fb cb3e
000003d0: 089c 323e a6f6 e63e 6fd1 a73e e962 47be
000003e0: 99a7 d1be f84f 5a3e 057a afbe de09 30bf
000003f0: 7ece 283e 53e3 973f 3d44 893e 960a e8bd
0.5788107 -0.25755137 -0.40547946 0.20459521 -0.5254718 -0.62777495 -0.0069735283 0.21959974
-0.18872765 -0.41245782 0.34297267 0.05202789 -0.16310316 0.83169776 0.54914045 0.007028493
-0.18081251 0.0034252994 0.035895005 0.22098619 -0.0765788 0.6117592 0.73318106 -0.021514265
0.027151514 0.11029967 0.44044864 0.29622006 0.3549362 -0.6808992 0.24643554 0.6090953
-0.2190324 -0.025714928 -0.2901783 -0.2512205 -0.27641574 0.1354641 0.06398035 0.27275315
0.3935532 -0.7255319 -0.29040772 -0.24896578 0.6516667 -0.06888202 0.09102436 0.51598567
-0.30248266 -0.55820465 0.4378209 -0.26450595 -0.4713386 -0.16366753 0.36527714 0.5946569
-0.01732946 -0.036220416 -0.42475775 -0.49125418 0.23494992 0.40691337 0.50075364 0.21563083
0.02903421 -0.5183411 -0.26843944 -0.5074023 -0.8688146 0.03569125 0.23740152 0.35560843
0.09931764 -0.55096966 -0.9481421 0.12106321 -0.04296581 -0.4809568 0.36796245 0.16616601
-0.042377353 0.31451157 -0.45511964 -0.017927473 -0.4562331 0.33786935 -0.6178256 0.06153235
0.21024302 0.5625925 -0.4601687 0.55864716 -0.275843 -0.12523387 0.69825953 0.011293488
-0.32333788 0.105430864 -0.27835408 -0.0934065 -0.8280726 0.531596 0.3341982 0.40991643
-0.12147873 0.08932418 0.09873426 -0.1594361 -1.0852921 -0.15406115 0.043912005 -0.08503068
0.069016725 0.23280127 -0.40531382 -0.44353482 -0.085360706 0.41852933 -0.0915587 0.40162858
0.26882303 -0.79446554 -0.3295322 0.3406175 -0.43384063 -0.0053117718 0.11554474 0.18742777
0.050984934 -0.26462153 -0.48982176 -0.4277796 -0.43163505 -0.70365447 -0.21835254 -0.29081553
-0.052364614 -0.14763585 0.03036463 0.62773365 0.5706501 -0.5602176 0.039694134 0.42078492
-0.2831536 0.3147669 0.08028063 -0.5978004 0.35489947 0.26362136 -0.2378441 0.5314435
0.2808083 0.12202824 -0.29283223 -0.16367428 0.14113422 -0.3209222 -0.5706094 0.56424695
0.37065512 -0.46409 -0.19544365 0.5972079 -0.27629277 0.28903157 0.3968243 -0.5705067
0.19712873 -0.28420913 -0.07688185 0.15346707 -0.38225806 0.034183294 -0.32605624 -0.55538386
-0.6177261 -0.3263893 -0.30817905 -0.023233375 0.12402777 0.39630958 -0.19808422 -0.5219846
0.2782208 0.55741173 -0.5399109 -0.25529864 0.37859842 0.49566844 -0.4223964 -0.17531364
0.326884 0.20111108 -0.6716546 0.29149404 0.05867679 -0.421345 0.0963523 0.59623647
0.31224483 -0.4307747 -0.43113583 -0.5080404 -0.08789078 0.34269688 0.014659604 0.10220683
-0.45422277 -0.13546884 -0.4410623 0.27946925 1.0674721 -0.14378975 0.37437445 0.114592925
0.07100534 0.18399131 -0.22064632 -0.029660925 0.32421005 0.27078187 0.4967978 0.6427594
0.4308784 -0.5448154 0.29721558 0.28147498 -0.49620074 0.15641549 0.48892152 0.19166327
0.0450374 -0.388718 -0.148251 -0.29122114 -0.48703885 -0.22287446 0.24443612 0.23974523
-0.28243816 0.86340666 0.2748839 0.39840513 0.17442334 0.45110053 0.32776973 -0.19471325
-0.4094818 0.21319568 -0.3427278 -0.68765056 0.1648502 1.1866249 0.26809874 -0.11330144

stage1.1.bn1.weight f4 [48]
00000000: 8feb 1c3f ecba 773f 1c8f 443f 0ae8 c83f
00000010: 7a03 6b3f 9504 e23e 31ef 2b3f 09fd 173f
00000020: 044d 6a3f 3d25 953f c1d9 323f c2e3 2a3f
00000030: 035d f53e dc9b 8b3f 009d 1b3f 81d4 3e3f
00000040: 8b20 4f3f 33d4 423f 008c 873f e1f7 0f3f
00000050: 5239 743f eecd 183f 28b4 c23f 5d89 8d3f
00000060: ba35 523f c76b b23f 8d35 8d3f 597f c83f
00000070: 8a4f 383f 219f 2d3f 662f 743f fcab 633f
00000080: ec28 db3e b181 803f 975f e13e bc86 5d3f
00000090: e105 5c3f 839f 853f 6b11 a63f a054 473f
000000a0: 6eeb 3a3f 430d 683f f5d8 643f dff0 453f
000000b0: 59b1 203f f4e1 8b3f c612 313f db1f 533f
0.61296934 0.96769595 0.7678087 1.5695813 0.9180218 0.4414412 0.6716185 0.59370476
0.91523767 1.1651989 0.69863516 0.6675378 0.47922525 1.090694 0.6078644 0.74543005
0.8090903 0.7610504 1.05896 0.5623761 0.95399964 0.59689224 1.5211229 1.1057545
0.8211323 1.3939141 1.1031967 1.5663863 0.71996367 0.67820936 0.95384824 0.889343
0.42804658 1.0039579 0.44018242 0.86533713 0.8594647 1.0439304 1.2974066 0.778635
0.7301549 0.90645236 0.8939355 0.77320665 0.6277061 1.092833 0.6916927 0.8247048

stage1.1.bn1.bias f4 [48]
00000000: df2b 653f 6475 823e 1f98 c4be 01f9 913f
00000010: bc92 dcbd 1917 8d3f ad84 cbbd 04ea 823f
00000020: 071f 233f 75d4 843f 4061 273f 0987 563e
00000030: 6e84 393e 5d8f 113f 5f6e 913f 1bbe 1b3f
00000040: 8744 8dbc d16f debd 03c0 083e ac1c db3e
00000050: bc7b 3e3e 5769 e73c 7ef2 333f 2906 5b3f
00000060: 36b3 13bf 5e7a d23e de05 1a3f 63fa 1e3f
00000070: 16c5 fbbe 8627 d3be cd5a 5b3e 4cdc 2cbd
00000080: aed0 d93e f9d2 913d ecfb 253f f0ab cb3e
00000090: eb9b d63e facb 163d a839 083f 0625 f13e
000000a0: 04f5 173f 4891 273f 1da6 c03e 7709 89bd
000000b0: 2780 653f c556 123f 3bda af3d 570f 95bb
0.89520067 0.25480187 -0.3839731 1.1404115 -0.10770175 1.1022674 -0.09937415 1.0227666
0.6371922 1.0377337 0.65382767 0.2094995 0.18116924 0.5685938 1.1361808 0.6083695
-0.01724459 -0.10861171 0.13354497 0.42795312 0.18601888 0.028248472 0.7029189 0.85556275
-0.5769533 0.41108984 0.601652 0.6210081 -0.49173802 -0.4124109 0.21421356 -0.04220228
0.42542022 0.07120318 0.6483753 0.39779615 0.4191583 0.03681562 0.53212976 0.4709856
0.5935824 0.65456057 0.37626734 -0.066912584 0.8964867 0.5716365 0.08586546 -0.004548948

stage1.1.bn1.running_mean f4 [48]
00000000: f0c8 dbbe c2ac 003f 442a ef3d fbc1 c43c
00000010: 2820 d2bb fa09 b7be 3a71 f03e f378 1dbf
00000020: f6be 1cbf 36ac 10bd c6c2 3abc f4be 063e
00000030: d2db 8ebf 542a 13be 79df 5fbf 5ab3 a23e
00000040: f9e2 893d 508d dbbd 3598 073d 9e65 85bf
00000050: 15d8 6c3d 235d 00be a750 7ebd 45c1 cc3e
00000060: e51a 8a3d e814 0c3d 4392 0a3e c1d2 5abd
00000070: 8ee4 8b3d db6a 1cbd d6ad ab3d 29a1 823b
00000080: 996f f9bd 3abb 2d3e 1a34 febe 474c 233f
00000090: 133a 3e3f 6631 a0bc 41c8 7a3d 0e87 813e
000000a0: b53e a1bd 8a08 4d3f 07ab 5f3d 2b52 173e
000000b0: 62e5 54bf 1949 8a3d 6e97 633d 2904 1bbd
-0.4292674 0.5026361 0.116779834 0.024018278 -0.0064125247 -0.357498 0.46961385 -0.6151268
-0.61228883 -0.035320483 -0.011398977 0.1315878 -1.1160834 -0.14371616 -0.8745037 0.3177746
0.06732745 -0.107203126 0.03310414 -1.0421636 0.05782326 -0.12535529 -0.062088635 0.39991203
0.06743411 0.034199625 0.13532357 -0.053423647 0.06830703 -0.038187843 0.08382766 0.003986497
-0.12179489 0.16965953 -0.49649125 0.63788265 0.74307364 -0.019554805 0.061226133 0.2529835
-0.078732885 0.80091155 0.054606464 0.14777438 -0.8316251 0.067522235 0.055564336 -0.037845764

stage1.1.bn1.running_var f4 [48]
00000000: 1a61 d43e d395 d33e 3a8b 463d 03fd 3f3d
00000010: c469 ac3c c15c 383e f5c8 653e b7be dc3e
00000020: 728f eb3e 94f6 8f3c adff 463d 3a0a a73c
00000030: b99e b63e b4e3 ff3d 4316 a43f 04ba 1f3e
00000040: 53b0 d73c c35c 8c3d c8b7 6f3d fec8 833f
00000050: fc98 bc3d 709f ec3d 06b5 9c3d c767 f53d
00000060: 494e d33c 07b9 263d 8bdf 823d 5255 683d
00000070: 1df0 0f3d 3e6a a13d a276 a33d 0be2 e03d
00000080: 4e71 883c 5464 d83d 2a93 103f f38a 0b3f
00000090: 2671 9d3e 3425 263d ef71 b63d 8a0a 4c3e
000000a0: 18f9 623d 5335 313f f41d 363d b88a c93d
000000b0: cc0f f93e 7f50 723d 970b c43c 0557 e13c
0.41480333 0.41325244 0.04847262 0.04687215 0.021046527 0.18004133 0.2243994 0.43114254
0.46007878 0.017573632 0.048583675 0.020390619 0.3566797 0.12494603 1.2819294 0.15598303
0.026329195 0.068536304 0.058524877 1.0295713 0.09208867 0.11553848 0.07651715 0.119826846
0.025794165 0.0407038 0.06390294 0.056721993 0.0351411 0.07881592 0.07981612 0.10980614
0.01665559 0.10566011 0.56474555 0.54508895 0.30750388 0.040562823 0.0890845 0.19925895
0.055413336 0.6922199 0.04446216 0.098409116 0.48644865 0.0591588 0.023931308 0.027507314

stage1.1.pointwise.weight f4 [48, 48, 1, 1]
00000000: 32ee a93e 417d 553c 772e a7bd 2765 babd
00000010: 4475 2fbf 81ae 943e 9143 253e 34e5 4b3f
00000020: a79e 0bbf 94b7 1ebc 1bee bd3d c470 5a3e
00000030: 868c 04bf 1d47 6f3e cc33 07bf cd04 afbd
00000040: 4d76 d03e b907 493e 0d4a 233e a24c 143e
00000050: c196 c23e cd96 b5be 00ef aebd 918a 05bf
00000060: 2841 8f3e 7f25 5a3e 9a8a 0dbf cb9d 97be
00000070: 447c 6fbd 1560 563e f8e4 a43e 5d51 41bf
00000080: 2386 82b9 2ddb 89be e46d 7d3d 4947 9b3d
00000090: 592c 79bd 0104 97bd 6d6e 3abe db37 d23e
000000a0: b729 f03d 9d7f bdbe 0643 80be afbf 02bf
000000b0: 4f46 14bf 2e15 a03e caa6 2e3e c649 2abe
000000c0: 63e3 43be 24dd b03c 3b0c 213e e38c 4abf
000000d0: 25b4 60be b2a8 683d 5df3 1cbf e78e 57be
000000e0: 5c94 923e e3ce c5bd 6322 883e 730b f43e
000000f0: 3ad0 203e ef7a 24be 60a1 1a3e 697c e63b
00000100: 2149 f8be 95d9 533d 261c 0bbf 99ee 8bbe
00000110: 178c a9be 5cec e93e 02b2 193e aba4 86bc
00000120: 782c c6bd 6e8f edbd 9f86 27be 7f70 833d
00000130: 65f0 25bd 3519 1b3e b6de bb3e a1f7 b73d
00000140: c87a b4bd fe0d dfbe dd73 73bc 387d 93be
00000150: 16b6 823e ab95 6dbe fe4a 9bbf 583c aebe
00000160: d359 3ebe 1d60 c0be a548 653e bddd 103e
00000170: 41d9 663d 8d34 8e3d 8204 123f a151 1e3d
00000180: 429a 5dbe e1ee 3bbd 6c16 7e3e 1b9d 9bbe
00000190: abf6 af3e a05a 413e f175 0b3e 9985 a3be
000001a0: e234 debd 45af 04bf c66e f7be 39d2 52be
000001b0: eae8 1cbc 0057 a3be 3de9 99bc 521d aa3e
000001c0: 06c2 ae3d 3b48 be3d 65de 823e de51 47be
000001d0: 9eec 423d 2c6e c83e 33d2 29bf 4c29 6cbe
000001e0: 82a3 083f 7786 a83e dbc6 f83b 8792 04bf
000001f0: e0a8 a33e c4d7 20bd 01c2 0d3d 585e 96ba
00000200: 5984 89be c2b6 a1be 6419 d43d 42a8 c93d
00000210: 6b6c a3be d2ba ae3d f884 8abf bbfa 153d
00000220: a42b 203f c4f8 333e 9df7 5f3d f371 9f3e
00000230: df02 8bbe 343d a73e d8be c23c f469 723c
00000240: 5c7b 173d 03e9 3cbe f24d 863d 4c58 7b3e
00000250: da78 e03e 8edc 97be 7e0b ccbe c4b2 e63e
00000260: 7ebf 82be 076b c9be 7fc6 093e 6687 7fbe
00000270: 554d c73d 6245 a43e 973f 7f3e 17ac 05bf
00000280: 2cb1 9e3d 80d5 9cbe 08f2 d9bd cde1 28bd
00000290: a169 1abe cc56 cdbe 1b1a c13f b159 803e
000002a0: 513d eebc bd4c 26bf b6a5 14be ad77 58bd
000002b0: f833 55be fd7c 60be 2e32 02be 9562 b33c
000002c0: fb5d 0a3e 4ff2 15be 2a54 913e 695a 183e
000002d0: f0ca 9e3e ffc4 1bbe c0dd 01bf 8270 20be
000002e0: 7a9f a4be 9fe2 cbbd dc4d 7a3e 5683 21bd
000002f0: ba42 8f3d 8546 cf3e 5024 b0bd 220e fabe
00000300: 954c a9bf 2e8a 8fbf b44e 3dbf 2669 fdbc
00000310: d67f 333e 5ffd 4f3d e997 a43e 2717 e1be
00000320: 4b42 dcbd e1ba 40be f3e1 333e 517d 46be
00000330: 2dd8 603e 4bfc 87bc f00e eabe ea02 72be
00000340: 64c3 053e 50f6 cabd dda0 c6bd 01c6 ff3e
00000350: 94f9 863c 7b99 103f e725 c03d cdd5 13bf
00000360: 9edc e93e b306 fcbd 8e44 423f 1377 3ebe
00000370: f9c0 e43d 8e8c 41be 39a5 acbd ea20 223e
00000380: 6920 9fbe 14fa c63c 614a 063e 34d0 b03e
00000390: 92f9 c7bc df29 3f3d 21ca abbd 3b05 34be
000003a0: 2494 733e 56ed 1dbe 0fc6 e0bb acd3 0bbe
000003b0: 157f 71bd 65ac 4a3d f77c d13d b7a6 96bb
000003c0: 8670 febe 0312 e6be 76ad 8a3b 75c7 b23e
000003d0: 7c30 033e bd47 bf3d 82c3 633e 8124 40bf
000003e0: 349d 6b3f c27d 12be 966e b1be 0d1b 09be
000003f0: 52b4 9fbe a101 633e 6ea8 a13e 3c70 a33d
0.3318954 0.013030351 -0.08163159 -0.091013245 -0.6853831 0.29039386 0.16139056 0.7964661
-0.5453896 -0.009687323 0.09273931 0.21332079 -0.5177692 0.23366971 -0.5281341 -0.085458376
0.40715256 0.19631852 0.15946217 0.14482358 0.3800564 -0.35466614 -0.085416794 -0.5216456
0.27979398 0.21303366 -0.55289614 -0.29612574 -0.05846812 0.2093509 0.3220594 -0.75514776
-0.00024895472 -0.2692503 0.061872378 0.07581956 -0.06083331 -0.073738106 -0.18206187 0.4105824
0.117267065 -0.37011424 -0.25051135 -0.51073736 -0.5791978 0.3126616 0.17055812 -0.16629705
-0.1912971 0.021589823 0.15727322 -0.79121226 -0.2194372 0.056801505 -0.6130884 -0.21050607
0.28628814 -0.09658601 0.26588735 0.47664985 0.15704432 -0.1606252 0.15100622 0.007033874
-0.48493293 0.051721174 -0.54339826 -0.27330473 -0.33114693 0.4568814 0.15009311 -0.016435942
-0.096764505 -0.11599623 -0.16359948 0.06417941 -0.04051246 0.15146334 0.36693352 0.08982778
-0.08812481 -0.43565363 -0.014859167 -0.28806472 0.25529546 -0.23201625 -1.2132261 -0.34030414
-0.18588953 -0.3757333 0.22390993 0.14147086 0.056359533 0.06943617 0.5703813 0.038652066
-0.21640876 -0.04588211 0.24813241 -0.303933 0.3436788 0.18882227 0.1361921 -0.31937864
-0.1084993 -0.5182994 -0.483267 -0.20588006 -0.009577015 -0.31902313 -0.018787974 0.33225495
0.08533101 0.092911206 0.255603 -0.19464824 0.047588937 0.39146554 -0.66336364 -0.23062629
0.53374493 0.3291509 0.007592065 -0.51786083 0.3196478 -0.03926827 0.034608845 -0.0011472208
-0.26858786 -0.31584746 0.103564054 0.09846546 -0.31918654 0.08531727 -1.0821829 0.03661607
0.6256659 0.17575365 0.0546795 0.31141624 -0.27150628 0.32663882 0.023772642 0.014795769
0.03698288 -0.18448262 0.06557836 0.24545401 0.43842202 -0.29660457 -0.39852518 0.45058262
-0.25536722 -0.39339468 0.13454627 -0.24953994 0.09731547 0.32084185 0.24926601 -0.52215713
0.077486366 -0.30631638 -0.10641867 -0.041230965 -0.15079357 -0.40105283 1.5086092 0.2506843
-0.029081972 -0.64960843 -0.14516339 -0.052848507 -0.20820606 -0.21922679 -0.12714455 0.021897594
0.13512413 -0.14643215 0.28384525 0.14878239 0.31014204 -0.15211867 -0.5072899 -0.15667918
-0.3215292 -0.09955334 0.24443763 -0.039431892 0.06995149 0.4048349 -0.08600676 -0.48838907
-1.3226496 -1.1214044 -0.73948216 -0.030933928 0.17529234 0.050778743 0.32147148 -0.43962976
-0.10754832 -0.18821289 0.17566662 -0.19383742 0.21957465 -0.016599795 -0.4571452 -0.23633924
0.13062817 -0.09910262 -0.09698651 0.49955752 0.01647643 0.5648419 0.09382229 -0.5774811
0.4567613 -0.12305965 0.75885856 -0.1860011 0.11169619 -0.18901274 -0.08429951 0.15832868
-0.31079414 0.024289168 0.13114311 0.34533846 -0.024410997 0.04667079 -0.083881624 -0.1758012
0.2378698 -0.15422568 -0.006859548 -0.13654965 -0.058959085 0.049480814 0.10228913 -0.0045975107
-0.49695224 -0.44935617 0.004232104 0.349178 0.12811464 0.09339855 0.22242549 -0.750557
0.9203675 -0.14305785 -0.34654683 -0.13389225 -0.3119226 0.2216859 0.31573814 0.079803914

stage1.1.bn2.weight f4 [48]
00000000: 5190 983e dbf0 4a3f 3b42 143f e8af 623f
00000010: 47f3 0b3f 1067 003f 6e22 2a3f 9e70 6d3f
00000020: 209b 2a3f 776a 063f 76f2 633f 5cf4 4d3f
00000030: f531 5b3f 5754 2f3f ce2b 493f 8eaf dc3e
00000040: 30bc 073f e4b0 ed3e e410 da3e 7d57 573f
00000050: a3ee 3c3f 8bfb ef3e 2c14 253f 1662 d33e
00000060: ee74 fd3e 2a72 063f 6cc8 603f a4e0 2d3f
00000070: f4bb b43e d1f9 af3e c494 d53e 5733 103f
00000080: 0c60 cc3e 6ad7 363f b961 d33e 1360 8d3e
00000090: 6b68 3f3f 682b 973e e3f9 563f db80 b93e
000000a0: d5da f33e f21f da3e 3c8f de3e db02 213f
000000b0: de87 ef3e 39f2 2e3f 0754 2d3f d336 fa3e
0.29797605 0.79273766 0.5791356 0.8854966 0.54668087 0.5015726 0.66458786 0.92749965
0.6664295 0.525062 0.8904184 0.8045099 0.85623103 0.6848807 0.78582466 0.43102688
0.53021526 0.4642402 0.42591012 0.8411787 0.7380163 0.468716 0.64483905 0.4128577
0.49503273 0.5251795 0.8780582 0.679209 0.35299647 0.34370282 0.41715062 0.5632834
0.39917028 0.71422446 0.41285494 0.2761236 0.74768704 0.29525304 0.83975047 0.3623112
0.47627893 0.42602497 0.43468654 0.6289498 0.46783346 0.6833835 0.6770634 0.48869953

stage1.1.bn2.bias f4 [48]
00000000: 1a31 0b3f 5c8c 7a3d 5f65 953e 1ff9 4dbe
00000010: 6e08 dd3e 3ef2 fe3e 75ef ab3e 35b2 c33d
00000020: f9b4 803e 1071 e63e 8bb8 ed3d afbc ee3d
00000030: c965 de3d e957 5abe addf 2ebe 03fe ba3e
00000040: b8b1 d73e 3a49 e43e a604 033f 4a93 bf3d
00000050: cf3d 29be 3753 dc3e 9d56 763e bec3 083f
00000060: 5d51 8fbe cde2 de3e 8dd3 563d 1d9c 52be
00000070: 064e e93e f6c2 103f aeb5 0d3f 41d7 c53e
00000080: 9b3a b83e 5098 43bd 76a2 0c3f bf7f 153f
00000090: b580 ea3d 948c 1f3f b83d cb3d cd42 f53e
000000a0: 29b1 073f 1acb 033f dd16 723e 8210 aabe
000000b0: 96f1 fa3e b99f 6f3d 7304 9d3e 1460 cd3e
0.543718 0.061169013 0.29178903 -0.20114563 0.43170494 0.4979419 0.3358113 0.09555475
0.2513807 0.45008135 0.116074644 0.11657082 0.10859258 -0.21322598 -0.17077513 0.3652192
0.42127776 0.44587117 0.5117897 0.09354265 -0.16527484 0.43032238 0.24056478 0.5342368
-0.27991763 0.4353241 0.052447844 -0.20567365 0.4556734 0.56547487 0.55355346 0.38640788
0.35982212 -0.04775268 0.54935396 0.5839805 0.1145033 0.6232388 0.09923881 0.47902527
0.530047 0.51481783 0.23641534 -0.3321572 0.4901244 0.058501933 0.30667457 0.40112364

stage1.1.bn2.running_mean f4 [48]
00000000: a1e8 a2bf 8b80 2bc0 769d 3dc0 006d 2e3f
00000010: db4e 39c0 0cf2 59be 6c99 8b3f 3bf6 8f3f
00000020: dfaa 963f 0eea 283f c99c 4d40 1787 36c0
00000030: 15e0 3bc0 8056 29c0 654b 1a3d a2e4 54be
00000040: 77a6 79c0 3000 16c0 8434 7040 a7bc 35be
00000050: cd34 07c0 de01 1940 3786 08c0 78c0 c63f
00000060: b384 a33f 1fae 4e40 87a4 1bc0 26c2 1fc0
00000070: ba73 993f 3e12 84bd 8f59 d8be 3542 e13f
00000080: 1ac8 19bf f7b3 4cbf 1f94 89bf d2d9 2bc0
00000090: 9fee 03c0 c2cf ecbf b308 4dc0 081e 8ebf
000000a0: 002f 813f 7db3 1140 2699 27bf 914a 6ebd
000000b0: 6e0c 1b40 bbcc 88c0 07b6 6ec0 fe4a f83f
-1.2727243 -2.6797206 -2.9627357 0.6813507 -2.895438 -0.2128374 1.0906196 1.1247019
1.1770896 0.6598214 3.2126944 -2.8519952 -2.935552 -2.6459045 0.037669558 -0.20790341
-3.9007852 -2.3437614 3.7532053 -0.17747746 -2.1125977 2.390739 -2.1331918 1.5527487
1.2774872 3.2293775 -2.431917 -2.4962249 1.1988442 -0.06448792 -0.42255828 1.759833
-0.60070956 -0.79962105 -1.0748328 -2.6851697 -2.0614393 -1.8500903 -3.203656 -1.1102915
1.0092468 2.27658 -0.6546806 -0.05817658 2.4226336 -4.2749915 -3.72986 1.9397886

stage1.1.bn2.running_var f4 [48]
00000000: bafc 6840 ef4d 8d40 5e06 a740 914d c240
00000010: a8d4 a840 07bd 1b41 f668 ee40 c1c7 2a41
00000020: 7d0e 8340 c8a1 6d40 a784 b940 b0b5 bd40
00000030: 0d1e 7141 05ca a540 d905 d040 c39f 4c40
00000040: 5df7 6d40 8fed cc40 4040 c640 1c79 3e41
00000050: 6d5a 8c40 46c1 8b40 7e08 ba40 f48a a040
00000060: 5a7c 3f40 152a 6540 2f6f 4b40 1d55 dd40
00000070: bc88 ba40 5259 4240 a2dd f940 88ad 8b40
00000080: bc46 9c40 e4b8 ae40 5c14 ad40 5525 4040
00000090: 338d be40 6cd7 c340 ac48 e540 21ee ec40
000000a0: b50a 0c41 90aa d040 1b37 4740 a338 6240
000000b0: 9a95 8e40 122d 3040 e61b 9940 4671 ec40
3.6404252 4.4157634 5.2195272 6.0719686 5.275959 9.733649 7.4503126 10.673768
4.0955186 3.7129993 5.797443 5.9284286 15.069837 5.1809106 6.500714 3.197251
3.7182229 6.403999 6.195343 11.904568 4.3860383 4.367343 5.8135366 5.016962
2.9919648 3.5806935 3.178661 6.91664 5.829191 3.0367017 7.808305 4.364933
4.8836346 5.4600697 5.4087353 3.0022786 5.954736 6.1200466 7.165121 7.4040685
8.752614 6.5208206 3.1127384 3.5347068 4.455762 2.7527509 4.7846556 7.3888273

stage2.0.depthwise.weight f4 [48, 1, 3, 3]
00000000: 789d d43d 60c7 ec3e d78d 183f 6b8d c3be
00000010: dcee 423e 426e 2c3d 685e 27bf de43 99be
00000020: c678 30bd 06ba 21be 1040 813e ea49 65be
00000030: 0790 07bf f0e9 5b3f c272 8b3e c569 83be
00000040: f048 1fbc 0434 213e 0aca 42be 00ea 67be
00000050: c92b 13be 82a4 da3e 70aa 6a3f ac70 80be
00000060: 6025 51be e63e 8dbe 5c2b 42bd 19a4 d7be
00000070: aab6 5cbf 9acb 8f3d 693f 163e 7b57 a1be
00000080: fbe8 01bf 15e0 2cbe 8313 96be 073f 94be
00000090: adc2 f53e 2a87 0d3f 1d5e e1be 573c 903e
000000a0: 26bc 213f 5869 9e3c 5b66 afbe 73ad fcbd
000000b0: 83ec febe d94d f33e 52ae c23c b54f eabe
000000c0: f27c 223f d6cd 63bd c5ed 05bf 7691 523e
000000d0: fa48 9abb d33f 59be 0f29 a33e e5bb a83e
000000e0: 8e91 163e aee7 1ebe 7354 96bf 3a19 293d
000000f0: 413c afbd 49ff d1be 9e17 8b3d b552 623e
00000100: d7a8 debd 3086 a83d 08f4 02bf 4988 e1bf
00000110: acfc f4bd 1b1b 043e 1ef6 b33d 14da bf3d
00000120: 4f43 e13e da33 d43e db32 1bbe 8b9f b63e
00000130: ee01 603f 68a4 04be 9737 13be 8f60 70be
00000140: 0bb0 3cbe 9ef5 913e b9b6 09bf 3c5d 37bf
00000150: c033 0c3f 7317 503d 5ddc 89be 318f 7e3e
00000160: f3be bd3d e1e0 0a3d 574a 0a3f afd3 b93d
00000170: 102a b4be 4200 b33e ee35 303f cd1b 61bd
00000180: 6f76 06bf 5231 d1bd 2599 a7be 51c2 fbbd
00000190: f24d 313c 0e39 65be 4100 1bbc 51e6 06bf
000001a0: aab3 b83e c932 d7bc 5699 503f 459c 1d3f
000001b0: 894c f1bd 1060 29bd dce6 41bd a5c9 cabd
000001c0: 87cc 0540 7800 13be 0c37 07bd 3634 fabb
000001d0: 5c87 9c3b 8929 1e3f 64f3 913e db8e 1e3e
000001e0: 2d3a ef3d 710e 04bf bb7d 0dbe 1a65 153f
000001f0: 0651 673e 829e 143e 5b00 39bf 4d2a 0b3e
00000200: 721f 1bbe 2191 1dbe 236f 7c3e 73b1 afbe
00000210: 2fc7 ddbe ee7a debd ae61 dcbe 7c34 85bb
00000220: 881b ef3e e7cc 093c 8b1d 903e 43d6 8e3f
00000230: 7595 9dbd b630 3a3d 2e1a efbe 998f aebc
00000240: 811c f93e 24af d63e 0e06 68be 4485 5e3e
00000250: ea4e 443f 043a 1c3c 1ff0 d8be c982 aebe
00000260: 0fa9 a0be 2edd 233e e672 673f 17a0 2e3e
00000270: a122 dbbc 4516 f3be cb11 003e 040c 533e
00000280: f051 e7be 8541 cb3c 031b 093d cc2d 733d
00000290: 18da b33e 6d91 07bf 7771 06be cbfd c33e
000002a0: 815d 09bf 13ad 14be 7906 093f e4d0 91bd
000002b0: 5f4d 6dbe cd2d 0abd 011f f5bd b780 d5bf
000002c0: 782c fb3c 98e3 92bd 5195 6bbd 0902 193e
000002d0: e96d c73e 3b9e 7a3e 9601 323e 500f f83e
000002e0: de90 d03e 0765 b83e 49fb ff3e 9229 c43e
000002f0: 836c cbbc 81e4 ecbe 171e 8ebe 3a1c 1fbf
00000300: 1245 94bd 967a 343f bfe7 be3e 0cab 96bd
00000310: a43b 453e 612f 303d 31d7 5e3e 1e55 483f
00000320: 7e0b f13e 0feb 89bd 0b41 f4be 63d2 44be
00000330: d34d 26be 651a 05be 8406 56be 9236 38be
00000340: 1abd 3abf 0004 bbbe e6d6 3a3f 8a24 07bc
00000350: 35bf 6dbe 1f76 f33d bba2 0a3e 7488 de3d
00000360: 7162 413e 0216 32bd e8c8 92be 4443 82be
00000370: 8f89 a73e 7aed 703e 286d ef3d 51f3 dc3e
00000380: 1da2 6d3f ccf4 fb3e 2899 97be 87c5 51be
00000390: 8922 1b3f 8dc0 47be 44d8 21bf 06c3 493e
000003a0: c8f1 cb3d 616c 12be f77a 53bf 202f cdbe
000003b0: 2d2f f2bd 8278 11bf f2ef 4dbe 3244 17be
000003c0: 39c3 98be d5f9 07be 939f 34be 67d0 b43d
000003d0: e5b7 2d3e fe40 3ebe 3f00 063f a2fa 0b3f
000003e0: 9ceb 363f 7737 063e 3dc9 c33e 28c2 af3e
000003f0: 1fac 10bf 77bd da3d 95a4 1a3f ca10 82bd
0.10381597 0.4624586 0.5959143 -0.3819383 0.1903643 0.042097338 -0.6537843 -0.2993459
-0.04308393 -0.15793619 0.25244188 -0.22391477 -0.52954143 0.85903835 0.2723599 -0.25666633
-0.0097219795 0.15742499 -0.19022384 -0.22647858 -0.14372171 0.42703635 0.91666317 -0.25085962
-0.20424414 -0.2758705 -0.047404632 -0.42117384 -0.86216223 0.07021256 0.14672627 -0.31512055
-0.50746125 -0.16882356 -0.2931176 -0.28954336 0.48000088 0.5528437 -0.44017115 0.28171036
0.63177717 0.019337341 -0.3425778 -0.1233777 -0.4978982 0.4752033 0.023764763 -0.45763937
0.634719 -0.055616222 -0.5231593 0.20563301 -0.0047084065 -0.21215753 0.31867263 0.32955852
0.14703962 -0.15518066 -1.1744522 0.041283824 -0.085564144 -0.4101508 0.06791614 0.22101863
-0.108720474 0.08228719 -0.5115361 -1.7619716 -0.11962256 0.12900965 0.087871775 0.09367767
0.43996665 0.4144581 -0.15156119 0.35668597 0.87502944 -0.12953341 -0.14376675 -0.23474334
-0.1842653 0.28507704 -0.5379444 -0.7162664 0.54766464 0.050803613 -0.26925936 0.2485931
0.09264936 0.033905867 0.54019684 0.090735786 -0.3518834 0.34961134 0.6883229 -0.054958154
-0.52524465 -0.10214485 -0.32734028 -0.12292922 0.010821806 -0.22385046 -0.00946051 -0.52695185
0.36074573 -0.026269333 0.8148397 0.61566573 -0.11782176 -0.041351378 -0.047339305 -0.09901742
2.0906084 -0.14355648 -0.03301148 -0.0076356186 0.0047768783 0.6178213 0.28506005 0.15484183
0.11681018 -0.51584536 -0.13817494 0.58357394 0.22589502 0.14513591 -0.7226617 0.13590355
-0.15148714 -0.15387394 0.2465177 -0.3431507 -0.43316028 -0.10863291 -0.43043274 -0.0040650945
0.46700692 0.008410669 0.2814754 1.1159137 -0.07694522 0.04545661 -0.4669966 -0.021308707
0.4865456 0.41930497 -0.2265856 0.21730524 0.76682913 0.009535316 -0.42370698 -0.34084156
-0.3137898 0.16002342 0.90409696 0.17053257 -0.02674991 -0.47477928 0.12506787 0.20610052
-0.451797 0.024811516 0.033473026 0.059369847 0.3512733 -0.5295628 -0.13129221 0.38279566
-0.536583 -0.14519148 0.535255 -0.07119921 -0.23174046 -0.033735085 -0.11968804 -1.6679906
0.030660853 -0.07172316 -0.057515446 0.14942183 0.38951042 0.24474423 0.17383417 0.48449183
0.40735525 0.36014578 0.49996403 0.38312966 -0.024832016 -0.46268085 -0.27757332 -0.62152445
-0.072397366 0.7049955 0.37286183 -0.07356843 0.19261032 0.043013934 0.21761777 0.7825488
0.4707908 -0.06734287 -0.47705874 -0.19220881 -0.16240625 -0.1299835 -0.20900923 -0.17989567
-0.72944796 -0.3652649 0.7298416 -0.008248458 -0.23217471 0.11887764 0.13538639 0.1086587
0.18885209 -0.04347802 -0.28668904 -0.25441945 0.32722136 0.2352809 0.11690742 0.43154386
0.9282549 0.49210203 -0.29609036 -0.20485507 0.6059957 -0.19507046 -0.6322062 0.19703302
0.099582255 -0.14299156 -0.82609504 -0.40075016 -0.11825404 -0.56824505 -0.20111063 -0.14772108
-0.29836443 -0.13278897 -0.17638998 0.08828812 0.16964681 -0.1857948 0.52344126 0.5467931
0.7145326 0.13107096 0.3823947 0.34327817 -0.56512636 0.10680669 0.6040738 -0.063508585

stage2.0.bn1.weight f4 [48]
00000000: 5f8d 823f 4afb 813f b5fb 7c3f 599b 963f
00000010: a951 793f 808d 9e3f 2da5 923f 6c7f b63f
00000020: 6c41 513f c57b 643f 973e 563f 21de 843f
00000030: 0392 ac3f ee49 f43e e969 4a3f d396 2d3f
00000040: bff4 533f c2d7 513f 0e06 973f 8b49 943f
00000050: bea7 143f fa2c 7d3f b39c a13f ab37 923f
00000060: 2938 423f 4cdb 853f 5fe0 1c3f 6fd2 223f
00000070: 038a 853f 9893 653f eba9 bb3f fbc4 883f
00000080: c5cf 373f cdf4 163f 0746 8a3f a93f 343f
00000090: b57a 853f b39c 943f 1e47 9d3f 0713 413f
000000a0: d529 c83f e328 6b3f 8765 243f 628e 2d3f
000000b0: 744c 763f a138 1a3f 3991 073f 2f18 ae3f
1.0199393 1.0154812 0.98821574 1.1766158 0.9739023 1.2386932 1.1456658 1.4257636
0.8174045 0.8925136 0.83689255 1.0380288 1.3482059 0.47712654 0.79067856 0.67808264
0.8279533 0.81969845 1.1798723 1.1584944 0.58068454 0.98896754 1.2625946 1.1423239
0.75866944 1.0457549 0.61279863 0.63602346 1.0432743 0.89678335 1.466123 1.0685114
0.71801406 0.58967286 1.0802621 0.7040964 1.0428072 1.1610321 1.2287328 0.7541966
1.5637766 0.91859263 0.6421742 0.67795384 0.9621041 0.6024266 0.5295597 1.360113

stage2.0.bn1.bias f4 [48]
00000000: db06 a83e dfb3 073e 553a d23e 6792 653e
00000010: 619b 313f 8b00 843d 7798 ff3e df1d ae3e
00000020: 2914 593e 2a01 003f fd23 b83e 9908 af3e
00000030: dd81 763f 01aa c63e c149 943d 55a4 003f
00000040: ed1b 643f 7139 6c3f e242 9b3e 5b02 e63e
00000050: 0a7a 793e 5975 103e d9a5 ae3d b1df 9a3e
00000060: f06b 0abe 5a53 07bd 9de6 803e 9f3d 733f
00000070: 87d9 88be 9927 3f3f 179f e4bc 709b f43d
00000080: ae0d 6b3f d01d 883d 3771 4f3f 7bfd 6b3c
00000090: 0ffd 943e 98cc 7c3f 6f2f ea3e 2cb7 583e
000000a0: 4311 093f a908 503f 1ed5 173e 2658 653e
000000b0: 2af1 303f 297a 063e 5ca8 243f b1c5 8d3e
0.3281773 0.13252209 0.4106013 0.2241913 0.69377714 0.06445416 0.4992101 0.34007165
0.21199097 0.50001776 0.35964957 0.34186247 0.96291906 0.38801578 0.0724063 0.5025075
0.8910511 0.9227515 0.30324465 0.44923672 0.2436296 0.14107265 0.08527727 0.30248788
-0.13517737 -0.033038475 0.25175944 0.950159 -0.2672846 0.74669796 -0.027907891 0.1194371
0.9181775 0.06646311 0.8103213 0.014403696 0.29099318 0.98749685 0.45739314 0.21163625
0.53541964 0.81263214 0.14827392 0.22396907 0.6911799 0.13132538 0.64319396 0.2768989

stage2.0.bn1.running_mean f4 [48]
00000000: c037 d33c 7ef5 593e e5e9 153d f53d a2bf
00000010: 6f8c b93e 9e6a 4f3d e34c 2fbf 70f2 acbf
00000020: f529 3f3f 3418 38be 8f1f 393e d7e5 fd3e
00000030: d546 7e3f d4dc d03e 26bb 30bf 4f0e 5f3f
00000040: f183 c53e 4766 cb3e 8a60 b2bb 6e68 a4bf
00000050: 21b8 943f 9c75 aabd c5e7 0e3e 302b a4be
00000060: 4664 873e baf7 e1bd dd13 c8bf 149c 5b3f
00000070: 3db2 dcbd f477 043f a10c 623c cb76 99be
00000080: b52d ac3f a7c1 2c3f 92d7 683d 6a13 91bf
00000090: cb8c bd3e ba3a bf3d 919b c63e d9a1 8dbf
000000a0: ebda 2abd 3dde df3d 9309 453f 4a60 abbe
000000b0: 2967 e4bd a5aa 853f 7fd7 85be ece1 09bf
0.02578342 0.21285054 0.036600012 -1.2675158 0.36239955 0.050638787 -0.68476695 -1.3511486
0.74673396 -0.17977983 0.18078445 0.49589416 0.9932683 0.40793478 -0.69035566 0.8713121
0.38577226 0.3972647 -0.0054436373 -1.284437 1.1618692 -0.083232135 0.139556 -0.320642
0.2644369 -0.11033578 -1.5631062 0.8578503 -0.10776184 0.51745534 0.013796956 -0.29973444
1.3451449 0.6748299 0.05684621 -1.133405 0.3702148 0.09337373 0.38790563 -1.1065017
-0.041712683 0.109310605 0.76967734 -0.334719 -0.11152489 1.0442702 -0.26140973 -0.53860354

stage2.0.bn1.running_var f4 [48]
00000000: 769c c03d 8b2a 983e 9e7a 613e 3689 0540
00000010: ed21 133e dc74 2b3e 4450 2c3f c672 2340
00000020: aa22 1c3f 1d1a 903e 72b2 743e 3180 df3e
00000030: 27a3 4d3f 0107 333e 1a6a 223f b7f1 c43e
00000040: 407a 273e 0d94 c43d d46b 1d3e e556 993f
00000050: 02c5 1d3f daf3 ad3e 8a02 d23e 851f 723e
00000060: 570f 833e 4050 b23e 0792 853f 4e57 083f
00000070: 435f 993d e415 173e e49e 093e 47e4 ce3e
00000080: 246e 113f 6f29 183f 9ad4 ba3d 8846 453e
00000090: 6d53 033f 8f58 c83d d362 d73e 1102 e63d
000000a0: ae30 493e f3f3 bd3d 2e79 643e 0cad 853e
000000b0: 44a8 4a3e 0df1 f43e eec7 523e 54d4 e83e
0.094048426 0.29719958 0.22019431 2.0864997 0.1436841 0.16743797 0.67309976 2.5538802
0.60990393 0.28144923 0.23896196 0.4365249 0.80327076 0.1748314 0.6344315 0.38465664
0.16355228 0.09598551 0.15373164 1.1979643 0.61628735 0.33975106 0.41017562 0.23644836
0.2559764 0.3482685 1.0435189 0.53258216 0.07488873 0.14754444 0.13439518 0.40408537
0.56808686 0.5943822 0.09122582 0.19265187 0.5129917 0.09782516 0.42067584 0.11230863
0.19647476 0.09275045 0.22311851 0.26108587 0.1979075 0.47840157 0.2058408 0.45474494

stage2.0.pointwise.weight f4 [96, 48, 1, 1]
00000000: f162 0c3f 35ce 2e3e 2bcb ef3d c7be 2ebe
00000010: 0e13 703d a3f2 963c 05e2 f33b 4f17 c5bc
00000020: 0c56 a8bd 3671 e03c ae54 0bbf bacf 183e
00000030: 09c7 febd f2f9 c23d 3bd8 a8ba 0ce5 563d
00000040: 0887 8d3e 70c0 8d3d 2e63 96bd b54d a73d
00000050: 263e c0bc 3350 823c 5c5d b73c 1d13 16be
00000060: 2c02 bcbd a76f 8e3d 1092 8abe fbb8 c5bd
00000070: c4ca 843e bedd 1abe 4e0e 013e f7c2 7d3c
00000080: 9950 4fbd c958 483e b097 b2bf 4afd 6ebc
00000090: 54f3 46be f1ef 19bc dc20 90bd f1f6 65bc
000000a0: 73c2 aabe ebc5 8b3f 8f83 4ebe ff51 81be
000000b0: fbe5 743e 0160 023d d8fd 6abf 257d 863d
000000c0: e1c2 993e c109 64bd 84d6 00bf d66f d4be
000000d0: 99f8 cabc 5341 abbc 56de 41bf b42c b73e
000000e0: 668b 91be e610 babd 81c3 dcbd a286 cc3c
000000f0: 5fcf 103d eecd dc3e db2a 4a3e 98c4 cbbe
00000100: 610d 7a3e a866 363f d6f9 1d3e 51f6 803f
00000110: be80 e63d 3b56 463d 6af3 25bf fc1f 123f
00000120: d01c 893d 0d02 0d3f d020 5e3c 1469 1d3e
00000130: 1247 8cbe 4609 863d 3cd6 4f3e 53bb 1bbb
00000140: a9e6 d3bc 4367 6bbe 7888 7c3e e2d5 923e
00000150: f2a3 3dbe 77d2 96be e000 d5bd ed45 a73d
00000160: 4e24 e7bc 88ea 4b3e 4cb3 283d d3d3 d6bc
00000170: cfa3 53be b359 083e c5bd 8a3e 6da0 72be
00000180: 569b a0bd 2905 8c3c 2ed9 86be 4b99 34be
00000190: 1b8a 14be 8e54 b93b 6781 82bd dd04 353b
000001a0: d420 e0bc 6cca 003e 42c8 803f e60d 68be
000001b0: 864b 68be b01a 083f 7068 a2be 754b 013e
000001c0: c0f2 72bf de61 c83d 3035 89bd bec9 dd3a
000001d0: 2e50 6a3d cc5b 96be 6446 7bbe 20a1 5bbe
000001e0: b5a5 303e 4793 fdbd 4786 813e 0a68 c63b
000001f0: 6d40 a6bd fa68 343f e29c 823c c092 c43d
00000200: 89c6 7cbd adad 1a3f 7898 26be 208f 653f
00000210: 6503 88bc 71ca 7abe 572e d5bd e79a c13d
00000220: 0727 bb3c c3a1 1d3f a755 87be f08e 04bf
00000230: 08a5 083d e11c 1a3e 7598 a63e 85c9 74bd
00000240: 3764 a33e 2801 993e 728f 8fbe b7bb 9dbe
00000250: 761c 1bbe d1ee 0c3f 756a 90be 225f 063d
00000260: ecd5 fbbe 800a 9b3e 8390 023e e5ca 14bd
00000270: 1512 133d 3ff4 0bbd 6ac7 a4bf 1887 483d
00000280: 751e 4cbd 2b01 ce3b 0b32 2c3e c274 6b3e
00000290: 19a9 5dbe d0a0 eebe ec1a 1ebe 5258 093e
000002a0: 1988 e1bd 5bcd 2d3f 34b7 b73c 2be2 a2bb
000002b0: 4841 403e 8267 123e 9e4d 8a3e f51e 18be
000002c0: d079 2bbe 4a6a 53bf 55a4 c3be a70d 473e
000002d0: e5ee d8be 2e48 e0bd 18ac bb3e cdf0 c8be
000002e0: 28ef 6abe c2db 05bd 1af5 6c3e 9b6a 413f
000002f0: fc03 26be a864 d1bd cf32 97be f88d fd3d
00000300: a1f3 39bf 3c5d 7fbd 58bd 7c3d 8cf0 b4bd
00000310: 6e97 be3c 9afa a4be fa1c 79be e5ce d8bc
00000320: d4fb f7bc 77ff 27be d76b c6b8 3f84 b63e
00000330: f284 ce3e ea34 5f3d 5b86 9d3e acc2 5c3d
00000340: 4417 a2bd 3f77 a6be 41a4 b4be 47b9 c03d
00000350: 0340 943c bb64 423f 7bfb 5abc 54cd 273f
00000360: 551c 263f f5d4 d7bd ff43 9f3d dc7b 943e
00000370: 8389 c63c e6db 96be 1ebc a2bd 035b 653d
00000380: e554 623f 33e7 c0be 4b4a c73d f790 0e3e
00000390: 7859 2dbd 31d3 883e 3263 bd3e 9d57 e0be
000003a0: 2252 9dbe b355 24be 5368 85be 8369 39be
000003b0: c967 1c3f 54cb 063e b7ac 12be 2c69 26bd
000003c0: 56a8 c43e 9b58 063e a157 873e d9c4 823e
000003d0: 542d 8b3e dce2 9fbe 2e38 ffbd 7310 9dbe
000003e0: 8b11 d7bd aeac 4abe 7ed8 fe3e 242b 21bf
000003f0: 8f0d 9ebc 6b2c 2bbe 8072 b63d 86af 0e3e
0.5483847 0.17070849 0.11708673 -0.17064963 0.058611922 0.018426245 0.007442715 -0.024058966
-0.08219537 0.027397733 -0.54426086 0.14922991 -0.12440307 0.095203295 -0.0012881825 0.05246453
0.27642083 0.0692147 -0.07343136 0.08169118 -0.023467135 0.015907383 0.022383384 -0.14655729
-0.09180102 0.0695489 -0.27064562 -0.09654423 0.25935948 -0.1512365 0.12603113 0.015488378
-0.050613973 0.19565119 -1.3952541 -0.014586756 -0.1942876 -0.009395585 -0.070375174 -0.014035926
-0.33351478 1.0919775 -0.20167373 -0.2525787 0.23915856 0.031829838 -0.91793585 0.06566838
0.30031493 -0.055673365 -0.50327325 -0.41491574 -0.024776744 -0.020905172 -0.7572988 0.35776293
-0.28426665 -0.09085254 -0.10779477 0.024966542 0.035354014 0.43125862 0.1974291 -0.39798427
0.24419166 0.7125039 0.15427336 1.007517 0.112550244 0.04842208 -0.64824545 0.57080054
0.06694949 0.55081254 0.013557628 0.15372115 -0.27397972 0.065447375 0.20296568 -0.0023762777
-0.025866823 -0.2298861 0.24661434 0.28678805 -0.18519571 -0.29457447 -0.104005575 0.08167634
-0.028215554 0.19913685 0.041186616 -0.026224053 -0.20667957 0.13315468 0.27097908 -0.2369401
-0.07842128 0.017092304 -0.2633757 -0.17636602 -0.14505808 0.0056558317 -0.06372338 0.0027621307
-0.027359404 0.12577218 1.0061114 -0.22661552 -0.2268506 0.5316572 -0.31720304 0.12626441
-0.9490166 0.09784292 -0.06699598 0.0016921086 0.05720537 -0.2936691 -0.2453857 -0.21448183
0.17250712 -0.123816065 0.25297758 0.006054883 -0.08117757 0.7047268 0.015943948 0.09598303
-0.061712775 0.6042126 -0.162691 0.89671516 -0.016603181 -0.24491288 -0.10409229 0.094533734
0.022845758 0.61574954 -0.26432535 -0.51780605 0.03336051 0.15050079 0.3253819 -0.059762497
0.31912395 0.29883695 -0.28039128 -0.30807278 -0.15147576 0.55051905 -0.2820622 0.03280557
-0.49186647 0.30281448 0.1275044 -0.036326308 0.035905916 -0.034168478 -1.2873356 0.04895696
-0.049833734 0.0062867603 0.16815965 0.22993758 -0.21646537 -0.46607065 -0.15439957 0.13412598
-0.11012287 0.6789147 0.022426225 -0.004970809 0.18774903 0.14297298 0.27012342 -0.14855559
-0.16745687 -0.8258406 -0.38211313 0.19438802 -0.42369762 -0.10951267 0.36654735 -0.39246216
-0.22942793 -0.03268028 0.23140374 0.7555329 -0.16212457 -0.10224277 -0.2953095 0.12380594
-0.72637373 -0.062344775 0.06170401 -0.08834943 0.023265567 -0.32222444 -0.2432746 -0.026465843
-0.030271448 -0.16406046 -9.4614625e-05 0.3564777 0.40335804 0.054493822 0.30766568 0.05389659
-0.07914594 -0.32512853 -0.35281566 0.09410339 0.01809693 0.7593495 -0.013365622 0.6554768
0.6488698 -0.10538665 0.07776641 0.29000747 0.024235493 -0.29464644 -0.07946037 0.055995
0.8841079 -0.3767639 0.09730967 0.13922487 -0.042321652 0.26723626 0.36989743 -0.43816844
-0.30726725 -0.16048317 -0.26056156 -0.18106656 0.61095864 0.13163501 -0.14323698 -0.040627643
0.3840968 0.13119738 0.26434043 0.25540808 0.2718302 -0.31227767 -0.12461887 -0.30676612
-0.10501393 -0.19792435 0.49774545 -0.6295645 -0.019293575 -0.16716163 0.08908558 0.13934144

stage2.0.bn2.weight f4 [96]
00000000: c143 143f 0056 af3e e1c8 2f3f 5674 1c3f
00000010: 50a0 e93e 213f 2d3f 0282 1f3f dc1e 013f
00000020: a401 0a3f 4e51 db3e 3a79 ba3e 6daa 063f
00000030: c900 5c3f 04b8 5a3e 939e e93e 5340 873f
00000040: a736 2a3f 9363 3f3f 3b2a 593f 8a19 483f
00000050: 6abf 603f d0e9 9a3e 5625 253f 86c5 193f
00000060: 818c bd3e ec53 053f c468 0c3f aff0 1f3f
00000070: 0d02 573f a888 4b3f cd8c 1e3f deaa 2e3f
00000080: b7da 643f cec6 d83e f035 2f3f 383f e23e
00000090: a0a3 1e3f 7344 0a3f f78f c33e 34ee d73e
000000a0: 6330 263f 73c2 813f a3f4 313f 2e1a 383f
000000b0: a4f3 263f d49e 5d3f 2328 073f 9c42 d93e
000000c0: 070a 183f 666e 883f 5fed eb3e b8e8 5d3f
000000d0: 528b 6d3e 2bf2 223f 23ff 1c3f b0d3 f43e
000000e0: 8819 113f 6ea6 413f 4219 5e3f bd6a ed3e
000000f0: 7906 283f 0238 833e 5294 e13e cfb3 6b3f
00000100: be04 153f 024d cc3e 9eae 4f3f 90dc 113f
00000110: ea10 033f 9936 863f 3119 463f 9b1c dc3e
00000120: a1a3 6f3f 3d08 023f 24e4 1d3f 7e43 cf3e
00000130: a346 e53e 1ead 063f 085f 553f 0152 1d3f
00000140: 45ea 763f 7399 023f 3144 9a3e 2589 793f
00000150: 44f9 113f 6931 6c3f e2da 533f 9b35 c63e
00000160: 3a04 dc3e 43bf 473f c8a5 0e3f 79a7 913e
00000170: 68e6 623f 7b17 583f 0c75 3b3f 0c03 d93e
0.57915884 0.342453 0.6866589 0.61115015 0.4563012 0.6767445 0.6230775 0.5043771
0.53908753 0.42835468 0.36420614 0.526038 0.859387 0.21359259 0.45628795 1.0566505
0.6648964 0.74761313 0.84830064 0.7816397 0.87792075 0.3025651 0.64510095 0.6006702
0.37021258 0.5208118 0.5484736 0.6247663 0.83987504 0.79505396 0.61933595 0.6822947
0.8939623 0.42339176 0.6844168 0.44188857 0.6196842 0.54010695 0.38195774 0.42173922
0.6491758 1.0137466 0.6951391 0.7191495 0.65215516 0.8657048 0.5279562 0.4243363
0.593903 1.0658691 0.46079537 0.86683226 0.23197678 0.6365077 0.6132681 0.47817755
0.5667958 0.75644577 0.8675729 0.46370497 0.65634876 0.25628668 0.44058472 0.9207124
0.5821036 0.39902502 0.8112582 0.56977177 0.51197684 1.0485412 0.7738219 0.42990574
0.9360905 0.5079382 0.6167624 0.4048118 0.44780454 0.52607906 0.8334813 0.61453253
0.96451217 0.51015395 0.3013015 0.9747489 0.57020974 0.92262894 0.82755864 0.38712773
0.42971975 0.7802622 0.5572171 0.28448084 0.8863282 0.8441083 0.73225474 0.42385137
