artifacts/best.ckpt (torch, 785749 bytes, 62 tensors)

stage1.0.depthwise.weight f4 [3, 1, 3, 3]
0	0xbdba2ba2	-0.090903535
1	0x3f11d8a7	0.5697121
2	0xbe4cd114	-0.20001632
3	0x3fb08193	1.3789543
4	0x3ebcf0ea	0.36902553
5	0xbe06d209	-0.1316606
6	0xbe98f554	-0.2987467
7	0x3e40feb2	0.18847159
8	0xbcf1b78a	-0.029506464
9	0xbded6a10	-0.115924954
10	0x3d432b90	0.047648966
11	0xbe2bd0d4	-0.1677888
12	0x3d121f30	0.035674274
13	0x3fdfb41b	1.7476839
14	0xbd874b93	-0.066062115
15	0xbd96b4da	-0.073587134
16	0xbd03f753	-0.03221829
17	0xbe1b109d	-0.15143056
18	0x3e49f4c0	0.19722271
19	0x3e28e79a	0.16494599
20	0xbd90fdc7	-0.07079654
21	0xbfeaae3e	-1.8334424
22	0xbeb07a0a	-0.34468108
23	0x3e467e04	0.19384009
24	0x3c2d45e9	0.01057575
25	0xbdda6cc0	-0.10665274
26	0x3d23ab86	0.0399585

stage1.0.bn1.weight f4 [3]
0	0x3f0a120c	0.5393379
1	0x3f2262e2	0.63432133
2	0x3ef346ab	0.47514853

stage1.0.bn1.bias f4 [3]
0	0x3fa0d509	1.2565013
1	0x3fa60b38	1.2972174
2	0x3f9b2f89	1.2123882

stage1.0.bn1.running_mean f4 [3]
0	0xbca5f2fb	-0.020257464
1	0xbc198d8d	-0.009372127
2	0xbba67b00	-0.0050805807

stage1.0.bn1.running_var f4 [3]
0	0x4036a9c4	2.8541117
1	0x3fcb14e6	1.5865753
2	0x403c8ee8	2.9462223

stage1.0.pointwise.weight f4 [64, 3, 1, 1]
0	0xbeafba26	-0.34321707
1	0x3f2805ea	0.65634024
2	0xbea98091	-0.331059
3	0x3f4fe87b	0.8121411
4	0xbeb90c73	-0.3614231
5	0x3ed687d3	0.419005
6	0x3e28d533	0.16487579
7	0x3e1d8578	0.15382946
8	0x3f22e733	0.6363403
9	0x3e8eb6da	0.2787388
10	0x3f229522	0.6350881
11	0x3d9cb8b0	0.07652414
12	0xbe8aa193	-0.27076396
13	0x3ee53f83	0.44775018
14	0xbe951524	-0.29117692
15	0x3eaf0b58	0.34188342
16	0x3f5fa676	0.87363374
17	0x3e29b51a	0.16572991
18	0xbea85a24	-0.32881272
19	0x3f10bc56	0.5653738
20	0x3e76d4b6	0.2410458
21	0x3e873f7f	0.2641563
22	0xbf230f3c	-0.6369512
23	0xbf0af2c2	-0.5427667
24	0x3e3f1179	0.18659009
25	0xbf566c8e	-0.8375939
26	0x3d13fd7d	0.036130417
27	0x3ee067a0	0.4382906
28	0x3ea921c9	0.3303359
29	0x3eb5c414	0.35501158
30	0x3f163695	0.58677036
31	0x3decd263	0.115635656
32	0xbef97be5	-0.48727337
33	0x3e4e87e2	0.20169023
34	0xbf464aed	-0.7745808
35	0x3d9dc8fb	0.077043496
36	0xbeedb2fe	-0.46425623
37	0x3e703f38	0.23461616
38	0x3e1f47a5	0.15554674
39	0x3edb91a5	0.42884555
40	0xbf2802e4	-0.6562941
41	0xbe8735b7	-0.2640817
42	0xbf062c14	-0.5241101
43	0x3f0d3e57	0.5517325
44	0x3ec0ffdb	0.37695202
45	0x3f1d0b75	0.6134561
46	0xbf3fa7ec	-0.74865603
47	0xbe816d15	-0.25278535
48	0xbe3803ac	-0.1797015
49	0xbf700d6e	-0.9377049
50	0x3ca0733d	0.0195862
51	0x3ed6128f	0.41811034
52	0x3ee56835	0.44806066
53	0xbeba9fe4	-0.36450112
54	0xbf14cce8	-0.5812516
55	0x3ea5e201	0.3239899
56	0xbec555ae	-0.3854193
57	0x3ed3c9b1	0.41364816
58	0xbe7b7e0a	-0.24559799
59	0x3f2b6ee3	0.66966075
60	0xbf265700	-0.649765
61	0xbdcb4d0b	-0.09926804
62	0x3ec6923e	0.3878345
63	0xbe28c00d	-0.16479512
64	0xbe80fd9f	-0.25193498
65	0x3f3a96fb	0.7288663
66	0x3ea67119	0.32508162
67	0xbf352582	-0.7076036
68	0xbea2bdf3	-0.31785545
69	0x3eabe982	0.3357659
70	0xbf16fd81	-0.58980566
71	0xbeb4b638	-0.35295272
72	0xbf6163ac	-0.8804271
73	0xbe7a6454	-0.24452335
74	0x3e2630c0	0.16229534
75	0xbee11b04	-0.43965924
76	0xbe8b648c	-0.2722515
77	0x3ecbed90	0.39829683
78	0x3d61c2f1	0.05511755
79	0xbf0bf6be	-0.54673374
80	0xbf186566	-0.5952972
81	0xbe5cedbc	-0.21575063
82	0xbd85d522	-0.065347925
83	0x3f895e5e	1.0731924
84	0x3e1ae33e	0.15125749
85	0xbe85da1c	-0.26142967
86	0xbf5ebeaf	-0.8700971
87	0xbebbb0a2	-0.36658198
88	0xbf22921c	-0.63504195
89	0xbd3e1e38	-0.046415538
90	0xbf5ae43b	-0.855045
91	0x3e1f0631	0.15529706
92	0xbeb2a83a	-0.34893972
93	0x3e732131	0.2374313
94	0xbeffea23	-0.4998332
95	0xbe701a6f	-0.23447584
96	0xbe2fd8d0	-0.17172551
97	0xbeda8692	-0.42680794
98	0xbf2b5ae7	-0.6693558
99	0xbec641a6	-0.3872196
100	0xbf31005a	-0.6914116
101	0x3e720d81	0.23637964
102	0x3d7edf2c	0.062224552
103	0x3f469a7d	0.7757948
104	0x3e7f6b61	0.24943306
105	0xbf30cfed	-0.6906727
106	0x3ee0af6d	0.4388384
107	0xbe4f1243	-0.2022181
108	0x3cd79c76	0.026319724
109	0xbf5d7348	-0.8650403
110	0xbf036540	-0.5132637
111	0x3ee3123b	0.44349846
112	0x3d5a5717	0.05330571
113	0x3ef6daf3	0.4821392
114	0xbf322cf2	-0.6959983
115	0x3ea61c01	0.3244324
116	0xbf0b9006	-0.5451664
117	0xbe4b197c	-0.1983394
118	0x3ef272c2	0.47353178
119	0x3eae803a	0.34082204
120	0xbc9d7144	-0.019219048
121	0x3f9f6044	1.2451253
122	0xbbeab858	-0.007163089
123	0x3e4b366f	0.19844984
124	0xbf169598	-0.5882201
125	0xbe3df489	-0.18550314
126	0xbf56f5f1	-0.83969027
127	0x3ed44882	0.4146157
128	0xbe149cca	-0.14512935
129	0x3f761635	0.96127635
130	0x3e6df6e7	0.23238717
131	0x3e473459	0.19453563
132	0xbedbad65	-0.42905727
133	0x3f29ef16	0.6638044
134	0x3e8d3d26	0.27585715
135	0x3e23593c	0.15952009
136	0xbf1e4c1a	-0.6183487
137	0x3eb30b8d	0.3496975
138	0xbed69d95	-0.419171
139	0xbec3eb16	-0.38265294
140	0x3ebf5863	0.3737212
141	0x3e518d23	0.20463996
142	0xbf0ef1ae	-0.55837524
143	0xbee1efa8	-0.44128156
144	0xbe8e5a8c	-0.27803457
145	0x3e0e74d9	0.13911761
146	0xbf339093	-0.7014248
147	0xbf2a427e	-0.6650771
148	0xbc0cf6ba	-0.008603746
149	0xbf00f56a	-0.5037447
150	0x3eb0ab24	0.3450557
151	0x3f2c3f2b	0.67283887
152	0xbec3cdce	-0.38242954
153	0xbe6d1d5e	-0.23155734
154	0x3f335148	0.700459
155	0x3c7bda65	0.0153718935
156	0xbe387c2a	-0.18016115
157	0x3ef9b068	0.487674
158	0x3f008ba9	0.50213104
159	0x3ed7103a	0.42004567
160	0xbec5619f	-0.3855104
161	0xbe4acf02	-0.1980553
162	0x3e721086	0.23639116
163	0xbed1fb94	-0.4101225
164	0xbeb8c11f	-0.3608484
165	0x3f0f5ca6	0.56000745
166	0x3ee50b9d	0.44735423
167	0xbe83e330	-0.25759268
168	0xbf227c50	-0.63470936
169	0xbe460fce	-0.19341967
170	0xbd8222b7	-0.063542776
171	0x3e00cf31	0.12579037
172	0x3cd41b26	0.025891852
173	0xbf887307	-1.0660104
174	0xbeb01b4e	-0.34395832
175	0x3f1906b0	0.5977583
176	0x3eb9b0f6	0.36267823
177	0x3e2ab7d0	0.16671681
178	0xbf06b6b6	-0.52622545
179	0xbefc5b26	-0.4928829
180	0xbf1b5440	-0.6067543
181	0x3e97707b	0.29578003
182	0x3eaac054	0.3334986
183	0x3ed41410	0.41421556
184	0xbe77ae7e	-0.24187657
185	0xbf321788	-0.69567156
186	0xbed58a71	-0.41707185
187	0x3e9aee63	0.3026
188	0x3f1f994f	0.62343305
189	0xbc90152a	-0.017588217
190	0xbdf4ba8c	-0.119496435
191	0x3fa8fc74	1.3202043

stage1.0.bn2.weight f4 [64]
0	0x3ea1303b	0.3148211
1	0x3eddbf11	0.43309835
2	0x3f070dea	0.52755606
3	0x3efb8403	0.49124154
4	0x3e24e3ab	0.16102473
5	0x3eac1c8c	0.3361553
6	0x3eda9a59	0.42695883
7	0x3eba353d	0.36368743
8	0x3f042eb9	0.51633793
9	0x3f691743	0.9105112
10	0x3f87c0e6	1.0605743
11	0x3f35637a	0.70854914
12	0x3ee6cb78	0.4507711
13	0x3f421b23	0.7582266
14	0x3f5af24d	0.8552597
15	0x3f2d67bb	0.67736405
16	0x3eff01e4	0.4980613
17	0x3f62212f	0.88331884
18	0x3f16adc2	0.58858883
19	0x3f8935ae	1.0719507
20	0x3f3e8e24	0.7443564
21	0x3f594b4a	0.84880507
22	0x3ebfb9eb	0.37446532
23	0x3f284158	0.65724707
24	0x3ecc9aab	0.39961752
25	0x3f7bc997	0.98354477
26	0x3edd0103	0.43164834
27	0x3f2496ae	0.6429242
28	0x3f3daeae	0.74094665
29	0x3f854e87	1.041459
30	0x3f2bfa54	0.67178845
31	0x3ea26b46	0.31722468
32	0x3f439938	0.7640567
33	0x3ef95d8b	0.4870418
34	0x3f40210c	0.75050426
35	0x3eecea77	0.46272632
36	0x3f6bc0d5	0.92091113
37	0x3ec0bf13	0.37645778
38	0x3f1c3ffc	0.6103513
39	0x3f2ce478	0.67536116
40	0x3f5bf6d5	0.8592351
41	0x3e84a8c4	0.25910008
42	0x3e8ffda0	0.28123188
43	0x3ee04d83	0.43809137
44	0x3f49a02b	0.7876002
45	0x3f45bcc5	0.77241164
46	0x3f520c62	0.82050145
47	0x3f45901d	0.77173024
48	0x3f1afbb5	0.60540324
49	0x3f0642dd	0.52445775
50	0x3efc0cde	0.49228567
51	0x3f1fdeb2	0.6244918
52	0x3f387b2e	0.7206296
53	0x3ee07441	0.43838695
54	0x3eb1b5a5	0.34708896
55	0x3f6f44b7	0.93464226
56	0x3e91bbaf	0.28463504
57	0x3f047412	0.5173961
58	0x3ebcf021	0.36901954
59	0x3f42a2b0	0.7602949
60	0x3f17da40	0.593174
61	0x3ea37aad	0.31929532
62	0x3e7b2d87	0.24529086
63	0x3f06150d	0.5237587

stage1.0.bn2.bias f4 [64]
0	0x3f22ac43	0.635441
1	0x3f08c243	0.5342142
2	0xbeac4330	-0.3364501
3	0x3ec57b43	0.38570604
4	0x3f574b0a	0.84098876
5	0x3f1a013e	0.60158145
6	0x3f0c18bf	0.5472526
7	0x3f1a2178	0.6020732
8	0xbea3f92a	-0.32026035
9	0xbddf26c8	-0.10896069
10	0x3b7cf990	0.00386009
11	0xbe1e4d56	-0.15459189
12	0xbd833719	-0.064069934
13	0xbe1c40c2	-0.15259078
14	0xbdcb0cba	-0.09914537
15	0x3e89e7b9	0.26934603
16	0xbebe9449	-0.37222508
17	0x3d5038b7	0.050835337
18	0x3ea7dbd3	0.327849
19	0x3d10fee7	0.035399344
20	0x3e450ee7	0.19243966
21	0x3e1d920e	0.15387747
22	0x3f0aedb7	0.54268974
23	0x3e5a0cf8	0.2129401
24	0xbf03e050	-0.5151415
25	0x3d86164b	0.06547221
26	0x3f00e133	0.50343627
27	0x3eadfea8	0.3398335
28	0x3e46022c	0.19336766
29	0xbba3c86d	-0.004998258
30	0x3e46ea2b	0.19425265
31	0x3f1440e5	0.5791152
32	0x3e88b427	0.26699945
33	0xbed33367	-0.41250154
34	0x3c9f4dd5	0.019446293
35	0x3f00eeb9	0.5036426
36	0xb978e898	-0.00023737771
37	0x3f0953e7	0.5364365
38	0x3eb1d9c0	0.34736443
39	0x3e520dbc	0.20513052
40	0x3b6d59c2	0.003621683
41	0x3f38eb15	0.72233707
42	0x3f1df833	0.61706847
43	0xbf0217e5	-0.5081771
44	0x3e70d59c	0.23518986
45	0x3d2f3e00	0.042783737
46	0x3dc8a3cb	0.09796866
47	0x3dd78280	0.10522938
48	0x3e501837	0.20321737
49	0x3ecc7970	0.399364
50	0x3ee47b26	0.44625205
51	0xbe8487a4	-0.25884736
52	0x3e43a847	0.19107161
53	0x3efeea0f	0.49787948
54	0x3f084170	0.5322485
55	0xbdc9e1c5	-0.09857515
56	0x3f1d5060	0.6145077
57	0xbe9bf0bf	-0.30457112
58	0x3f09a028	0.53760004
59	0x3e1fa6b7	0.1559094
60	0xbe9e7e68	-0.30955815
61	0x3f177571	0.59163576
62	0x3f2460ef	0.6421041
63	0xbef96e65	-0.48717037

stage1.0.bn2.running_mean f4 [64]
0	0x3c8cffd4	0.017211832
1	0x3f876a98	1.0579405
2	0x3f94c0fe	1.1621397
3	0x3fa23896	1.2673519
4	0xbdd913db	-0.1059949
5	0x3fe1c4df	1.7638205
6	0x3f1d9d5d	0.6156824
7	0xbf92d008	-1.1469736
8	0xbf51298a	-0.8170401
9	0x3fb41c17	1.4071072
10	0x3e9dc9b6	0.30817956
11	0xbf296620	-0.66171455
12	0xbda68601	-0.08131028
13	0xbf2324e0	-0.6372814
14	0x3f031596	0.5120481
15	0xbf02f302	-0.5115205
16	0xbfb51de8	-1.4149752
17	0x3f2b7166	0.6696991
18	0xbf477656	-0.7791494
19	0x3f7f60e8	0.9975724
20	0xbef2664b	-0.47343668
21	0x3eb686cc	0.35649717
22	0xbf62d804	-0.88610864
23	0xbf44ae30	-0.7682829
24	0xbf9df05b	-1.2338976
25	0xbedad61d	-0.4274148
26	0xbfad396f	-1.3533152
27	0x3f6aabaf	0.9166822
28	0xbf993493	-1.1969169
29	0xbfab9a65	-1.3406492
30	0xbfa50572	-1.2892287
31	0xbf21adc9	-0.631558
32	0xbfc91bf6	-1.5711658
33	0xbf8c0ac3	-1.0940784
34	0x3fb08b02	1.3792422
35	0xbf0978bb	-0.53699845
36	0xbfda71c1	-1.7065965
37	0x3f9a927d	1.2075955
38	0xbf8e123d	-1.1099316
39	0x3f46613a	0.77492106
40	0x3fca4ce8	1.580472
41	0xbf3d22ca	-0.7388121
42	0xbf324f3e	-0.69652164
43	0x3fdf7d99	1.7460204
44	0x3f258c19	0.646669
45	0xbe402cdf	-0.18767117
46	0xbf13cb5f	-0.57732195
47	0xbf7f5b1e	-0.9974841
48	0xbf812a47	-1.0091027
49	0xbfba32ea	-1.4546788
50	0x3f594e58	0.8488517
51	0x3f23f0a8	0.6403909
52	0x3f81a1b1	1.0127469
53	0xbe5023b2	-0.20326117
54	0xbf2a0162	-0.6640836
55	0x3f7e0640	0.99228287
56	0xbf9018e3	-1.1257595
57	0xbf8e6190	-1.1123524
58	0x3f477a28	0.7792077
59	0xbf88a1ad	-1.067434
60	0x3d008c23	0.031383645
61	0xbf240d29	-0.6408258
62	0x3f1979e6	0.5995163
63	0x3fb3124d	1.398996

stage1.0.bn2.running_var f4 [64]
0	0x3e2b4566	0.16725692
1	0x3d8d3d28	0.0689643
2	0x3d251a9f	0.04030859
3	0x3e833164	0.2562362
4	0x3db1e493	0.08686175
5	0x3ed9b9ca	0.42524558
6	0x3cfbdc16	0.030744594
7	0x3d19d805	0.037559528
8	0x3e62911e	0.2212567
9	0x3dc5563f	0.09635591
10	0x3ea9480b	0.33062777
11	0x3e43d53a	0.19124308
12	0x3d15100e	0.036392264
13	0x3d1ffa31	0.03905696
14	0x3d21ab3f	0.039469954
15	0x3d546b01	0.05185986
16	0x3eefee98	0.4686172
17	0x3ecd69ec	0.40119874
18	0x3d3e9599	0.046529386
19	0x3dd0ea04	0.10200885
20	0x3e9cc128	0.30616117
21	0x3e9e061e	0.30864042
22	0x3d5415cb	0.051778596
23	0x3cedea2b	0.029042324
24	0x3ee56849	0.44806126
25	0x3e9c5f92	0.30541664
26	0x3d180155	0.037110645
27	0x3ecf3b9f	0.40475175
28	0x3df21f72	0.11822404
29	0x3ea10543	0.31449327
30	0x3dbb9011	0.09158338
31	0x3cc30395	0.023805419
32	0x3d33ce2e	0.0438978
33	0x3f034a88	0.512856
34	0x3e3528be	0.17691323
35	0x3d3de135	0.046357352
36	0x3e0a16bb	0.13485233
37	0x3d0ff74c	0.03514795
38	0x3d940d5d	0.07229111
39	0x3ca7f56d	0.02050277
40	0x3f19f2ea	0.6013628
41	0x3d571a9a	0.052515604
42	0x3d89395c	0.067003936
43	0x3eaa944c	0.33316267
44	0x3d1c2d6e	0.038129263
45	0x3e61d283	0.2205296
46	0x3eb725ef	0.3577113
47	0x3ced8bf5	0.0289974
48	0x3dc46c0d	0.095909216
49	0x3d88f2d7	0.06686943
50	0x3f0dcd2a	0.5539118
51	0x3df8d52c	0.12150034
52	0x3cd07bba	0.025449622
53	0x3caf6285	0.021409282
54	0x3c8a3266	0.016869735
55	0x3eddfa22	0.433549
56	0x3e3b2165	0.18274458
57	0x3ea6299a	0.32453614
58	0x3cf7a193	0.030228412
59	0x3ce3a05b	0.027786424
60	0x3db24f7e	0.08706568
61	0x3e14138f	0.14460586
62	0x3de6375d	0.112410285
63	0x3efa96d5	0.489432

stage1.1.depthwise.weight f4 [64, 1, 3, 3]
0	0xbdfec4d4	-0.12439886
1	0xbe94f860	-0.29095745
2	0x3e00f9ee	0.1259534
3	0xbeb978db	-0.36225018
4	0xbe50c6b4	-0.20388299
5	0xbefbda7f	-0.49190137
6	0x3ecb45ed	0.39701787
7	0x3f43373c	0.76256156
8	0x3e66a93a	0.22525492
9	0xbf0057a6	-0.5013374
10	0xbf085fb0	-0.5327101
11	0xbed1f4ed	-0.41007176
12	0x3e86548b	0.26236376
13	0x3eb0fdbc	0.34568584
14	0x3e9b3b85	0.30318847
15	0x3ea6c848	0.32574677
16	0x3edf268b	0.43584093
17	0x3dfb62d9	0.12274713
18	0xbf0cef5f	-0.5505275
19	0xbdc4a95c	-0.09602615
20	0xbd26336a	-0.040576376
21	0xbe8322ad	-0.25612393
22	0xbee8a0ed	-0.45435277
23	0xbe3afc9f	-0.1826043
24	0xbebbd95b	-0.36689267
25	0xbd61038a	-0.054935016
26	0xbdf2621d	-0.1183512
27	0xbf64d578	-0.8938823
28	0xbde08317	-0.109625034
29	0xbf0ad3dd	-0.5422953
30	0x3e964072	0.29346043
31	0x3e7a3961	0.24435951
32	0xbe0d8fdd	-0.1382441
33	0x3e0ffb11	0.14060618
34	0x3df6a4e5	0.1204317
35	0xbdf84939	-0.12123341
36	0xbf080e89	-0.5314718
37	0xbcd16642	-0.025561456
38	0xbe86630d	-0.26247445
39	0xbde08031	-0.109619506
40	0x3f19502e	0.5988797
41	0x3f30e37c	0.69097114
42	0xbe703137	-0.23456274
43	0x3e25e685	0.16201217
44	0xbe9bd12b	-0.3043302
45	0x3ed50c19	0.41610792
46	0x3f242aae	0.64127624
47	0x3ea4b938	0.3217256
48	0xbed28716	-0.41118687
49	0xbedd318c	-0.43201864
50	0xbebb6c2c	-0.36605966
51	0x3e9439bc	0.28950298
52	0xbed8ab59	-0.42318228
53	0x3d33e521	0.043919686
54	0x3efe5548	0.4967444
55	0x3f4ecc9f	0.80780977
56	0xbe4778b6	-0.19479641
57	0xbd8f8818	-0.0700838
58	0x3eb0d885	0.3454019
59	0xbcb637cf	-0.022243408
60	0xbef1b69e	-0.47209638
61	0xbe93338c	-0.28750265
62	0xbe6908c5	-0.22757252
63	0x3e3ee7b8	0.18643081
64	0xbeb5945d	-0.35464755
65	0xbd96e693	-0.07368197
66	0xbe93d617	-0.28874275
67	0xbf94043b	-1.1563791
68	0xbe75c3cc	-0.24000472
69	0x3ef650a5	0.48108402
70	0xbe102666	-0.14077148
71	0xbd23b458	-0.03996691
72	0xbe006772	-0.12539461
73	0xbdebcbe5	-0.11513499
74	0xbe959423	-0.29214582
75	0x3f0091d3	0.5022251
76	0xbcbc72ae	-0.023003902
77	0xbf31cc54	-0.69452405
78	0x3edf89ce	0.43659824
79	0x3e18a9fc	0.14908594
80	0xbeac4b0f	-0.33651015
81	0x3d503a30	0.050836742
82	0x3e068597	0.13136898
83	0xbe05cdb8	-0.13066757
84	0xbede37cc	-0.43401945
85	0xbef663d7	-0.48123047
86	0x3d2ad563	0.041707408
87	0xbdce9348	-0.100866854
88	0xbf7e2519	-0.99275357
89	0xbd7fc38c	-0.062442347
90	0xbefabc9f	-0.4897203
91	0x3e443e1c	0.19164318
92	0x3e885a14	0.26631224
93	0xbf4cdc56	-0.80023706
94	0x3e0164ab	0.12636058
95	0x3f2ea7c0	0.68224716
96	0xbd28632f	-0.041110214
97	0x3e18f616	0.14937624
98	0x3da448c7	0.08021694
99	0x3deaedaa	0.11471112
100	0x3de99261	0.11404873
101	0xbe49322d	-0.19648047
102	0x3ef79de9	0.48362663
103	0x3f3c7ca6	0.736277
104	0x3e7ae173	0.24500065
105	0xbef1e7fb	-0.472473
106	0xbeef38b5	-0.46722952
107	0xbdd5608a	-0.10418804
108	0xbd1b713d	-0.03794979
109	0xbe966145	-0.29371086
110	0xbe92b8c6	-0.28656596
111	0x3f1ed0a4	0.6203711
112	0x3bb985f3	0.00566172
113	0xbdbd0bfc	-0.092308015
114	0xbdfd2dd9	-0.1236226
115	0x3ea67c73	0.32516822
116	0xbf014f89	-0.50511986
117	0xbeb7bc13	-0.35885677
118	0xbeb79070	-0.35852385
119	0x3c2fb649	0.0107246125
120	0x3c5ecaf4	0.0135981925
121	0x3e8af397	0.2713897
122	0xbed111d4	-0.40833914
123	0x3e318c50	0.17338681
124	0xbecfff8c	-0.40624654
125	0xbf0651f9	-0.5246883
126	0xbd985916	-0.07438867
127	0x3ebc6adb	0.36800274
128	0x3e3699e6	0.17832145
129	0xbd9a95cf	-0.07548105
130	0x3ebec9dd	0.37263384
131	0x3f0fbbba	0.56145823
132	0x3ea9a3dd	0.3313283
133	0x3ec1c97d	0.37849036
134	0x3f11bd7f	0.56929773
135	0xbf7b8b20	-0.9825916
136	0xbcafdfc4	-0.021469004
137	0x3ed4449d	0.41458598
138	0xbe4a7c37	-0.19773947
139	0xbe8aff3d	-0.27147856
140	0x3ecbc66a	0.39799815
141	0xbd8b917b	-0.068148576
142	0xbea75cda	-0.32688028
143	0xbddad168	-0.10684472
144	0x3f03e72a	0.51524603
145	0x3f68a2aa	0.90873206
146	0x3ec40725	0.382867
147	0xbe9ec1e5	-0.31007305
148	0xbe3402ef	-0.17579244
149	0xbe7c6772	-0.24648836
150	0xbe7f3ca1	-0.24925472
151	0x3e040950	0.12894177
152	0x3c53ce40	0.012927592
153	0xbe28ddc1	-0.16490842
154	0xbee7e0f7	-0.45288822
155	0xbeac0c1e	-0.33602995
156	0xbe3300cf	-0.17480777
157	0xbe79b16c	-0.24384087
158	0xbcad5444	-0.021158345
159	0x3f4a871d	0.79112417
160	0x3e781a7e	0.24228856
161	0x3f06cbef	0.5265493
162	0xbe49ff56	-0.19726309
163	0x3ddf0a0b	0.108905874
164	0x3e1fa119	0.15588798
165	0xbeb42753	-0.35186252
166	0x3f917a89	1.136552
167	0xbe0123e9	-0.12611355
168	0xbdb0b8fa	-0.086290315
169	0x3ec79478	0.3898046
170	0xbe8f3025	-0.2796642
171	0xbb9a425c	-0.0047076177
172	0x3d0894f0	0.033345163
173	0x3ed724f9	0.42020395
174	0x3e9af116	0.3026206
175	0x3f623567	0.88362736
176	0x3df897cd	0.12138329
177	0xbeae182f	-0.34002826
178	0x3ead23a3	0.3381625
179	0x3e3cb249	0.18427385
180	0x3dc5a6b6	0.09650938
181	0x3eda9589	0.4269221
182	0x3f2384bd	0.6387442
183	0x39594fa6	0.00020724404
184	0x3d90964a	0.07059915
185	0x3ce366a4	0.027758904
186	0xbec368f2	-0.38166004
187	0xbf3afa9f	-0.7303867
188	0xbe29a348	-0.16566193
189	0xbebfad89	-0.37437084
190	0x3ebab174	0.3646351
191	0xbe4004fe	-0.18751904
192	0xbe7ca396	-0.24671778
193	0x3f706370	0.9390173
194	0x3e744ae7	0.23856698
195	0x3df34cc0	0.11879873
196	0x3e487d4e	0.1957905
197	0xbe326aeb	-0.17423598
198	0x3e9bdcef	0.30441996
199	0xbe010286	-0.12598619
200	0xbedf8988	-0.43659616
201	0x3def0a99	0.11671943
202	0xbe550b50	-0.20805097
203	0xbee045a2	-0.43803126
204	0x3e691bce	0.22764513
205	0x3f3466b7	0.7046923
206	0x3eae1207	0.3399813
207	0x3d315b04	0.04329969
208	0xbd251847	-0.040306356
209	0xbf76d6ce	-0.96421516
210	0x3df8f63f	0.12156343
211	0x3f03fbd0	0.5155611
212	0xbe84b0be	-0.25916094
213	0xbeafde58	-0.34349322
214	0x3e3e0a2d	0.18558569
215	0x3e843725	0.25823322
216	0xbe5a54be	-0.21321389
217	0xbe655b0e	-0.22398016
218	0xbddf3ebb	-0.10900637
219	0x3e090084	0.13379103
220	0x3f4e8f2b	0.80687207
221	0x3e5265f2	0.20546702
222	0xbe58973a	-0.21151438
223	0x3ef4e41b	0.4783028
224	0x3ebe6a8b	0.3719066
225	0x3eda7005	0.4266359
226	0xbe3dfd20	-0.18553591
227	0xbe8d0909	-0.27545956
228	0x3f5dc0a3	0.86622065
229	0x3e866863	0.26251516
230	0xbf14dc36	-0.58148515
231	0x3cf96584	0.030443914
232	0xbe7f1f9d	-0.24914403
233	0xbe582745	-0.2110873
234	0x3c4ef703	0.012632134
235	0x3eb9e0d9	0.36304358
236	0x3e4a9f4c	0.1978733
237	0xbebf1394	-0.37319624
238	0x3e584a3c	0.21122068
239	0x3eb62d3e	0.35581392
240	0xbf29556b	-0.6614596
241	0xbeb7a950	-0.35871363
242	0x3e3c74af	0.18403886
243	0xbe921aff	-0.2853622
244	0xbe9cc4ba	-0.3061884
245	0x3e98a2a8	0.29811597
246	0xbdf09a15	-0.11748139
247	0xbef03076	-0.46911973
248	0xbe90e98f	-0.2830319
249	0x3f43f75a	0.76549304
250	0x3f08b2d8	0.53397894
251	0x3e24bc8b	0.16087548
252	0x3e48b71d	0.19601102
253	0x3e2f32eb	0.17109267
254	0xbe8d67b9	-0.27618197
255	0x3e4663d6	0.19374022

stage1.1.bn1.weight f4 [64]
0	0x3f8cad8c	1.0990462
1	0x3f4bb6ad	0.79575616
2	0x3f0f0c85	0.5587848
3	0x3f425407	0.75909466
4	0x3f989e3f	1.1923293
5	0x40049324	2.0714808
6	0x3f75b879	0.9598461
7	0x3f86b515	1.0524012
8	0x3f1e33ea	0.61797965
9	0x3f08f0be	0.53492343
10	0x3f89bf29	1.0761462
11	0x3f5ef81d	0.8709734
12	0x3f0c7f97	0.54882187
13	0x3f21493a	0.6300236
14	0x3f448980	0.7677231
15	0x3f5afd56	0.8554281
16	0x3f3ee317	0.7456526
17	0x3f8e569e	1.1120183
18	0x3f807541	1.0035783
19	0x3f80bfd8	1.0058546
20	0x3f844bed	1.0335671
21	0x3f8a5bd0	1.0809269
22	0x3f7ea960	0.99477196
23	0x3f55e891	0.83557993
24	0x3f5a2507	0.8521275
25	0x3f99fb09	1.2029735
26	0x3f958bcf	1.1683291
27	0x3f8391e3	1.0278896
28	0x3f1e0399	0.6172424
29	0x3f8c47d6	1.0959423
30	0x3f5ab0d3	0.8542606
31	0x3fa20809	1.2658702
32	0x3f31b320	0.6941395
33	0x3f63dc51	0.8900805
34	0x3f02a06b	0.5102603
35	0x3f4dd6c7	0.8040585
36	0x3f7699af	0.9632825
37	0x3f0deff5	0.5544427
38	0x3f48dcde	0.78462017
39	0x3f2a539f	0.66533846
40	0x3f574883	0.8409502
41	0x3fbe591c	1.4870944
42	0x3f4890b4	0.783458
43	0x3f4ab8c1	0.7918816
44	0x3f4d2804	0.80139184
45	0x3f3be3c8	0.7339444
46	0x3f291515	0.66047794
47	0x3f73ff3a	0.9531132
48	0x3f230e13	0.6369335
49	0x3f4f5f4e	0.810048
50	0x3fad31af	1.3530787
51	0x3f04c6fc	0.51866126
52	0x3f8865c2	1.0656054
53	0x3f2f4026	0.6845726
54	0x3f79e443	0.97613925
55	0x3f7449c3	0.9542505
56	0x3f98d71f	1.194065
57	0x3f48937b	0.7835004
58	0x3f9dc39c	1.232532
59	0x3f614d29	0.8800836
60	0x3f217286	0.63065374
61	0x3f56fb7f	0.839775
62	0x3f6fc1a6	0.9365486
63	0x3f512c28	0.81708

stage1.1.bn1.bias f4 [64]
0	0x3ec2eddf	0.38072106
1	0x3efff2c1	0.49989894
2	0x3e23f232	0.16010359
3	0x3d30bb1a	0.043147184
4	0x3e845f4e	0.25853962
5	0x3f7b0ad9	0.9806343
6	0x3ed4f2a6	0.41591376
7	0x3fb27934	1.3943238
8	0xbdb728e0	-0.08943343
9	0x3f2ff22b	0.68728894
10	0x3ef87507	0.48526785
11	0x3de5f226	0.11227827
12	0xbeb51700	-0.3536911
13	0x3e620414	0.22071868
14	0x3e438e1e	0.19097182
15	0x3ef759f3	0.48310813
16	0xbe86bef2	-0.26317555
17	0x3ecb8e88	0.3975718
18	0x3da173c8	0.07883412
19	0x3e91cd36	0.28476876
20	0x3ed5b27f	0.41737744
21	0x3e21ce1b	0.15801279
22	0x3f112b46	0.56706655
23	0x3f1346b6	0.5752977
24	0xbed79897	-0.42108604
25	0x3f3e9b4e	0.74455726
26	0x3d1b563f	0.037924048
27	0x3e755135	0.2395676
28	0x3eb7b9ac	0.35883844
29	0x3e3a24fd	0.18178172
30	0x3e002467	0.12513886
31	0x3e68a5c0	0.22719479
32	0x3f1aac5f	0.6041927
33	0xbd22de0a	-0.039762534
34	0x3d81a4e0	0.063302755
35	0x3e45fc0a	0.19334427
36	0xbe103675	-0.14083274
37	0x3f33670a	0.700791
38	0x3f73cc92	0.95234025
39	0x3e6e8ae6	0.23295173
40	0x3eefaa56	0.46809644
41	0x3f9df306	1.233979
42	0x3ebda05f	0.37036416
43	0xbeb88787	-0.360409
44	0x3f4fa492	0.8111049
45	0xbe9f5200	-0.3111725
46	0x3d107e50	0.03527671
47	0xbdf7d5cf	-0.12101328
48	0x3e748a35	0.23880847
49	0x3b47c7e5	0.0030484137
50	0x3f2470d4	0.6423466
51	0x3ec6f998	0.388623
52	0xbd271985	-0.04079582
53	0x3df001d7	0.11719101
54	0x3fbfdad9	1.4988662
55	0x3e25e368	0.1620003
56	0x3eb04336	0.34426278
57	0xbe681be9	-0.22666897
58	0x3ded75de	0.11594747
59	0x3e43bc74	0.19114858
60	0xbdb9b9e6	-0.090686604
61	0x3efb3fcf	0.4907212
62	0x3f133139	0.5749698
63	0xbe87201e	-0.2639169

stage1.1.bn1.running_mean f4 [64]
0	0xbb780d3d	-0.0037849688
1	0x3e4aeb58	0.19816339
2	0xbe201a24	-0.15634972
3	0xbee42948	-0.44562745
4	0x3c08ebef	0.008357032
5	0x3d11495c	0.03547035
6	0x3e600e71	0.21880509
7	0xbf83115c	-1.0239673
8	0xbd1c7f23	-0.038207185
9	0xbf1faeba	-0.62375987
10	0x3da490e0	0.08035445
11	0x3de093e3	0.10965707
12	0xbd830a05	-0.063983954
13	0xbe9f55e1	-0.31120208
14	0x3f387259	0.7204948
15	0xbee6511a	-0.4498375
16	0x3d6910d2	0.056900807
17	0x3d40f032	0.047104068
18	0x3ea66162	0.32496172
19	0x3f624402	0.8838502
20	0xba6690de	-0.00087953906
21	0x3ec87fc6	0.39159983
22	0x3e85a00b	0.26098666
23	0xbe190f03	-0.14947133
24	0x3c5b499e	0.013384251
25	0x3cd48afd	0.025945181
26	0xbceb2e46	-0.028708588
27	0x3e04f48b	0.1298391
28	0xbf0c2b32	-0.5475341
29	0x3e280a71	0.16410233
30	0x3f3325ff	0.6997985
31	0x3d3fcf05	0.04682829
32	0xbf67d167	-0.905539
33	0x3c5da103	0.013527158
34	0x3e0329c8	0.12808907
35	0xbf92c02f	-1.14649
36	0x3f60020d	0.8750313
37	0x3eec09ea	0.46101314
38	0xbf84b1e3	-1.0366787
39	0xbb72309f	-0.003695525
40	0x3eef7d71	0.46775392
41	0x3d064169	0.032777224
42	0xbf97f5a9	-1.1871845
43	0x3d5c4215	0.05377396
44	0xbf7ed65e	-0.9954585
45	0x3a6b89e6	0.0008985087
46	0xbec18e7b	-0.37804016
47	0x3efe0b02	0.49617773
48	0x3e6d1f61	0.23156501
49	0x3dbc14f5	0.09183685
50	0x3d06750c	0.03282647
51	0xbd85fb79	-0.06542105
52	0x3d8950f1	0.067048915
53	0x3f0815fb	0.5315854
54	0xbdda0c38	-0.10646862
55	0x3d3e85d3	0.046514343
56	0xbc4f2a52	-0.012644367
57	0x3e3d4bf3	0.18486004
58	0xbd4147c4	-0.04718758
59	0x3c24ede4	0.010066483
60	0xbe0417b0	-0.12899661
61	0xbd1ae378	-0.037814587
62	0xbd792d14	-0.060834005
63	0x3d95b154	0.07309213

stage1.1.bn1.running_var f4 [64]
0	0x3d4895a5	0.048970837
1	0x3d8fe4fb	0.070260964
2	0x3e03b70f	0.128628
3	0x3e516a91	0.20450808
4	0x3cd1e03d	0.02561962
5	0x3d50393e	0.05083584
6	0x3e0a779a	0.13522187
7	0x3e84b79d	0.25921336
8	0x3c90642a	0.017625887
9	0x3f55d0ba	0.83521616
10	0x3e3ddbbf	0.18540858
11	0x3d8c8515	0.06861321
12	0x3c96cc91	0.018408092
13	0x3e8dbc2a	0.2768262
14	0x3f716897	0.94300216
15	0x3ec64807	0.38726828
16	0x3c9f8ced	0.019476378
17	0x3e2c823b	0.16846554
18	0x3e04d28f	0.12970947
19	0x3f9244cc	1.1427245
20	0x3dfea2e8	0.12433416
21	0x3e5c4886	0.2151204
22	0x3dc0dab5	0.09416715
23	0x3e50325f	0.20331715
24	0x3b151d8a	0.0022753202
25	0x3e1ee4d4	0.15516979
26	0x3df83b70	0.12120712
27	0x3dbc1c56	0.09185092
28	0x3f004748	0.50108767
29	0x3e5cb07c	0.21551698
30	0x3f21df7c	0.63231635
31	0x3d32efa9	0.04368559
32	0x3f3d8a18	0.7403884
33	0x3be043d5	0.0068440237
34	0x3e0d05f8	0.13771808
35	0x3f0d99af	0.5531263
36	0x3f8087c3	1.0041431
37	0x3de1713b	0.11007925
38	0x3f7ad989	0.9798818
39	0x3e23d89e	0.16000602
40	0x3eec5d63	0.46164998
41	0x3d4411b5	0.04786845
42	0x3e84ee58	0.25963092
43	0x3cbb4f95	0.022865096
44	0x3f866a9a	1.0501282
45	0x3d97c99f	0.07411503
46	0x3ea2473d	0.31694975
47	0x3ecb0034	0.39648592
48	0x3dec9e56	0.11553638
49	0x3d42217c	0.047395214
50	0x3d86bcec	0.06579003
51	0x3d16bdde	0.036802165
52	0x3e274371	0.1633432
53	0x3e3e2d9e	0.18572089
54	0x3dc6b3e4	0.0970228
55	0x3e206bf3	0.1566618
56	0x3d02854d	0.031865407
57	0x3e0d7328	0.1381346
58	0x3dffec43	0.12496235
59	0x3e8a607b	0.27026734
60	0x3d6995ca	0.057027616
61	0x3d41860a	0.04724697
62	0x3d1f12ff	0.038836475
63	0x3cbb1d9c	0.022841267

stage1.1.pointwise.weight f4 [64, 64, 1, 1]
0	0x3ccef3c7	0.025262726
1	0x3bb0d467	0.005396414
2	0xbe2cb37c	-0.16865343
3	0xbd0a9858	-0.033836693
4	0xbd411791	-0.047141615
5	0x3e643442	0.2228556
6	0x3c8db4b4	0.01729808
7	0xbe63b645	-0.22237499
8	0x3e4c254a	0.199361
9	0xbe602dbe	-0.2189245
10	0x3e4a30c6	0.19745168
11	0xbda6ee75	-0.08150951
12	0xbe221f3d	-0.15832229
13	0xbe1dfcbb	-0.1542844
14	0xbcae5f3d	-0.021285648
15	0x3f655d8f	0.89595884
16	0xbe35ebac	-0.17765683
17	0xbeae35b8	-0.3402536
18	0x3e0757e7	0.13217126
19	0x3e016011	0.12634303
20	0x3d43e79d	0.047828306
21	0xbf594288	-0.84867144
22	0xbed5da7a	-0.41768247
23	0xbf01d888	-0.50721025
24	0xbe8eae0c	-0.27867162
25	0x3f31cff8	0.6945796
26	0x3f006e52	0.50168335
27	0xbde80375	-0.113287844
28	0x3e307c4d	0.17234917
29	0x3e46713b	0.19379131
30	0x3ea2cca1	0.31796744
31	0xbe9a6b9e	-0.3016023
32	0xbd135d56	-0.035977684
33	0x3ed77122	0.420785
34	0x3dff3abc	0.124623746
35	0x3e39d097	0.18145977
36	0x3d8a3fc2	0.06750442
37	0xbdee0c2f	-0.116234176
38	0x3d985f29	0.07440025
39	0x3e0ce482	0.13759044
40	0xbd81a2d2	-0.06329884
41	0xbefa84ce	-0.48929447
42	0x3e39d362	0.18147042
43	0xbd5a2b7c	-0.053264126
44	0x3dd13104	0.10214427
45	0x3f21b8bd	0.63172513
46	0xbea293a9	-0.3175328
47	0xbe521229	-0.2051474
48	0xbec1611e	-0.37769407
49	0xbeb9f1a1	-0.3631716
50	0x3e143719	0.14474143
51	0xbe05627b	-0.13025849
52	0x3cd9cd3d	0.026587123
53	0x3e1f1d65	0.15538557
54	0x3e54d9ac	0.2078616
55	0xbebab961	-0.36469558
56	0xbeb0732e	-0.34462875
57	0xbd8a6ffc	-0.067596406
58	0xbf07d077	-0.5305247
59	0xbee644c7	-0.44974348
60	0xbdfba87d	-0.12287996
61	0xbe80e29b	-0.25172886
62	0x3e373fa8	0.17895377
63	0x3e870d85	0.26377502
64	0x3df5cc06	0.12001805
65	0xbe7ad680	-0.24495888
66	0xbd5dbe9e	-0.054136865
67	0x3ef0fb4a	0.47066718
68	0xbe5eb9c0	-0.21750546
69	0xbd2e92bc	-0.042620406
70	0xbd796060	-0.060882926
71	0x3e874fcf	0.26428077
72	0x3ebfb379	0.37441614
73	0x3ee33256	0.4437434
74	0x3d98a309	0.074529715
75	0x3cf5c885	0.030002842
76	0x3e07e155	0.13269551
77	0xbcafb214	-0.021447219
78	0x3e26dc70	0.16295028
79	0xbe82fcfd	-0.2558364
80	0x3ebb990a	0.36640197
81	0x3c0588db	0.008150305
82	0x3de6c435	0.11267892
83	0xbe089b54	-0.13340503
84	0xbdf9adf1	-0.1219138
85	0x3f0b2130	0.54347515
86	0x3e755dce	0.23961565
87	0x3e3023c7	0.17201148
88	0x3f45e000	0.7729492
89	0x3ddd0d71	0.10793579
90	0x3ede650f	0.43436477
91	0x3eb04ca7	0.3443348
92	0x3e51db72	0.20493868
93	0x3ee7dc9b	0.45285496
94	0x3e84b7ce	0.25921482
95	0x3eb00b78	0.3438375
96	0xbeeb550d	-0.45963326
97	0x3f2f50fa	0.68482935
98	0x3d4e156f	0.05031341
99	0x3ebde7ee	0.3709101
100	0x3ee9ed7f	0.45689008
101	0xbe64b77f	-0.22335623
102	0x3f159611	0.5843211
103	0xbe13e7cf	-0.14443897
104	0xbf0e44e0	-0.55573845
105	0xbd94cf81	-0.07266141
106	0xbedc5adf	-0.4303808
107	0xbec24c66	-0.37948912
108	0xbecf0b19	-0.40438154
109	0x3c70827a	0.014679546
110	0x3eb5780a	0.35443145
111	0xbe4f9753	-0.2027257
112	0xbe89afae	-0.26891845
113	0xbe4ce0df	-0.20007657
114	0xbd2a621a	-0.041597463
115	0x3dd5bf59	0.10436887
116	0x3eb02463	0.3440276
117	0xbeb3c805	-0.3511354
118	0x3f0b1276	0.54325044
119	0xbe44e063	-0.19226222
120	0xbd948047	-0.072510295
121	0xbec31aac	-0.38106287
122	0x3e4f5dee	0.20250675
123	0x3dac0660	0.083996534
124	0xbe9f39ec	-0.31098878
125	0xbe2dbb49	-0.16965975
126	0xbd1b1e3f	-0.03787064
127	0x3ebcbcb7	0.36862728
128	0xbe8bc883	-0.27301416
129	0x3dad3e65	0.084591664
130	0x3e4f0752	0.20217636
131	0xbe190dbb	-0.14946644
132	0x3e929f40	0.28637123
133	0xbe600c1a	-0.21879616
134	0x3ec97eaf	0.39354464
135	0xbe202943	-0.1564074
136	0xbb8ea457	-0.004353087
137	0x3dd370d3	0.10324254
138	0x3ec32fea	0.38122493
139	0x3eba5d89	0.36399487
140	0x3e20d5ef	0.15706609
141	0xbed06574	-0.40702403
142	0xbeaedcea	-0.3415292
143	0x3ea3527e	0.31898874
144	0x3d74378f	0.059623297
145	0x3d6ae174	0.057343915
146	0xbe02ae88	-0.12761891
147	0xbf15a92b	-0.58461255
148	0x3e75b94a	0.23996463
149	0xbec51834	-0.38495028
150	0x3c9d9fe6	0.019241285
151	0x3dd42b75	0.10359851
152	0xbe80812a	-0.25098544
153	0x3f0cf473	0.550605
154	0x3ec14d57	0.37754318
155	0x3cb4520f	0.022011785
156	0x3e9673df	0.29385278
157	0x3d560de6	0.05225935
158	0x3e92e421	0.28689674
159	0x3dba91cd	0.091098405
160	0xbeac094b	-0.3360084
161	0x3ca1a484	0.019731767
162	0xbeb5f4fc	-0.3553847
163	0x3ee6f405	0.45108047
164	0xbe55a46e	-0.20863506
165	0xbec454db	-0.3834599
166	0x3e5e3326	0.21699199
167	0xbee01cfa	-0.43772107
168	0xbe8838ab	-0.26605734
169	0xbf019073	-0.50611037
170	0x3e345a0a	0.17612472
171	0xbcb305a5	-0.021853277
172	0x3f07d7ec	0.53063846
173	0x3e074793	0.13210897
174	0x3dc307c4	0.095229656
175	0x3f4f4607	0.8096623
176	0x3db64b1d	0.089010455
177	0xbdd0f6dd	-0.102033354
178	0xbef080ad	-0.46973172
179	0x3e78415b	0.24243681
180	0xbeadc2c5	-0.3393766
181	0x3ebd209e	0.36938947
182	0x3e987a1f	0.2978067
183	0x3da6632d	0.08124385
184	0x3ee9e29a	0.45680696
185	0xbd80b25f	-0.062840216
186	0xbe1d78c3	-0.15378098
187	0x3ed57b9c	0.4169587
188	0x3e5d3436	0.21601948
189	0xbed17d89	-0.40916088
190	0x3eaec66c	0.3413576
191	0xbefcb614	-0.49357665
192	0x3d45dc44	0.048305765
193	0x3e060c36	0.13090596
194	0x3e994367	0.29934236
195	0x3ce738d0	0.028225332
196	0xbbc80fe1	-0.0061054085
197	0xbe0d50f2	-0.1380041
198	0xbedc170e	-0.4298634
199	0x3e869f62	0.26293474
200	0xbe87d69e	-0.26530927
201	0x3da2694c	0.0793024
202	0xbe6ceb14	-0.2313655
203	0xbe8105ce	-0.2519974
204	0xbe456998	-0.19278562
205	0x3f037fd1	0.5136691
206	0x3e2491b1	0.16071202
207	0xbe2c6cce	-0.1683838
208	0x3d2baef4	0.041914895
209	0xbe65da78	-0.2244662
210	0xbd1eac40	-0.03873849
211	0x3e6e332c	0.23261708
212	0xbe231caa	-0.15928903
213	0xbefa2131	-0.48853448
214	0xbe1cb06c	-0.15301675
215	0x3e932a6f	0.28743312
216	0xbc4de99b	-0.012567903
217	0x3d67b1ab	0.05656592
218	0xbf50ceb8	-0.8156543
219	0xbe072782	-0.13198665
220	0x3d70d640	0.058798075
221	0xbd9d156f	-0.07670104
222	0x3ec5eaf0	0.38655806
223	0xbd9c5cb4	-0.07634869
224	0x3ef05dfb	0.469467
225	0xbf884c87	-1.0648354
226	0xbe21ebcf	-0.1581261
227	0xbe27d857	-0.16391121
228	0x3da36b86	0.07979493
229	0x3e6c0c42	0.23051551
230	0x3d3f62df	0.04672515
231	0xbe68402f	-0.22680734
232	0xbeb48d77	-0.3526418
233	0xbd9669a4	-0.07344368
234	0xbdf09aac	-0.11748251
235	0x3e122969	0.14273609
236	0xbeee649d	-0.46561137
237	0xbf02148b	-0.50812596
238	0xbee57887	-0.44818518
239	0x3c9b5c6f	0.018964974
240	0x3dc0c84f	0.09413206
241	0x3df5f88a	0.12010296
242	0xbf947f19	-1.1601287
243	0xbe54ffa9	-0.20800652
244	0xbee58fce	-0.44836277
245	0xbe4a1b38	-0.19736946
246	0x3ead9d69	0.33909157
247	0xbcf001aa	-0.029297668
248	0x3cde033c	0.027101152
249	0xbde73714	-0.11289802
250	0xbee677fb	-0.45013413
251	0xbe8f4e9b	-0.2798966
252	0xbd8f8f7d	-0.0700979
253	0xbea3238a	-0.31863052
254	0x3cd13607	0.025538458
255	0x3e20b4e8	0.1569401

stage1.1.bn2.weight f4 [64]
0	0x3ecfbe4d	0.40574875
1	0x3f4dc0b2	0.80372155
2	0x3ea279ac	0.31733453
3	0x3f3771cb	0.7165801
4	0x3ed63f11	0.4184499
5	0x3f3a3491	0.7273646
6	0x3f26f5f1	0.65219027
7	0x3f15fef7	0.5859217
8	0x3f265a65	0.6498168
9	0x3ef606f1	0.4805217
10	0x3f5a3531	0.85237414
11	0x3edb560d	0.4283909
12	0x3f5770d9	0.84156567
13	0x3f11b38a	0.5691458
14	0x3f17ce24	0.5929892
15	0x3eab58a0	0.33466053
16	0x3f00c65e	0.50302684
17	0x3ef7db54	0.48409522
18	0x3ef5d7dd	0.48016253
19	0x3f236fc2	0.63842404
20	0x3f29fa5a	0.6639763
21	0x3f586013	0.845216
22	0x3f1852ca	0.59501326
23	0x3f389e35	0.72116405
24	0x3f0d3e5f	0.55173296
25	0x3f03dbf5	0.515075
26	0x3ed6b278	0.41933036
27	0x3ef9f11d	0.48816767
28	0x3ed6e32d	0.41970196
29	0x3ebdd32e	0.3707518
30	0x3f2d8eb3	0.67795867
31	0x3f1c02c8	0.60941744
32	0x3f1e3a7e	0.61808
33	0x3f06e9fc	0.5270078
34	0x3f4a47b4	0.7901566
35	0x3ef2daa8	0.47432446
36	0x3f164b90	0.5870905
37	0x3f692cb1	0.9108382
38	0x3f3fdf30	0.7494993
39	0x3eb7ccee	0.35898536
40	0x3f0e7c17	0.55658096
41	0x3f092918	0.5357833
42	0x3ed2b30c	0.41152227
43	0x3ed8048e	0.42190975
44	0x3f2d1e2a	0.6762415
45	0x3f40626b	0.75150174
46	0x3eb65897	0.35614464
47	0x3f870e70	1.0551281
48	0x3ed4e7f4	0.41583216
49	0x3e90ed86	0.28306216
50	0x3f25d838	0.6478305
51	0x3f072d7e	0.5280379
52	0x3e9e824b	0.3095878
53	0x3ed3a8db	0.41339764
54	0x3f36cb03	0.7140352
55	0x3f5348cb	0.8253295
56	0x3f293bae	0.6610669
57	0x3f808e81	1.0043489
58	0x3f5d08a4	0.8634131
59	0x3f6e6cdc	0.93134856
60	0x3f71b781	0.9442063
61	0x3ee60b13	0.44930324
62	0x3e937dc0	0.28806877
63	0x3f0119ca	0.50429976

stage1.1.bn2.bias f4 [64]
0	0x3e8cd3ba	0.27505285
1	0x3df29772	0.11845292
2	0x3f08633c	0.5327642
3	0x3e2902b5	0.16504939
4	0x3f141352	0.5784198
5	0xbde8a587	-0.11359697
6	0x3d20ae80	0.039228916
7	0x3de33519	0.11094112
8	0x3df3bddb	0.119014464
9	0x3ecdaf12	0.4017263
10	0x3d539f06	0.05166533
11	0x3f135389	0.5754934
12	0x3d6f5051	0.058426205
13	0x3eb17da0	0.34666157
14	0x3e3ebb9a	0.18626252
15	0x3f1090e0	0.5647106
16	0x3ea18b69	0.31551674
17	0x3eb50156	0.35352582
18	0x3f0b66f0	0.54453945
19	0x3e8a7722	0.27044016
20	0x3e5c24b3	0.21498375
21	0xbe15173c	-0.14559644
22	0x3e70fb2c	0.23533314
23	0xbe3ffb8d	-0.18748303
24	0x3e8a0412	0.2695623
25	0x3ecd44ba	0.40091497
26	0x3ec91ee4	0.3928138
27	0xbe73b3f1	-0.23799111
28	0x3ec0a310	0.37624407
29	0x3f018777	0.5059733
30	0x3e690828	0.22757018
31	0x3ea6ef5a	0.32604486
32	0x3e805fdd	0.25073138
33	0x3efb6006	0.49096698
34	0xbda34b6d	-0.07973371
35	0x3ec55cc2	0.3854733
36	0x3eacec3e	0.33773988
37	0x3bbd3d49	0.005775128
38	0x3c5d2b62	0.013499113
39	0x3ef24bfd	0.473236
40	0x3ee980d3	0.45606098
41	0x3ecd17dd	0.4005727
42	0x3efa868c	0.48930776
43	0x3ec9e46c	0.39432085
44	0xbdce53ef	-0.10074603
45	0xbe676c63	-0.2259994
46	0x3f07b679	0.53012806
47	0x3cc8911d	0.024483258
48	0x3f0c9c13	0.5492565
49	0x3f0720c0	0.5278435
50	0x3e408514	0.18800765
51	0x3e9bab20	0.30403996
52	0x3f156fae	0.58373535
53	0x3eb3b50c	0.35099065
54	0x3e062fb1	0.1310413
55	0x3e3636a1	0.17794277
56	0x3de212e7	0.110387616
57	0xbc86bccf	-0.016447453
58	0x3da51626	0.08060865
59	0xbe072346	-0.1319705
60	0x3d5e52dc	0.05427824
61	0x3ecb8ae8	0.39754415
62	0x3f0c638f	0.54839414
63	0x3e757f88	0.2397443

stage1.1.bn2.running_mean f4 [64]
0	0xbf5a9c77	-0.85394996
1	0x401a7305	2.4132702
2	0x3f5a514a	0.8528029
3	0xc019ccfc	-2.4031363
4	0x3f979b02	1.184418
5	0xc042e118	-3.0449886
6	0x3f82348d	1.0172287
7	0x3f1c9b94	0.61174893
8	0xbf6e330d	-0.9304665
9	0xbffe29c6	-1.9856498
10	0xc01cf835	-2.4526494
11	0x4071fa74	3.7809114
12	0xbf747986	-0.9549793
13	0x3fc12621	1.5089761
14	0xbf744ea3	-0.9543249
15	0x3fa6047f	1.2970122
16	0x3f8aa0bf	1.0830306
17	0xc02d5874	-2.7085238
18	0xbfe73eba	-1.8066018
19	0xc0cc1cc6	-6.3785124
20	0xbf91b3e3	-1.1383022
21	0x3f924f89	1.1430522
22	0xbf14b427	-0.5808739
23	0xc02d3832	-2.706555
24	0xbf26c33d	-0.6514166
25	0x3f119f45	0.5688365
26	0x3fea62c8	1.8311396
27	0x3fcd516a	1.6040471
28	0x400b447f	2.1760557
29	0x40128a24	2.2896814
30	0xbfa51a22	-1.28986
31	0x400bdc9a	2.1853395
32	0x3ffb592f	1.9636592
33	0xc014fb3c	-2.3278341
34	0xc0b1bb54	-5.554117
35	0xbed7c228	-0.42140317
36	0xc0476ee8	-3.1161442
37	0xc02e2579	-2.7210371
38	0xc033102a	-2.7978616
39	0x3fcc7853	1.597422
40	0x40135335	2.3019536
41	0xbf4a9209	-0.7912908
42	0xbfcc492a	-1.5959828
43	0xbe3cd55a	-0.18440762
44	0xc01258fb	-2.286681
45	0xc0b05190	-5.5099564
46	0x3fceca5a	1.6155503
47	0xbebe0440	-0.37112617
48	0xbe12d233	-0.14337997
49	0xc067f385	-3.6242383
50	0x3dc22965	0.09480552
51	0x4021d9d1	2.5289195
52	0x3ffa847c	1.9571681
53	0xc03c4119	-2.9414732
54	0xc0077da4	-2.1170435
55	0xbfb45d1b	-1.4090914
56	0xc000381b	-2.0034244
57	0xc00c8250	-2.1954536
58	0xc007c9bf	-2.1216886
59	0xbff566ec	-1.9172034
60	0x405846d4	3.379323
61	0x3fbd514b	1.4790434
62	0xc01b2b41	-2.424515
63	0xbfd7b279	-1.685134

stage1.1.bn2.running_var f4 [64]
0	0x4072651e	3.7874217
1	0x412c7007	10.77735
2	0x406386a8	3.5550938
3	0x40a2d837	5.0888934
4	0x41517a15	13.092305
5	0x410a0e02	8.62842
6	0x40cd7233	6.4201903
7	0x404de888	3.2173176
8	0x40c6d3d6	6.213359
9	0x40d0fd87	6.530948
10	0x417731f6	15.4496975
11	0x413f4f4e	11.9568615
12	0x411d9499	9.848779
13	0x41191862	9.568453
14	0x410550d5	8.332234
15	0x4134811a	11.281519
16	0x40de13f6	6.9399366
17	0x40cbf232	6.373315
18	0x40910944	4.532381
19	0x410c3b2d	8.764447
20	0x404aa850	3.166523
21	0x41564149	13.390939
22	0x40a4faba	5.1556063
23	0x414a668b	12.650035
24	0x40e5e2fb	7.1839576
25	0x40b52959	5.6612973
26	0x408d95d8	4.4245415
27	0x40bd8702	5.9227304
28	0x40d788df	6.735458
29	0x40a30659	5.094525
30	0x4107231f	8.4460745
31	0x40b63a64	5.694628
32	0x406e7b11	3.7262614
33	0x41346241	11.273988
34	0x414069f0	12.025864
35	0x412c9e42	10.788637
36	0x411a88ee	9.65843
37	0x4154788f	13.279433
38	0x413cba5f	11.795501
39	0x40964205	4.695559
40	0x414d3b80	12.827026
41	0x41049ddd	8.288541
42	0x40ab2740	5.3485413
43	0x4114c689	9.2984705
44	0x411e7601	9.90381
45	0x410e480c	8.89259
46	0x41658672	14.345324
47	0x41795818	15.584007
48	0x40d5a84a	6.676793
49	0x40a3f70d	5.1239076
50	0x40f6d55f	7.7135463
51	0x401f2e7d	2.4872124
52	0x4182bea3	16.343084
53	0x412873c7	10.528266
54	0x40d011f9	6.502194
55	0x409f5bc5	4.9799523
56	0x40b50385	5.6566796
57	0x4148344f	12.512771
58	0x413cd48b	11.80189
59	0x41738b31	15.221482
60	0x415713ff	13.442382
61	0x40a4f511	5.1549153
62	0x4089c6c1	4.305512
63	0x40d90e8c	6.7830257

stage2.0.depthwise.weight f4 [64, 1, 3, 3]
0	0x3c1de204	0.009636406
1	0xbe255eaa	-0.16149393
2	0x3e9a5797	0.3014495
3	0x3f040558	0.51570654
4	0xbf177de4	-0.5917647
5	0x3f1d63d5	0.61480457
6	0x3d92e77e	0.0717306
7	0xbd454ede	-0.048170917
8	0xbd341ccf	-0.043972787
9	0xbee80791	-0.45318273
10	0xbf28f904	-0.6600497
11	0xbe781ee2	-0.24230531
12	0x3dd7bb70	0.10533798
13	0x3e7d559e	0.24739692
14	0x3d2fb6fe	0.042899124
15	0x3ef24910	0.47321367
16	0x3eba0b20	0.36336613
17	0x3e7b1e61	0.24523307
18	0x3eaf2209	0.34205654
19	0x3f17fbb5	0.5936845
20	0x3f06da49	0.52676827
21	0x3e0125b4	0.12612039
22	0x3d0aaa3c	0.033853754
23	0xbe8bbf95	-0.27294603
24	0xbe838517	-0.25687477
25	0xbeb18999	-0.3467529
26	0xbefa4c40	-0.488863
27	0x3a954304	0.001138777
28	0xbe5b9e1f	-0.21447037
29	0x3dc36a0b	0.095417105
30	0xbf359603	-0.70932025
31	0xbda2d6bf	-0.07951116
32	0x3f39c5a8	0.72567225
33	0xbe038313	-0.1284297
34	0xbbfc01b1	-0.0076906313
35	0x3e78ef18	0.24309957
36	0x3f02f250	0.5115099
37	0x3e2d42a9	0.1691996
38	0xbee77a08	-0.4521029
39	0x3f12c3cf	0.5733003
40	0xbe243eae	-0.16039535
41	0xbf0153dc	-0.50518584
42	0x3ecf821e	0.4052896
43	0xbe876446	-0.2644369
44	0xbe8eee5b	-0.27916226
45	0x3ee6b9d8	0.45063663
46	0x3f2fa01c	0.6860368
47	0x3e9ca0a9	0.30591324
48	0x3e10ee1d	0.14153333
49	0x3e432aac	0.19059247
50	0x3e48095a	0.19534817
51	0x3ec347e2	0.3814078
52	0x3edc833c	0.43068874
53	0x3ecd7e92	0.40135628
54	0x3dafdf24	0.085874826
55	0x3f0bfb46	0.5468029
56	0xbee3f256	-0.44520825
57	0xbe9d3972	-0.3070789
58	0x3ed867eb	0.42266783
59	0x3f1164b5	0.5679429
60	0xbe60545d	-0.21907182
61	0xbdacb932	-0.08433761
62	0x3e0260b5	0.12732203
63	0xbe3bb056	-0.18328986
64	0x3f3be399	0.7339416
65	0x3f15c267	0.5849976
66	0x3e2ad535	0.16682895
67	0x3d91e737	0.07124179
68	0xbeb9ea61	-0.3631163
69	0x3d58cc46	0.052929185
70	0xbe6e552b	-0.23274677
71	0xbeba0c28	-0.363374
72	0x3aaabc8c	0.0013026162
73	0x3d8b29c4	0.067950755
74	0x3e7cd462	0.24690393
75	0xbe21e206	-0.15808877
76	0x3feb2d9b	1.8373293
77	0xbcf22a1b	-0.029561093
78	0x3de94ba1	0.11391378
79	0xbd84a328	-0.06476432
80	0x3e40a002	0.18811038
81	0x3ddcc109	0.10779006
82	0xbe7a672f	-0.24453424
83	0xbec02a9d	-0.3753251
84	0x3eccbfab	0.3998998
85	0x3eecf9c4	0.46284306
86	0xbf4bb77e	-0.7957686
87	0x3cd0cc4e	0.025488045
88	0x3eb0f145	0.34559074
89	0xbe641a10	-0.22275567
90	0xbd1a4b2e	-0.037669353
91	0xbe660e79	-0.22466458
92	0xbe44ad8c	-0.19206828
93	0xbe46d48d	-0.19417019
94	0x3f6d06da	0.9258858
95	0x3f6683e8	0.9004502
96	0xbdfb9146	-0.12283568
97	0x3ecd2ab6	0.40071648
98	0xbdd336fe	-0.10313223
99	0xbf1a91d0	-0.6037874
100	0x3e0e8cfb	0.13920967
101	0x3f044633	0.51669616
102	0xbe9c4810	-0.3052373
103	0x3cf33bd3	0.029691612
104	0x3f2a1acf	0.66447157
105	0xbed84dbb	-0.42246804
106	0x3d09052a	0.03345219
107	0x3c0f1141	0.008732141
108	0xbc2affb4	-0.010436941
109	0x3efc93fd	0.49331656
110	0xbe69d7bc	-0.22836202
111	0x3e823586	0.2543146
112	0x3f7f6208	0.9975896
113	0xbe04e61b	-0.12978403
114	0xbdb06982	-0.08613874
115	0x3f10da80	0.56583405
116	0x3b803c56	0.0039134426
117	0xbf0e1e7d	-0.5551527
118	0xbec051ed	-0.37562504
119	0x3e2c591f	0.16830872
120	0xbee0dd34	-0.43918765
121	0x3e7ec1e3	0.2487865
122	0x3f114a64	0.56754136
123	0xbe56f910	-0.20993447
124	0x3eae2e61	0.3401976
125	0x3eda492e	0.42633957
126	0xbf181d89	-0.5942007
127	0x3d0e7840	0.034782648
128	0x3dca8101	0.09887887
129	0x3ddb7bbe	0.10716961
130	0x3f28a762	0.65880406
131	0xbed0ff2b	-0.40819678
132	0x3eb186aa	0.34673053
133	0x3ebe73fc	0.37197864
134	0xbe52749b	-0.20552294
135	0x3ed670c0	0.41882896
136	0x3c411f6d	0.011787278
137	0xbe6bcc32	-0.23027113
138	0x3f009db4	0.50240636
139	0xbee2645d	-0.44217196
140	0xbe5a08f0	-0.21292472
141	0x3f12cccd	0.5734375
142	0xbe8f3b66	-0.27975005
143	0xbee9bdd4	-0.4565264
144	0x3d29f276	0.041490994
145	0xbe0800d6	-0.13281569
146	0x3e7ef4ff	0.24898146
147	0xbd0e4426	-0.03473296
148	0xbfa5a956	-1.2942302
149	0xbe32c3d6	-0.17457518
150	0x3ea3f8ba	0.320257
151	0x3dd87228	0.105686486
152	0x3e8ee60b	0.27909884
153	0x3dbe816f	0.09302031
154	0x3f68e169	0.9096895
155	0x3e8d76d5	0.27629724
156	0x3d14d3d0	0.036334813
157	0x3f1a95ab	0.60384625
158	0xbe69341a	-0.22773781
159	0xbed26fc2	-0.4110089
160	0xbe1e616f	-0.15466855
161	0xbed2df5c	-0.41186035
162	0x3b7a3803	0.0038180358
163	0xbf2f3f6c	-0.6845615
164	0xbdbe8a7a	-0.09303756
165	0xbdea02ab	-0.1142629
166	0xbf41abaf	-0.75652593
167	0xbe1dcdca	-0.15410534
168	0x3e6ee271	0.23328568
169	0x3df4d9b0	0.11955583
170	0x3ec8a6d3	0.39189777
171	0xbe944910	-0.28961992
172	0x3e78c87c	0.24295229
173	0xbeb62db3	-0.3558174
174	0x3e18c5e8	0.14919245
175	0x3f874366	1.0567443
176	0xbe2f9ed4	-0.17150432
177	0xbd8c442b	-0.068489395
178	0x3d2ff7ac	0.042960808
179	0xbe3bbd47	-0.18333922
180	0xbf374413	-0.7158825
181	0xbecd1dae	-0.40061706
182	0xbc891f4b	-0.016738554
183	0xbe7e773e	-0.24850175
184	0x3eb9a14c	0.36255872
185	0x3eaf413d	0.3422946
186	0x3d34c3f4	0.044132188
187	0x3ef5850b	0.47953066
188	0x3e4b25f1	0.19838692
189	0x3c2dda05	0.010611062
190	0xbeabb72a	-0.3353818
191	0xbf2bb24d	-0.6706894
192	0xbc5204f8	-0.012818567
193	0xbead3453	-0.33828983
194	0xbf6d5eeb	-0.9272296
195	0xbeba8ca3	-0.36435422
196	0x3dd8ce13	0.105861805
197	0x3e169535	0.14705355
198	0xbe1f3278	-0.15546596
199	0x3e072f5c	0.1320166
200	0xbe80b27c	-0.25136173
201	0x3db8778d	0.090071775
202	0x3f625786	0.884148
203	0xbf1bfd20	-0.60933113
204	0xbc7c16e2	-0.015386315
205	0xbd6d1e17	-0.057890024
206	0xbe8aa0c0	-0.27075768
207	0x3e6d71d2	0.2318795
208	0x3df46724	0.11933735
209	0xbe0de238	-0.13855827
210	0x3ddc9c71	0.10772026
211	0x3f20afe0	0.62768364
212	0x3e82c688	0.25542092
213	0x3e8d6d9f	0.27622697
214	0x3f2b1d2d	0.66841394
215	0x3ef813f0	0.4845271
216	0x3de18245	0.11011175
217	0xbbe3a7b1	-0.0069474806
218	0xbccd42fb	-0.025056353
219	0x3d33f5cf	0.043935593
220	0x3f7c8ddc	0.9865396
221	0x3dc98313	0.098394535
222	0xbe753172	-0.23944643
223	0xbf08576d	-0.532584
224	0xbe05f228	-0.13080657
225	0x3f135102	0.57545483
226	0x3f13926f	0.57645315
227	0xbdcdb53a	-0.10044332
228	0xbd47db3e	-0.04879307
229	0xbe9184ae	-0.2842154
230	0xbe8ca209	-0.27467373
231	0xbf15db8b	-0.5853812
232	0xbeb860e8	-0.36011434
233	0x3d04d7a3	0.03243221
234	0xbeaeae71	-0.34117463
235	0x3eed2e87	0.4632456
236	0x3f1891df	0.5959758
237	0xbea6f45c	-0.32608306
238	0x3e9b2185	0.3029901
239	0x3ead5c8a	0.33859664
240	0xbed6ce20	-0.41954136
241	0xbe279464	-0.163652
242	0xbec8993d	-0.39179412
243	0x3e9a75a7	0.30167887
244	0x3d9dfb75	0.07713977
245	0x3ea530fb	0.32263932
246	0xbe95b570	-0.29239988
247	0x3f96a85d	1.177013
248	0x3dc4f4d9	0.096170135
249	0x3e1665c0	0.14687252
250	0xbdd12587	-0.10212236
251	0xbe0f1bb0	-0.13975406
252	0xbe9f45ef	-0.31108043
253	0xbf226f8a	-0.63451445
254	0xbf00ac75	-0.5026315
255	0x3ee4a1c1	0.44654658

stage2.0.bn1.weight f4 [64]
0	0x3f5611c7	0.83620876
1	0x3f5ca37b	0.8618695
2	0x3f553db3	0.8329727
3	0x3f476142	0.7788278
4	0x3f999fcf	1.2001895
5	0x3f0aaefd	0.5417326
6	0x3f7d9565	0.9905608
7	0x3f47d699	0.78061825
8	0x3f81f6b3	1.0153412
9	0x3f8b12f3	1.0865158
10	0x3f8f1bd7	1.1180371
11	0x3fa401a6	1.2813003
12	0x3f6f05e2	0.9336835
13	0x3f7f98ec	0.99842715
14	0x3f6b4626	0.91903913
15	0x3f8af3ab	1.0855612
16	0x3fa1b39a	1.2632935
17	0x3f438257	0.7637076
18	0x3f8006ba	1.0002053
19	0x3f614d1e	0.88008296
20	0x3f3a2c33	0.7272369
21	0x3f80c82b	1.0061086
22	0x3f65c26d	0.89749795
23	0x3f1055e5	0.56381065
24	0x3f83980b	1.0280775
25	0x3f5ddb41	0.8666268
26	0x3f212fa1	0.629633
27	0x3f3dde9b	0.74167794
28	0x3f836533	1.0265259
29	0x3f9effcf	1.2421817
30	0x3fa48a8e	1.2854784
31	0x3f354877	0.708137
32	0x3f1d04e8	0.6133561
33	0x3f9ec2fa	1.2403252
34	0x3f7df1c8	0.99197054
35	0x3f9954b5	1.1978976
36	0x3f76c3ad	0.9639233
37	0x3fb92d8c	1.4467025
38	0x3f854fd5	1.0414988
39	0x3f840752	1.0314734
40	0x3f9d643e	1.2296216
41	0x3f7e8905	0.99427825
42	0x3f75d377	0.96025795
43	0x3f5fef4b	0.8747451
44	0x3f6c84cb	0.92390126
45	0x3f72fcb5	0.9491685
46	0x3fb1e2a1	1.3897287
47	0x3fa908f6	1.320586
48	0x3f3c5fa6	0.7358345
49	0x3f3961f9	0.7241512
50	0x3f48be7c	0.78415656
51	0x3f653dc6	0.89547384
52	0x3fb47f13	1.410128
53	0x3f8456b3	1.0338959
54	0x3f826551	1.0187169
55	0x3f61ab94	0.8815243
56	0x3f419073	0.75611037
57	0x3f6e58f5	0.9310449
58	0x3fb1c21c	1.3887362
59	0x3f907688	1.1286173
60	0x3fcbbd4c	1.5917144
61	0x3f8880c3	1.0664295
62	0x3f65ed31	0.8981505
63	0x3f44eb9f	0.7692203

stage2.0.bn1.bias f4 [64]
0	0x3dfc0840	0.12306261
1	0x3e9df764	0.30852807
2	0x3d5cced9	0.053908203
3	0x3e9f5866	0.3112213
4	0xbc96c9b8	-0.018406734
5	0x3e9f3989	0.31098583
6	0xbccb764a	-0.024836678
7	0xbe28b678	-0.16475856
8	0x3f12fa4c	0.5741317
9	0x3eefe8a2	0.46857172
10	0x3ef2ae86	0.47398776
11	0x3edea1c1	0.43482783
12	0xbc636755	-0.013879617
13	0x3d87866f	0.06617438
14	0x3db479f0	0.0881232
15	0x3d6f16f0	0.058371484
16	0x3decfd87	0.11571794
17	0x3f045456	0.51691186
18	0x3ea8911e	0.32923216
19	0x3f30f664	0.6912596
20	0xbcddf45f	-0.027094064
21	0x3f0f95dc	0.5608804
22	0x3e077034	0.13226396
23	0x3f3ac0b7	0.7295031
24	0x3df89673	0.12138071
25	0x3e0f079f	0.13967751
26	0x3f6451a3	0.8918707
27	0xbe8dcdaf	-0.27695987
28	0x3e3a619b	0.18201296
29	0xbe6e93f9	-0.23298635
30	0x3e8bc420	0.2729807
31	0x3e14fedd	0.14550348
32	0x3fdc8c9d	1.7230412
33	0x3ed6b146	0.41932124
34	0x3d46ce6a	0.048536696
35	0x3e1ab6b5	0.1510876
36	0x3e67171c	0.2256741
37	0x3e9cec81	0.30649188
38	0x3e8088a7	0.25104257
39	0x3e28bb49	0.16477694
40	0x3f5d5b73	0.86467665
41	0x3ea821c5	0.32838264
42	0x3de2d3f4	0.11075583
43	0x3f0ff1b6	0.56228197
44	0x3edf59cb	0.43623194
45	0x3eb2e11e	0.34937376
46	0x3f751c40	0.9574623
47	0x3e96fe87	0.29491064
48	0x3ed34de9	0.41270378
49	0x3e8721d2	0.2639299
50	0x3e5bd209	0.21466841
51	0xbd8fc005	-0.07019047
52	0x3f20198b	0.62538975
53	0x3eae3ed2	0.34032303
54	0x3e0f4b3c	0.13993543
55	0x3e876bae	0.2644934
56	0x3e2da651	0.16957976
57	0x3f2af60d	0.66781694
58	0x3e8375d9	0.25675848
59	0x3efce8a3	0.49396238
60	0x3de96f6c	0.11398205
61	0xbd600ece	-0.05470162
62	0x3f30ea0e	0.6910714
63	0x3f053209	0.5202947

stage2.0.bn1.running_mean f4 [64]
0	0x3ea4d219	0.32191542
1	0x3d708c2f	0.05872744
2	0x3e196dba	0.14983264
3	0xbd090a21	-0.033456925
4	0xbce2fbd6	-0.027707975
5	0x3f967fa1	1.1757699
6	0x3e9f40e4	0.31104195
7	0x3e513b5e	0.20432803
8	0x3fb9b7bc	1.4509196
9	0xbe27abd1	-0.16374137
10	0x3f39447c	0.72370124
11	0x3d523028	0.051315457
12	0x3f65246b	0.89508694
13	0x3d92f3fa	0.07175441
14	0x3e7949f1	0.24344613
15	0xbdb696a8	-0.08915454
16	0xbed79233	-0.4210373
17	0x3ec7ac47	0.38998625
18	0xbf385508	-0.7200475
19	0x3e8780ef	0.26465556
20	0x3d2df827	0.042472985
21	0xbf7c17a9	-0.984736
22	0xbdf634a3	-0.120217584
23	0x3f5c81b9	0.8613544
24	0x3e2928fa	0.16519538
25	0xbe8b1ab1	-0.271688
26	0x3dd14ca3	0.102196954
27	0x3e8ef811	0.27923635
28	0xbe4c259c	-0.19936222
29	0xbd3f3d32	-0.04668922
30	0x3eda7f22	0.4267512
31	0x3f6e9bcd	0.93206483
32	0xbd825905	-0.063646354
33	0x3cc78c41	0.02435887
34	0x3e99e927	0.30060694
35	0xbf3b5a67	-0.7318482
36	0x3e9ce858	0.30646014
37	0x3e993397	0.29922172
38	0x3e7d490d	0.24734898
39	0xbe50f340	-0.20405293
40	0x3d97639c	0.07392046
41	0xbf276b45	-0.65398055
42	0x3dd4ac1a	0.10384388
43	0x3fa50b66	1.2894104
44	0x3f0e8995	0.55678684
45	0x3e1dfaed	0.15427752
46	0xbd3ae681	-0.045629982
47	0xbf6c7b92	-0.92376053
48	0xbe20b3ca	-0.15693584
49	0x3dae7e27	0.085201554
50	0x3f1c1842	0.60974514
51	0x395c5050	0.00021010754
52	0xbc9a4fc5	-0.018836865
53	0x3e1a2d0d	0.15056248
54	0xbcffdef5	-0.031234244
55	0x3df710fb	0.12063786
56	0x3dd66576	0.10468571
57	0xbfc9ace0	-1.5755882
58	0xbf0171b4	-0.5056412
59	0xbf558529	-0.8340631
60	0xbf7b7231	-0.9822112
61	0xbe9a64e5	-0.301551
62	0xbe042cde	-0.1290774
63	0xbf55afb0	-0.834712
